pqc_reup_v1_output/model_params_epoch_170.pth (torch, 61385 bytes, 6 tensors)

reupload_weights f4 [12, 3, 4]
0	0x3e80cbce	0.2515549
1	0x3db43a2e	0.088001594
2	0x3e39f936	0.18161473
3	0xbe3358ad	-0.17514296
4	0x3e399fad	0.18127318
5	0xbf12e54a	-0.5738112
6	0x3ea22ca7	0.31674692
7	0x3f24a37c	0.6431196
8	0x3f0f9806	0.56091344
9	0x3d7a27c9	0.0610731
10	0x3e0c60ba	0.13708773
11	0xbf4c18fe	-0.79725635
12	0xbe624226	-0.22095546
13	0xbda6ed35	-0.081507124
14	0x3da2930f	0.079382055
15	0xbcd7069c	-0.026248269
16	0x3ed46987	0.4148676
17	0xbf6ff49d	-0.93732625
18	0xbf1ef49d	-0.62092
19	0x3e0fbbde	0.1403651
20	0xbea452aa	-0.32094318
21	0x3de022c5	0.10944132
22	0x3e8f35fd	0.27970877
23	0x3e8e7576	0.2782399
24	0x3e941423	0.28921613
25	0x3deb0e8a	0.114773825
26	0x3d440bc9	0.0478628
27	0xbcd8779e	-0.026424225
28	0x3f4fd6ee	0.8118733
29	0xbeb2dcf4	-0.349342
30	0x3d59f59e	0.053212754
31	0xbf67bba9	-0.9052072
32	0xbab182eb	-0.0013543045
33	0x3e150dd4	0.14556056
34	0x3f3a959d	0.7288454
35	0xbdc1f17f	-0.0946989
36	0xbe037b11	-0.12839915
37	0xbda2fe12	-0.07958616
38	0x3c469c0f	0.012122168
39	0xbdaae725	-0.083448686
40	0x3e8f2cc9	0.27963856
41	0x3f62f48d	0.88654405
42	0x3e007969	0.12546314
43	0xbf35f97f	-0.71083826
44	0x3f0d00a1	0.55079085
45	0x3f8aab81	1.0833589
46	0xbd5bbbfb	-0.05364607
47	0xbeb8022a	-0.3593915
48	0xbc974de3	-0.018469756
49	0xbd6c6ba4	-0.05771984
50	0x3e27eb64	0.16398388
51	0x3d8058f7	0.06266969
52	0x3f896841	1.0734941
53	0x3f78cb4b	0.971852
54	0xbf8ea4c6	-1.1144035
55	0xbf105da6	-0.56392896
56	0x3ed5c221	0.4174967
57	0x3eef4337	0.46730968
58	0xbf97d8c5	-1.1863028
59	0xbeeb60b3	-0.45972213
60	0xbd592592	-0.053014345
61	0x3d209c64	0.039211646
62	0xbdcb259b	-0.09919282
63	0xbe28387e	-0.164278
64	0x3f02f4b4	0.5115464
65	0x3e59eb84	0.21281248
66	0xbe86c861	-0.26324752
67	0x3e24bf82	0.1608868
68	0xbe8b2bd7	-0.27181885
69	0xbeb077a7	-0.34466287
70	0xbf8676bc	-1.0504985
71	0x3bfccc90	0.0077148154
72	0xbbb81298	-0.005617451
73	0xbc8c534e	-0.017129567
74	0xbe747ca6	-0.23875675
75	0x3d935806	0.071945235
76	0xbe1d064c	-0.15334433
77	0xbd0e4024	-0.034729138
78	0xbe49b1fd	-0.19696803
79	0x3ebbff56	0.36718243
80	0x3eb87acc	0.36031187
81	0x3eb52579	0.35380152
82	0x3ed69c87	0.41916296
83	0x3f0458e6	0.5169815
84	0x3defcc7e	0.11708926
85	0x3dc1624f	0.09442579
86	0x3de2100a	0.110382155
87	0xbd7e0afc	-0.062022194
88	0xbea4a62c	-0.3215803
89	0xbf0d6956	-0.55238855
90	0xbe97f6ac	-0.29680383
91	0x3eb5de66	0.3552124
92	0xbe9e8130	-0.30957937
93	0xbdccc531	-0.09998549
94	0x3f2ef1c8	0.6833768
95	0x3ec37cb2	0.38181072
96	0xbe71a5ab	-0.23598354
97	0x3e26a029	0.16272034
98	0x3e198a29	0.1499411
99	0x3dc5cf18	0.096586406
100	0xbe405c56	-0.18785223
101	0x3efab497	0.48965904
102	0x3f4096f8	0.7523036
103	0x3e576d6c	0.21037835
104	0x3c65a885	0.014017229
105	0x3f2d127b	0.67606324
106	0x3d3fe832	0.046852298
107	0xbe6bf751	-0.23043562
108	0xbdcfdda3	-0.10149696
109	0x3e2f683a	0.17129603
110	0x3e5aef94	0.21380454
111	0x3dd9068c	0.10596952
112	0x3d62d45f	0.055378314
113	0x3f06868d	0.5254906
114	0x3e1c97d3	0.15292291
115	0xbf27f0ff	-0.65602106
116	0x3eb16034	0.3464371
117	0x3efd3a3e	0.49458498
118	0x3e3497ce	0.17636034
119	0x3f1e3974	0.61806417
120	0x3e379368	0.17927325
121	0xbf1cc641	-0.6124001
122	0xbe4f6c78	-0.20256221
123	0x3e847daf	0.2587714
124	0x3eada6d9	0.33916357
125	0x3ebbb257	0.366595
126	0x3f3697ee	0.71325576
127	0x3f0b8ded	0.54513437
128	0xbf610bd6	-0.87908685
129	0xbf7c3984	-0.9852526
130	0xbf44fad1	-0.76945215
131	0xbf3af150	-0.73024464
132	0xbc2444c6	-0.0100261625
133	0x3d96ae2d	0.0735744
134	0x3dd6a923	0.10481479
135	0x3e9576ea	0.29192287
136	0xbfb5c106	-1.4199531
137	0x3de59586	0.1121016
138	0x3de11c41	0.10991717
139	0xbf162f2a	-0.58665717
140	0xbfa17ffa	-1.261718
141	0x3eec09f3	0.4610134
142	0x3ec60e26	0.3868267
143	0xbd8a4ff6	-0.067535326

reupload_bias f4 [12, 3]
0	0xbf098afd	-0.53727704
1	0x3e469be5	0.19395407
2	0xbebe70cd	-0.37195435
3	0x3f0f069c	0.5586946
4	0xbebc9b79	-0.36837366
5	0x3ede203e	0.43383974
6	0xbf151cee	-0.5824727
7	0x3f76b2cf	0.9636659
8	0x3c990b2e	0.018682089
9	0x3f1080a0	0.56446266
10	0x3f608fac	0.87719226
11	0x3fe619a4	1.7976575
12	0xbee05606	-0.4381563
13	0xbeaf17c5	-0.34197822
14	0x3eca40ab	0.39502463
15	0x3f050f87	0.5197682
16	0x3e7ade76	0.24498925
17	0xbed4be9e	-0.4155168
18	0xbe01b979	-0.12668408
19	0xbc2180b0	-0.009857342
20	0x3e201806	0.15634164
21	0xbf3e0317	-0.74223465
22	0xbf2e8ff3	-0.681884
23	0xbe45c4f2	-0.1931341
24	0x3ef09cea	0.46994716
25	0x3f410fa9	0.7541452
26	0xbf28d2ae	-0.6594647
27	0xbf1ac009	-0.6044927
28	0xbf4e3460	-0.8054867
29	0x3f221ba6	0.6332344
30	0x3e2cf862	0.16891626
31	0x3e7780b8	0.24170196
32	0xbff4c5e9	-1.9122897
33	0xbf1258cd	-0.5716675
34	0xbf011829	-0.5042749
35	0x3f7a38a5	0.9774268

mlr.0.weight f4 [64, 12]
0	0x3b8a086f	0.004212431
1	0xbc8d331b	-0.017236283
2	0x3d8e21fc	0.06940076
3	0x3da5ad0d	0.080896474
4	0xbe863deb	-0.26219115
5	0xbdda2d76	-0.10653202
6	0x3e78efb0	0.24310184
7	0x3de64eb8	0.11245483
8	0xbc6b3dd1	-0.014358
9	0xbe323890	-0.1740439
10	0xbe34da04	-0.17661291
11	0xbe846555	-0.2585856
12	0xbe9cb3cd	-0.30605927
13	0xbdbcd917	-0.09221094
14	0x3e5adf0d	0.2137415
15	0xbda82ff9	-0.08212275
16	0xbef4209a	-0.47681123
17	0xbf1043e8	-0.56353617
18	0xbd3c1b71	-0.045924608
19	0x3f0f149a	0.5589081
20	0x3db557c9	0.08854634
21	0xbe86b681	-0.26311114
22	0x3eb00840	0.34381294
23	0x3cafe95c	0.02147358
24	0xbe77aefb	-0.24187844
25	0x3e1c9ca4	0.15294129
26	0xbe3dd933	-0.18539886
27	0xbdedb5fe	-0.11606978
28	0xbeb15e02	-0.34642035
29	0x3e0ce110	0.1375773
30	0x3e262dd7	0.16228424
31	0x3d46f032	0.04856891
32	0xbe846c14	-0.25863707
33	0xbeae29df	-0.3401632
34	0xbe922c7d	-0.28549567
35	0x3e235fcc	0.15954512
36	0x3e0debbe	0.1385946
37	0x3e78c064	0.24292141
38	0x3e1adb91	0.1512282
39	0x3d95a139	0.073061414
40	0xbb394397	-0.0028269046
41	0xbe60cee1	-0.21953918
42	0xbe7d43c4	-0.24732882
43	0xbe8a3eff	-0.27001187
44	0x3df2047c	0.118172616
45	0xbe1121bc	-0.14173025
46	0xbd6df6b7	-0.058096614
47	0xbe2a1f0c	-0.16613406
48	0x3e203c75	0.15648063
49	0xbe491382	-0.19636348
50	0xbf0038ec	-0.50086856
51	0x3bc378b0	0.005965315
52	0x3ce2e20a	0.027695674
53	0x3da2405e	0.07922433
54	0xbe6e8da5	-0.2329622
55	0xbef6be6d	-0.48192158
56	0xbd68f46e	-0.05687373
57	0xbe8275fd	-0.25480643
58	0xbca38e3d	-0.019965285
59	0xbecbe8a4	-0.39825928
60	0xbd8c22a3	-0.06842544
61	0xbeae0b7f	-0.33993146
62	0x3ea5a6dc	0.32353866
63	0x3e3eaa5e	0.18619677
64	0x3eaeee25	0.34166065
65	0xbf47f2c8	-0.7810483
66	0x3eba8f87	0.36437628
67	0xbe6a617f	-0.22888754
68	0x3d950c03	0.07277682
69	0xbd6f67d8	-0.058448642
70	0xbdeb0e31	-0.11477316
71	0xbe52d9a0	-0.2059083
72	0xbcbc8fc0	-0.023017764
73	0xbee1e4fc	-0.44120014
74	0x3e916df2	0.28404194
75	0xbee46b2e	-0.44613022
76	0x3e99478c	0.29937398
77	0x3e6bc933	0.2302597
78	0x3edfed33	0.43735656
79	0xbea849fd	-0.3286895
80	0xbe6d0019	-0.23144569
81	0x3df71a66	0.12065582
82	0x3e272fc3	0.16326813
83	0xbeeb8fc7	-0.4600813
84	0xbdabc207	-0.08386617
85	0xbebc4b30	-0.36776114
86	0x3cb135d9	0.021632122
87	0xbebcd58e	-0.3688168
88	0xbe383142	-0.1798754
89	0xbdfc7b6a	-0.12328227
90	0xbe485863	-0.19564967
91	0x3ed74325	0.42043415
92	0x3f15c79c	0.58507705
93	0xbe6ecb6c	-0.23319787
94	0x3e611aec	0.21982926
95	0x3d92d245	0.07169012
96	0xbe28420b	-0.16431443
97	0xbeeb1b66	-0.4591934
98	0xbe2f25ae	-0.17104217
99	0xbea1dfb5	-0.31615987
100	0xbe19fb11	-0.1503718
101	0xbe8694e6	-0.26285475
102	0xbe15f054	-0.14642459
103	0xbf063520	-0.5242481
104	0x3c15a4f7	0.009133569
105	0xbe732b9a	-0.23747101
106	0x3d71f9d3	0.05907614
107	0xbefe5e17	-0.4968116
108	0xbef671b5	-0.48133627
109	0x3ed3625e	0.41285986
110	0xbd86dae7	-0.06584721
111	0x3dc997e4	0.09843424
112	0xbe76101e	-0.24029586
113	0x3c77fa33	0.015135336
114	0x3e9d7386	0.307522
115	0x3e849ef9	0.25902537
116	0xbf04e637	-0.5191378
117	0x3ef42917	0.476876
118	0x3ea924f9	0.3303602
119	0xbdde5c03	-0.108573936
120	0xbe6387c2	-0.22219756
121	0x3f06a335	0.52592784
122	0xbd5541e2	-0.052064784
123	0x3ea0c9f4	0.31404078
124	0xbea5093e	-0.32233614
125	0xbe28eba9	-0.16496147
126	0x3e49ea16	0.19718203
127	0x3e569a15	0.20957215
128	0xbec7e9f8	-0.39045691
129	0xbe6f9511	-0.23396708
130	0xbea471b7	-0.32118008
131	0xbeada020	-0.33911228
132	0xbe64195c	-0.22275299
133	0xbd923431	-0.07138861
134	0x3e477ef6	0.19482026
135	0x3d45ea3d	0.04831909
136	0xbe60d667	-0.21956788
137	0xbe6d23db	-0.23158209
138	0x3e130e2b	0.14360873
139	0xbe5be1c8	-0.21472847
140	0xbd11966a	-0.035543837
141	0x3e0dcd7e	0.1384792
142	0xbe08cf0d	-0.13360234
143	0xbd00ee24	-0.03147711
144	0xbccdd859	-0.025127577
145	0xbd8bdea2	-0.06829573
146	0xbe15e162	-0.14636758
147	0xbe83c18e	-0.25733608
148	0xbe6ef3f9	-0.23335256
149	0xbe1e48c5	-0.15457447
150	0x3e8ec09f	0.27881333
151	0xbe0ec7e0	-0.13943434
152	0xbe468183	-0.19385342
153	0x3d8f4e19	0.06997318
154	0x3da2f152	0.079561844
155	0x3e21f6c5	0.15816791
156	0x3f14eb65	0.58171684
157	0x3deaab57	0.11458462
158	0xbebff114	-0.37488616
159	0x3de0c591	0.10975183
160	0x3e719cd7	0.23594986
161	0xbe62d802	-0.22152713
162	0xbe7aebb7	-0.2450398
163	0x3e8bb83b	0.27288994
164	0xbe352ead	-0.17693587
165	0xbecdf38f	-0.40224883
166	0xbe915902	-0.2838822
167	0x3e8ba3c2	0.27273375
168	0x3d46071f	0.048346635
169	0x3e4499cb	0.19199292
170	0xbd0e1cbe	-0.03469538
171	0xbeaa706a	-0.3328889
172	0xbf03a697	-0.5142607
173	0xbcc2c855	-0.023777166
174	0x3e4424c7	0.19154654
175	0x3ebc31e4	0.36756814
176	0xbe893442	-0.26797682
177	0x3e52f9d3	0.20603113
178	0xbd55992e	-0.052148037
179	0xbe6ff843	-0.23434548
180	0xbd4679b8	-0.048455924
181	0x3e81fd03	0.25388345
182	0x3e89c7e3	0.26910314
183	0xbeffeebe	-0.49986833
184	0xbbb94742	-0.0056542465
185	0xbf2d9f0c	-0.6782081
186	0xbcddaf82	-0.027061228
187	0x3ebcb43f	0.36856267
188	0xbd0823e0	-0.033237338
189	0x3eca845d	0.3955411
190	0xbe376009	-0.17907728
191	0xbeba581e	-0.36395353
192	0x3ee2cc62	0.44296557
193	0xbdd589f2	-0.104267016
194	0x3c70bf94	0.014694113
195	0xbe47f642	-0.19527534
196	0x3eba4f21	0.36388496
197	0x3e51aeee	0.20476887
198	0x3e18ae10	0.1491015
199	0xbf110331	-0.56645495
200	0xbe9056d7	-0.28191254
201	0x3d2dd5c7	0.042440202
202	0xbc89025d	-0.01672476
203	0xbe9ed327	-0.3102047
204	0xbda56b12	-0.08077063
205	0x3e47a415	0.19496186
206	0x3cbc61a2	0.022995774
207	0x3c5564e2	0.013024541
208	0xbd917f0c	-0.071043104
209	0xbe85d901	-0.26142123
210	0xbe8af8bc	-0.27142894
211	0xbe0d4d87	-0.13799106
212	0xbe1642f2	-0.14673975
213	0x3db8314c	0.08993778
214	0xbdac1b4b	-0.08403643
215	0xbde74b0a	-0.112936094
216	0x3f3bf98f	0.7342767
217	0x3ea3266f	0.3186526
218	0x3e60a0ca	0.21936336
219	0xbe94897f	-0.2901115
220	0xbe05b593	-0.13057546
221	0x3e6b5a13	0.2298358
222	0xbeabf10f	-0.3358235
223	0xbef6bfc2	-0.48193175
224	0xbd26f2fc	-0.04075907
225	0xbebb3ddb	-0.3657063
226	0xbe8693f5	-0.26284757
227	0x3e84a70f	0.25908706
228	0x3f1844a5	0.59479743
229	0x3d695661	0.056967143
230	0xbe246a37	-0.16056143
231	0xbf05c96e	-0.5226048
232	0xbe879594	-0.26481307
233	0x3d40e461	0.0470928
234	0xbce96f0a	-0.02849533
235	0xbdaa58a1	-0.08317686
236	0xbe63f5dd	-0.22261758
237	0x3ed93479	0.42422846
238	0xbe3baaa0	-0.18326807
239	0x3e26ac24	0.16276604
240	0xbdf53a26	-0.119739816
241	0x3dd3fa3f	0.10350465
242	0x3e30ab7f	0.1725292
243	0x3e13f9f9	0.14450826
244	0xbd82e758	-0.063917816
245	0x3ee4081c	0.44537437
246	0x3e4e0694	0.20119697
247	0x3eb455f2	0.3522182
248	0x3ebd0288	0.36915994
249	0xbe3dd759	-0.1853918
250	0xbddbd08e	-0.10733138
251	0x3ef7e67c	0.48418033
252	0x3e67a38e	0.22620985
253	0xbe61b506	-0.22041711
254	0xbcb6cf13	-0.022315538
255	0xbe91c049	-0.28467014

mlr.0.bias f4 [64]
0	0xbda2912d	-0.07937846
1	0x3e367667	0.17818604
2	0x3ce33eaa	0.027739841
3	0xbd4e2dc2	-0.050336607
4	0x3e260f80	0.1621685
5	0xbd4ed9ac	-0.050500557
6	0x3df0b9ad	0.11754165
7	0x3dade8d4	0.08491674
8	0x3e3a3972	0.18185976
9	0x3c5c9e8c	0.013465535
10	0x3dded552	0.10880531
11	0xbd2ab479	-0.04167602
12	0xbde62aa7	-0.11238604
13	0x3df62f30	0.12020719
14	0x3e2f61dc	0.17127174
15	0x3e11e70a	0.1424829
16	0x3d9501e7	0.072757535
17	0xbdc989ea	-0.09840758
18	0x3d8e25c5	0.06940798
19	0x3e144480	0.14479256
20	0xbdecad78	-0.11556524
21	0xbd127c4e	-0.035763077
22	0xbce49006	-0.027900707
23	0x3dff3ea5	0.1246312
24	0x3c7d62a1	0.0154654095
25	0xbc8d8685	-0.017276058
26	0xbcc5d5ab	-0.024149736
27	0xbbe6a2ea	-0.007038464
28	0xbd8eb0b8	-0.069673
29	0xbda2fd93	-0.07958522
30	0x3d6301d7	0.055421676
31	0xbe14c80d	-0.14529438
32	0xbd81c91d	-0.063371874
33	0x3cdf10c7	0.02722968
34	0x3c626afa	0.0138194505
35	0xbe8b08f3	-0.27155265
36	0x3e14fed8	0.1455034
37	0xbe0645b8	-0.13112533
38	0xbe22bd3b	-0.15892498
39	0x3ceec11a	0.029144812
40	0xbe1a43a0	-0.1506486
41	0xbd598199	-0.05310211
42	0xbdc73501	-0.097269066
43	0xb944d516	-0.00018771397
44	0xbdf6e8f9	-0.12056155
45	0xbd10d102	-0.035355575
46	0xbbcefde2	-0.0063168863
47	0xbe6f3520	-0.2336011
48	0xbe32ec41	-0.17472936
49	0x3b8a066a	0.0042121904
50	0xbc43a0c1	-0.011940182
51	0x3d951f23	0.072813295
52	0xbd6ff3ec	-0.05858223
53	0x3e4138eb	0.18869369
54	0x3d9ef1ae	0.077609405
55	0x3d34468e	0.0440126
56	0xbdfe879e	-0.12428211
57	0xbe07c324	-0.13258034
58	0xbd00f356	-0.031482063
59	0xbcd82281	-0.02638364
60	0x3dd0457f	0.10169505
61	0xbd308e8d	-0.043104697
62	0x3e42b867	0.19015656
63	0xbe2d8562	-0.16945413

mlr.2.weight f4 [208, 64]
0	0x3c9b9b60	0.018994987
1	0x3f08ab2b	0.5338618
2	0x3d3be51a	0.045872785
3	0xbd5ff024	-0.054672375
4	0xbe89462b	-0.26811346
5	0x3f224dbf	0.6339988
6	0xbe7239a7	-0.23654805
7	0xbed928cb	-0.42413935
8	0xbe94697d	-0.2898673
9	0x3efe2771	0.49639466
10	0x3f011f2b	0.50438184
11	0xbc608f60	-0.013706058
12	0xbdce1958	-0.10063428
13	0x3c82a047	0.015945567
14	0x3e671c65	0.22569425
15	0x3f1bf285	0.6091693
16	0xbebf7413	-0.37393245
17	0xbd6f9318	-0.05848989
18	0xbf1261f4	-0.57180715
19	0xbe85d7ac	-0.26141107
20	0x3e2233d8	0.1584009
21	0xbd76c180	-0.06024313
22	0x3e30eb06	0.17277154
23	0xbd383e93	-0.04498155
24	0xbeb798ab	-0.35858664
25	0x3e45740f	0.19282554
26	0x3dfc0300	0.1230526
27	0x3d807ebf	0.06274175
28	0xbc8e0b6e	-0.017339434
29	0x3e4983b9	0.19679154
30	0x3d58ad18	0.05289945
31	0xbdd79c4a	-0.10527857
32	0xbd356c20	-0.04429257
33	0x3d95d588	0.073161185
34	0xbe288913	-0.1645854
35	0x3df44d08	0.11928755
36	0x3e31f919	0.1738018
37	0x3d8a7604	0.06760791
38	0xbd8d32f4	-0.06894484
39	0x3e912c97	0.28354332
40	0x3db8b7c8	0.090194285
41	0x3e8d1ac2	0.27559477
42	0x3db85548	0.09000641
43	0x3eb8b8a2	0.36078364
44	0x3b1f7240	0.0024329573
45	0x3ee78cd5	0.45224634
46	0x3f40536f	0.7512731
47	0x3d5ef150	0.054429352
48	0xbd248ecc	-0.040175244
49	0xbb098e00	-0.002098918
50	0xbde1736c	-0.11008343
51	0xbf207f9e	-0.6269473
52	0xbd38724f	-0.04503089
53	0xbe2677d6	-0.16256651
54	0xbcfc086d	-0.030765736
55	0x3f9a869d	1.2072331
56	0x3e668f26	0.22515544
57	0x3e81c2f4	0.2534405
58	0x3e99f797	0.3007171
59	0x3e1fcb6b	0.15604942
60	0xbf1381c9	-0.5761991
61	0xbdfd2fbe	-0.12362622
62	0x3e814677	0.25249073
63	0x3d8f70bc	0.07003924
64	0xbddbc772	-0.107314005
65	0x3eacea5b	0.3377255
66	0x3dc952d3	0.098302506
67	0x3bf81f20	0.0075720698
68	0xbf1330cc	-0.57496333
69	0x3f129be8	0.57269144
70	0xbdc11d05	-0.09429363
71	0x3e847bc8	0.25875688
72	0xbe3f5824	-0.18685967
73	0x3f0efc0c	0.55853343
74	0x3df1a40a	0.11798866
75	0x3dfd4f80	0.12368679
76	0xbd58ef2c	-0.052962467
77	0xbe7e0e71	-0.24810196
78	0x3e525d55	0.20543416
79	0x3e4c568d	0.19954892
80	0xbee75083	-0.45178613
81	0x3d524be8	0.05134192
82	0xbf73343d	-0.95001584
83	0xbe5ebe95	-0.21752389
84	0x3e6b03ac	0.2295062
85	0x3dc895fc	0.09794232
86	0xbcd91929	-0.026501255
87	0xbe486812	-0.1957095
88	0x3f34797c	0.7049787
89	0x3b8755f2	0.0041301185
90	0x3d9936a8	0.07481128
91	0x3e0e3fd2	0.13891533
92	0xbd7abf9b	-0.061217885
93	0xbd1c475b	-0.038153987
94	0xbd82715d	-0.063692786
95	0xbd962f34	-0.07333222
96	0x3e580f84	0.21099669
97	0xbdf60282	-0.12012197
98	0x3f0ce9d5	0.550443
99	0x3dff35c2	0.12461425
100	0x3e920c09	0.28524807
101	0x3d2e94c4	0.042622343
102	0xbde4d724	-0.11173847
103	0x3ea91dc7	0.3303053
104	0xbcaf2718	-0.021380946
105	0x3f235935	0.63807994
106	0x3dfcb6b4	0.12339535
107	0x3e21f9e7	0.15817986
108	0xbc10e420	-0.008843452
109	0x3f1a516e	0.602805
110	0x3f367931	0.71278673
111	0xbdb51e10	-0.088436246
112	0x3ca68528	0.020327166
113	0xbc891100	-0.016731739
114	0x3cf3fc59	0.029783415
115	0x3e84b12f	0.2591643
116	0xbdaa8ec7	-0.08328014
117	0xbe4f558a	-0.20247474
118	0x3cb98c6a	0.022649962
119	0x3e0eaed4	0.13933879
120	0x3e946bf5	0.28988615
121	0xbed6d9af	-0.41962954
122	0x3d11d483	0.035603058
123	0x3e1a6f5e	0.15081546
124	0xbda6b8e9	-0.081407376
125	0x3cbe0448	0.0231954
126	0x3e7c9a07	0.24668132
127	0x3c9a6c80	0.018850565
128	0x3df6aa92	0.120442525
129	0x3f21e93e	0.63246524
130	0xbddf7fcf	-0.109130494
131	0x3de9aea6	0.11410265
132	0xbe946b72	-0.28988224
133	0x3f18280d	0.5943611
134	0xbe0080d7	-0.12549148
135	0xbe8516fa	-0.25994092
136	0xbeb01a80	-0.34395218
137	0x3f15ec56	0.58563745
138	0x3eebc2b6	0.4604699
139	0x3c1987d0	0.009370759
140	0xbdb2e22c	-0.08734545
141	0xbe512555	-0.20424397
142	0x3eafb0df	0.3431463
143	0x3f14933a	0.5803715
144	0xbee70109	-0.45117977
145	0x3c2186e0	0.009858817
146	0xbecf4254	-0.40480292
147	0xbe837f3c	-0.2568301
148	0x3e944f79	0.28966883
149	0x3d4ced3c	0.05003093
150	0x3e2ff713	0.17184095
151	0xbd4c6ecb	-0.049910348
152	0x3e2d47ec	0.16921967
153	0x3e93fe72	0.28905064
154	0xbddf43f2	-0.109016314
155	0xbbe7aa24	-0.007069843
156	0x3c8e5a3a	0.017377008
157	0x3e32f6bf	0.17476939
158	0x3e7e8b02	0.24857715
159	0xbceaf740	-0.028682351
160	0x3d70a842	0.058754213
161	0x3da68ebe	0.08132695
162	0xbe397612	-0.18111446
163	0x3dcd0534	0.10010758
164	0x3e5483f4	0.20753461
165	0xbdc47ac2	-0.09593727
166	0xbdb44678	-0.08802503
167	0x3df53af1	0.11974133
168	0xbd8c4b0e	-0.06850253
169	0x3ec268b5	0.3797051
170	0xbc1a26e0	-0.009408683
171	0x3e526239	0.20545281
172	0xbd8157f8	-0.06315607
173	0x3ecfa34a	0.40554267
174	0x3f215a3d	0.6302832
175	0x3dfb2552	0.12262978
176	0xbd3dc310	-0.046328604
177	0xbdb74bd6	-0.089500114
178	0x3d53fd17	0.051755037
179	0xbf1c98bd	-0.6117056
180	0x3dc2084b	0.09474238
181	0xbe12cd8d	-0.14336224
182	0x3e052427	0.13002072
183	0x3f4c2ef3	0.7975914
184	0x3e7f9473	0.24958973
185	0x3c88deab	0.016707739
186	0x3e16cfce	0.14727709
187	0x3e2f71a5	0.17133196
188	0xbe5a84bd	-0.21339698
189	0x3ab36c80	0.0013688952
190	0x3e63ba3b	0.2223901
191	0xbd330198	-0.04370269
192	0xbddf4770	-0.109022975
193	0xbea1ea85	-0.31624237
194	0x3d4329d0	0.047647297
195	0xbda74fa4	-0.08169487
196	0xbf0dc9d9	-0.5538612
197	0x3f3440fe	0.7041167
198	0xbe3c0f19	-0.18365134
199	0x3e38fba3	0.18064742
200	0xbee2171d	-0.4415826
201	0xbcdbc13a	-0.026825536
202	0x3c8a9c23	0.016920155
203	0x3cae8178	0.02130197
204	0x3d0b38f0	0.033989847
205	0x3b8c2a7f	0.004277527
206	0xbe0ded9e	-0.13860175
207	0xbe920c5b	-0.2852505
208	0xbe7d7fb6	-0.24755749
209	0x3d0ba01c	0.03408824
210	0xbf15ff6c	-0.5859287
211	0xbe60581c	-0.21908611
212	0x3e5bb6c5	0.2145644
213	0xbb9529a0	-0.004552081
214	0xbc946f3c	-0.018119447
215	0xbe23b53b	-0.15987103
216	0x3f726f81	0.9470139
217	0xbdd42d79	-0.10360236
218	0xbdec9a56	-0.11552875
219	0x3d8becf9	0.06832308
220	0xbd66ed48	-0.056378633
221	0x3de95588	0.11393267
222	0x3f08d05a	0.5344292
223	0xbdfdef66	-0.12399177
224	0x3d8806e5	0.0664194
225	0xbc4427f0	-0.0119724125
226	0x3efb30b6	0.490606
227	0x3deb3532	0.114847556
228	0x3edd7f89	0.43261364
229	0x3da47574	0.08030215
230	0x3d20e161	0.039277438
231	0x3dcb916f	0.09939849
232	0x3cf0a030	0.029373258
233	0x3f47fca0	0.7811985
234	0xbda77324	-0.08176258
235	0x3d63ceb1	0.05561704
236	0x3dfa95da	0.12235613
237	0x3f0509e0	0.51968193
238	0x3f2943c0	0.66119003
239	0x3d9a0bf6	0.075218126
240	0xbc8300a0	-0.015991509
241	0xbdfc65de	-0.12324117
242	0x3beca9e1	0.0072223996
243	0x3f051e2c	0.51999164
244	0xbdc36c27	-0.09542113
245	0xbe1534ce	-0.14570925
246	0xbccc4f8c	-0.024940275
247	0xbead2ee1	-0.33824828
248	0x3ec6d092	0.38831002
249	0xbdc16391	-0.09442819
250	0x3db75705	0.089521445
251	0x3d4b7584	0.04967262
252	0xbe3ebbe6	-0.18626365
253	0xbcffded0	-0.031234175
254	0x3e0ec1cb	0.13941114
255	0xbd8e75e0	-0.069560766

mlr.2.bias f4 [208]
0	0x3df0b025	0.11752347
1	0x3daecf79	0.08535666
2	0x3c0a0388	0.0084236935
3	0x3e071a69	0.13193668
4	0x3e1878da	0.14889851
5	0x3e037008	0.12835705
6	0x3e26ac27	0.16276608
7	0x3d2f39b5	0.042779643
8	0x3dc66a6d	0.09688268
9	0x3e16beb0	0.14721179
10	0x3ddfc966	0.109270856
11	0x3d3a6d58	0.045514435
12	0x3de4d520	0.11173463
13	0xbce00ebb	-0.027350774
14	0x3d3cb9fa	0.0460758
15	0x3d6c5672	0.05769963
16	0x3e065038	0.13116539
17	0x3da794b3	0.08182659
18	0x3c417d3c	0.011809643
19	0x3d343faf	0.044006046
20	0x3dab6056	0.08367984
21	0x3d319789	0.043357406
22	0x3df535ea	0.11973174
23	0x3da19f21	0.078916796
24	0x3de15838	0.110031545
25	0x3dba2255	0.090885796
26	0x3dd1b5d4	0.10239759
27	0x3dee9604	0.11649707
28	0x3daa4710	0.08314335
29	0x3e10a8ae	0.14126846
30	0x3dbc6af8	0.0920009
31	0x3dfbdc8f	0.122979276
32	0x3dc8247e	0.09772585
33	0x3c2283ef	0.009919151
34	0x3d8d379d	0.06895373
35	0x3d0dd7b6	0.034629546
36	0x3d85298c	0.06502065
37	0x3d3e92c2	0.046526678
38	0x3de05157	0.10953014
39	0xbc0137be	-0.007886825
40	0x3d7675d4	0.060170963
41	0x3db5e8a6	0.08882265
42	0x3db79606	0.089641616
43	0x3db5d8fe	0.088792786
44	0x3b996ee2	0.0046824077
45	0x3e0bcf18	0.13653219
46	0x3d0bd96d	0.0341429
47	0x3d813195	0.06308285
48	0x3d6db329	0.05803219
49	0x3e0edad5	0.13950665
50	0x3e013679	0.12618436
51	0x3d40c314	0.04706104
52	0x3e36421d	0.17798658
53	0x3e4b4f89	0.19854559
54	0x3db3284b	0.0874792
55	0x3e17b49e	0.14814994
56	0x3df63330	0.12021482
57	0x3e243cd0	0.16038823
58	0x3dfa5b74	0.122244745
59	0x3e1af950	0.15134168
60	0x3df3cecc	0.11904678
61	0x3e0b3046	0.13592634
62	0x3dd0933d	0.101843335
63	0x3e1126fd	0.14175029
64	0x3db5151c	0.08841917
65	0x3d31af64	0.043380156
66	0x3dfcbcec	0.123407215
67	0x3cc695ad	0.024241293
68	0x3d8869c3	0.066607974
69	0x3c95b131	0.018272968
70	0x3deabf83	0.11462309
71	0x3e12ec04	0.14347845
72	0x3dfac60b	0.12244805
73	0x3dae88fb	0.08522221
74	0x3d1d07ba	0.038337447
75	0x3de85c11	0.11345685
76	0x3dabe2a7	0.0839284
77	0x3dcf4f70	0.101225734
78	0x3e272220	0.16321611
79	0x3e4a0328	0.19727767
80	0x3e4305ea	0.19045225
81	0x3e22761d	0.15865369
82	0x3e2393f5	0.1597441
83	0x3e2d703f	0.1693735
84	0x3e18df47	0.14928924
85	0x3e06deef	0.1317098
86	0x3e0d580f	0.13803123
87	0x3e207e45	0.15673168
88	0x3e3067b6	0.17227063
89	0x3e03c09b	0.12866442
90	0x3e126d39	0.14299478
91	0x3e3314d5	0.17488416
92	0x3e47de95	0.19518502
93	0x3dae1a51	0.08501113
94	0x3e5d399e	0.2160401
95	0x3e32185b	0.17392103
96	0x3dc3011b	0.09521695
97	0x3e28f5b8	0.16499984
98	0x3e0962f2	0.13416651
99	0x3dd49cff	0.10381507
100	0x3d7d036a	0.061770834
101	0x3d8101e7	0.06299191
102	0x3e28c119	0.16479911
103	0x3da583ca	0.080817774
104	0x3e50d699	0.20394363
105	0x3e268225	0.16260584
106	0x3e01d1b7	0.12677656
107	0x3e824483	0.25442895
108	0x3dca4a33	0.09877434
109	0x3e2b80c0	0.16748333
110	0x3e750c0c	0.23930377
111	0x3e39fbd4	0.18162471
112	0x3e873c34	0.2641312
113	0x3e4f4ffe	0.20245358
114	0x3e16c97f	0.14725302
115	0x3e58bab0	0.21164966
116	0x3e18dace	0.14927217
117	0x3e491696	0.19637522
118	0x3da3f6b3	0.080060385
119	0x3e249d16	0.16075549
120	0x3e1c02a7	0.15235387
121	0x3e25037e	0.16114613
122	0x3de61276	0.1123399
123	0x3e2ea6da	0.17055836
124	0x3e3536ac	0.17696637
125	0x3e4cf4e1	0.20015289
126	0x3da1572c	0.07877955
127	0x3db386b2	0.087659255
128	0x3e1562f1	0.14588524
129	0x3d31a07c	0.04336594
130	0x3e0d4713	0.13796644
131	0x3e2e4abd	0.17020698
132	0x3e4ff4ae	0.20308182
133	0x3e1bebec	0.15226716
134	0x3dfee871	0.124466784
135	0x3e04229b	0.12903826
136	0x3e0ec17f	0.13941
137	0x3e3c0994	0.18363029
138	0x3dcc2020	0.09967065
139	0x3e2aad17	0.16667591
140	0x3e5e766c	0.21724862
141	0x3e2d4b88	0.16923344
142	0x3e29080a	0.16506973
143	0x3e075bc4	0.132186
144	0x3dcd24c3	0.10016777
145	0x3dd5156a	0.10404475
146	0x3d8a1a3f	0.06743287
147	0x3d0c3d2e	0.034238033
148	0x3de628d2	0.112382546
149	0x3d3a9a23	0.045557152
150	0x3d3b71a1	0.04576266
151	0x3e01eda5	0.1268831
152	0x3d8e1b54	0.06938806
153	0x3e47683f	0.1947336
154	0x3e1ae11d	0.15124936
155	0x3cc493ca	0.023996253
156	0x3e3a52ac	0.181956
157	0x3dbd0178	0.09228796
158	0x3e6dd60b	0.23226182
159	0x3e4778fb	0.19479744
160	0x3e061c28	0.13096678
161	0x3e4f11ea	0.20221677
162	0x3db6a69c	0.08918497
163	0x3dc114bb	0.09427782
164	0x3e2c3371	0.16816498
165	0x3e244b3a	0.16044322
166	0x3def3fef	0.11682116
167	0x3e05b961	0.13058998
168	0x3d0de79c	0.034644708
169	0x3d1c7274	0.03819509
170	0x3cf0427b	0.029328575
171	0x3cd62997	0.026142878
172	0x3debbe3d	0.115108944
173	0x3ccb5df5	0.024825076
174	0x3cb81a2a	0.022473413
175	0x3d63fd5d	0.055661548
176	0x3e04d924	0.12973458
177	0x3e260a74	0.16214925
178	0x3dfa9952	0.12236275
179	0x3d850d7b	0.06496712
180	0x3deab2ef	0.1145991
181	0x3d84787e	0.064682946
182	0x3e47ffed	0.19531222
183	0x3d88024b	0.06641062
184	0x3e2e0e33	0.16997604
185	0x3e43c649	0.19118609
186	0x3db304d2	0.08741154
187	0x3e39a7bb	0.1813039
188	0x3dc30211	0.095218785
189	0x3e18e0b8	0.14929473
190	0x3d8995ee	0.0671805
191	0x3db3160d	0.0874444
192	0x3d6dd772	0.058066793
193	0x3d9a8f14	0.07546821
194	0x3dbb8298	0.09155768
195	0x3dc83a34	0.09776726
196	0xbbadd6d3	-0.00530515
197	0x3bd5ccc2	0.006524653
198	0x3d84696e	0.064654216
199	0xbbeea168	-0.0072824247
200	0x3c649f62	0.013954015
201	0xbc4b7dc9	-0.012420126
202	0x3e03926d	0.12848826
203	0x3e148bca	0.1450645
204	0x3d5d792e	0.054070644
205	0x3dfb4b08	0.122701705
206	0x3e2613d6	0.16218504
207	0x3deafeba	0.114743665
