pqc_reup_v1_output/model_params_epoch_100.pth (torch, 61385 bytes, 6 tensors)

reupload_weights f4 [12, 3, 4]
0.27589795 0.17304428 0.12509027 -0.17391711 0.27121887 -0.15755168 0.13491315 0.73226064
0.3732214 0.41463482 -0.2308379 -0.66259766 -0.102102384 -0.16712458 0.06280716 0.107283644
-0.02400157 -0.8677568 -0.60590315 0.10085742 0.04602085 0.02459656 -0.18133666 0.30061373
0.16250578 0.16790083 0.11706442 0.045308474 0.7308469 -0.16230127 0.25153247 -0.80206555
0.30049545 0.2009269 0.63592935 -0.025617022 -0.11447178 -0.04808398 0.052785188 -0.14809869
0.47588485 0.9371746 0.07828369 -0.60165465 0.7826133 1.1736215 0.17339955 -0.3187519
-0.054969594 -0.049447034 0.17326696 0.08955187 0.9492035 0.8896664 -0.9359766 -0.7523619
0.5289081 0.6288115 -0.8771688 -0.40364018 -0.05878092 0.10808012 -0.14373292 -0.06793493
0.29573688 0.108615 -0.083250605 0.052768048 -0.22216883 -0.2693855 -0.7481164 -0.13210838
-0.008000479 -0.12751603 -0.23059851 0.11503245 -0.13234213 -0.1737834 -0.14757723 0.07029701
0.29837716 0.29333833 0.39474845 0.2952769 0.1526569 0.14585976 0.04805879 -0.086617194
-0.38305905 -0.5946547 0.0073481775 0.43739787 -0.32355377 -0.34541392 0.55497026 0.60373944
-0.19646391 0.23584272 0.107305154 0.06733066 -0.11673185 0.69404817 0.7245651 0.30174804
-0.18147661 0.5308276 0.3515185 -0.094812766 -0.02289874 0.120822914 0.11186236 0.052152216
0.15797892 0.35145077 0.08349099 -0.71016866 0.6017162 0.5054489 0.23077905 0.39652953
0.106466785 -0.57666844 -0.14645398 0.21132532 0.21615443 0.19315387 0.8339184 0.59342885
-0.81555784 -0.98468214 -0.5116553 -0.78035283 0.017932346 0.17329642 0.09035323 0.18717891
-1.3151788 0.03639247 -0.016975036 -0.27926558 -1.1809189 0.42167646 0.35029063 0.17808175
00000000: 7f42 8d3e 8532 313e aa17 003e 5417 32be
00000010: 33dd 8a3e 3a55 21be ac26 0a3e 6f75 3b3f
00000020: e016 bf3e 044b d43e c560 6cbe 00a0 29bf
00000030: 0e1b d1bd b522 2bbe 0aa1 803d 87b7 db3d
00000040: f19e c4bc 4f25 5ebf 781c 1bbf 568e ce3d
00000050: 5c80 3c3d ba7e c93c 51b0 39be 0bea 993e
00000060: ea67 263e 32ee 2b3e 78bf ef3d 6195 393d
00000070: c818 3b3f 4e32 26be ddc8 803e 2b54 4dbf
00000080: 8ada 993e c8bf 4d3e 44cc 223f cada d1bc
00000090: 2e70 eabd b5f3 44bd 4835 583d 2fa7 17be
000000a0: 2ea7 f33e adea 6f3f 3353 a03d 0a06 1abf
000000b0: 5859 483f 3b39 963f a78f 313e 7333 a3be
000000c0: cc27 61bd f988 4abd e56c 313e f966 b73d
000000d0: 00ff 723f 2dc1 633f 2a9c 6fbf ca9a 40bf
000000e0: 8566 073f caf9 203f 228e 60bf eda9 cebe
000000f0: 43c4 70bd 1c59 dd3d b92e 13be 7821 8bbd
00000100: d36a 973e 8b71 de3d 4b7f aabd 4f23 583d
00000110: 3a80 63be e5ec 89be 8e84 3fbf 6b47 07be
00000120: 7114 03bc 9093 02be 0422 6cbe 2296 eb3d
00000130: b284 07be 47f4 31be 7c1e 17be e1f7 8f3d
00000140: e4c4 983e 7130 963e 781c ca3e 892e 973e
00000150: 1752 1c3e 435c 153e 4bd9 443d 5b64 b1bd
00000160: 5120 c4be 4a3b 18bf fbc8 f03b 9df2 df3e
00000170: d7a8 a5be 18da b0be 8812 0e3f ab8e 1a3f
00000180: d62d 49be c180 713e cec2 db3d a8e4 893d
00000190: 1c11 efbd 24ad 313f 197d 393f b87e 9a3e
000001a0: 01d5 39be 51e4 073f 3cfa b33e 322d c2bd
000001b0: 2396 bbbc 0172 f73d 1818 e53d 909d 553d
000001c0: 3ac5 213e 5bf1 b33e 53fd aa3d 9dcd 35bf
000001d0: 130a 1a3f 1965 013f 5851 6c3e eb05 cb3e
000001e0: 420b da3d 8ba0 13bf 08f8 15be aa65 583e
000001f0: 9657 5d3e 21ca 453e ad7b 553f f4ea 173f
00000200: 66c8 50bf 2114 7cbf d7fb 02bf 34c5 47bf
00000210: dbe6 923c 9e74 313e 1d0b b93d d4ab 3f3e
00000220: c757 a8bf 4510 153d 3b0f 8bbc e6fb 8ebe
00000230: 5a28 97bf fae5 d73e 4b59 b33e 105b 363e

reupload_bias f4 [12, 3]
-0.52445436 0.2459866 -0.2019806 0.47110295 -0.25104877 0.38959435 -0.58406395 0.970683
0.006200144 0.534694 0.6648229 1.4536227 -0.4087669 -0.3058795 0.30426896 0.44536117
0.105444826 -0.20841786 -0.100053735 -0.18847567 0.0082869325 -0.6915141 -0.61773235 -0.13216023
0.4833126 0.6374186 -0.7408537 -0.5350316 -0.8994501 0.61564404 0.18210934 0.105399854
-1.7454214 -0.5062752 -0.52960366 0.6368716
00000000: a442 06bf e9e3 7b3e 01d4 4ebe 6834 f13e
00000010: 7789 80be e978 c73e 3785 15bf ae7e 783f
00000020: 942a cb3b b5e1 083f d531 2a3f 4f10 ba3f
00000030: e549 d1be 3d9c 9cbe 24c9 9b3e 6106 e43e
00000040: 75f3 d73d 7e6b 55be f9e8 ccbd c4ff 40be
00000050: eac5 073c 1107 31bf b523 1ebf 0355 07be
00000060: c074 f73e de2d 233f 97a8 3dbf d5f7 08bf
00000070: 5d42 66bf d99a 1d3f df7a 3a3e e1db d73d
00000080: f869 dfbf 409b 01bf 1b94 07bf 040a 233f

mlr.0.weight f4 [64, 12]
0.004212431 -0.017236283 0.06940076 0.080896474 -0.26219115 -0.10653202 0.24310184 0.11245483
-0.014358 -0.1740439 -0.17661291 -0.2585856 -0.19385868 -0.09457996 0.17271948 -0.019189741
-0.34542015 -0.5467916 -0.10816187 0.49164486 0.027712028 -0.19582649 0.23466818 -0.05159394
-0.24187844 0.15294129 -0.18539886 -0.11606978 -0.34642035 0.1375773 0.16228424 0.04856891
-0.25863707 -0.3401632 -0.28549567 0.15954512 0.1385946 0.24292141 0.1512282 0.073061414
-0.0028269046 -0.21953918 -0.24732882 -0.27001187 0.118172616 -0.14173025 -0.058096614 -0.16613406
-0.05260341 -0.20317963 -0.18862486 0.095756665 -0.085793205 0.17821163 -0.09260951 -0.21176262
-0.05093353 -0.13993452 -0.08831772 -0.27481747 0.07081565 -0.26285294 0.2410154 0.031392787
0.20751272 -0.4431687 0.2863787 -0.15017782 0.010393541 0.27304962 -0.014719792 -0.16696498
-0.03230374 -0.3428456 0.23235747 -0.38318393 0.2653275 0.16911569 0.43018776 -0.2938913
-0.24328421 0.06995665 0.21930471 -0.45901126 0.039038412 -0.26545495 0.0066403835 -0.22461273
-0.087983556 -0.21560091 -0.25504726 0.27866685 0.3742367 -0.15043058 0.124204315 -0.045211654
-0.26069176 -0.2809226 0.10728855 -0.15849598 -0.1855826 -0.022523357 -0.09613204 -0.0933924
0.009275476 -0.061231583 -0.09939443 -0.13821936 -0.4458167 0.35995373 -0.10358497 0.10419114
-0.19065139 0.08473269 0.31910136 0.20311199 -0.4459737 0.45722035 0.29153866 -0.08675437
-0.11063452 0.4230285 -0.07905062 0.27195552 -0.259596 -0.061153933 0.15724392 0.24303941
-0.34132293 -0.26428014 -0.43080276 -0.2629982 -0.22275299 -0.07138861 0.19482026 0.04831909
-0.21956788 -0.23158209 0.14360873 -0.21472847 -0.035543837 0.1384792 -0.13360234 -0.03147711
-0.025127577 -0.06829573 -0.14636758 -0.25733608 -0.23335256 -0.15457447 0.27881333 -0.13943434
-0.19385342 0.06997318 0.079561844 0.15816791 0.39895317 0.09536129 -0.32094014 -0.018963877
0.1676407 -0.08534207 -0.26431632 0.33978513 -0.038981896 -0.38677743 -0.2973425 0.22439398
0.053190317 0.09967867 -0.07078326 -0.27446464 -0.4348536 -0.014784025 0.1762239 0.30106935
-0.27979648 0.2201638 -0.19104831 -0.21516095 -0.039694957 0.04429183 0.19293095 -0.48580417
0.018652052 -0.5523229 0.012771672 0.37141514 -0.14492561 0.3305902 -0.1721018 -0.21686867
0.32955602 -0.09665331 -0.010434102 -0.2112423 0.28370035 0.2213898 0.18690225 -0.4731216
-0.22022647 0.00091403327 0.07374236 -0.27380234 -0.08077063 0.19496186 0.022995774 0.013024541
-0.071043104 -0.26142123 -0.27142894 -0.13799106 -0.14673975 0.08993778 -0.08403643 -0.112936094
0.60866374 0.14662977 0.1759873 -0.26434994 -0.122441344 0.2368519 -0.28297412 -0.3560496
0.06008884 -0.2758537 -0.2364699 0.2596243 0.47122827 0.038822785 -0.19094488 -0.50069374
-0.27820614 0.058026757 -0.0052890475 -0.047106523 -0.1581691 0.3671244 -0.17757648 0.15844256
0.0015607827 0.15092567 0.1403439 0.19432327 0.06755305 0.44676593 0.14973575 0.33683503
0.4093438 -0.09397476 -0.13398398 0.4082022 0.22620985 -0.22041711 -0.022315538 -0.28467014
00000000: 6f08 8a3b 1b33 8dbc fc21 8e3d 0dad a53d
00000010: eb3d 86be 762d dabd b0ef 783e b84e e63d
00000020: d13d 6bbc 9038 32be 04da 34be 5565 84be
00000030: e482 46be 23b3 c1bd 60dd 303e ce33 9dbc
00000040: e9da b0be 89fa 0bbf f883 ddbd e0b8 fb3e
00000050: 5604 e33c bd86 48be db4c 703e 2b54 53bd
00000060: fbae 77be a49c 1c3e 33d9 3dbe feb5 edbd
00000070: 025e b1be 10e1 0c3e d72d 263e 32f0 463d
00000080: 146c 84be df29 aebe 7d2c 92be cc5f 233e
00000090: beeb 0d3e 64c0 783e 91db 1a3e 39a1 953d
000000a0: 9743 39bb e1ce 60be c443 7dbe ff3e 8abe
000000b0: 7c04 f23d bc21 11be b7f6 6dbd 0c1f 2abe
000000c0: ac76 57bd 520e 50be e026 41be 121c c43d
000000d0: 59b4 afbd 1c7d 363e 0eaa bdbd 4dd8 58be
000000e0: ad9f 50bd ff4a 0fbe ecdf b4bd e0b4 8cbe
000000f0: cc07 913d a994 86be becc 763e b995 003d
00000100: 377e 543e 02e7 e2be 3ba0 923e 37c8 19be
00000110: ac49 2a3c 29cd 8b3e 482b 71bc def8 2abe
00000120: ed50 04bd 7589 afbe 1eef 6d3e af30 c4be
00000130: 02d9 873e aa2c 2d3e 9241 dc3e ec78 96be
00000140: 7f1f 79be 6f45 8f3d 6a91 603e 8603 ebbe
00000150: bee6 1f3d b6e9 87be 9397 d93b e100 66be
00000160: b930 b4bd 7cc6 5cbe 8e95 82be 6cad 8e3e
00000170: f49b bf3e 790a 1abe d55e fe3d db2f 39bd
00000180: 6479 85be 16d5 8fbe 19ba db3d c54c 22be
00000190: 5d09 3ebe e782 b8bc e0e0 c4bd 8444 bfbd
000001a0: 2bf8 173c f8cd 7abd 4f8f cbbd 6089 0dbe
000001b0: 1642 e4be db4b b83e 5b24 d4bd 2a62 d53d
000001c0: 1e3a 43be 5588 ad3d 4161 a33e 97fc 4f3e
000001d0: aa56 e4be c918 ea3e 8e44 953e 46ac b1bd
000001e0: 5a94 e2bd 3197 d83e 4be5 a1bd c13d 8b3e
000001f0: c4e9 84be 8c7c 7abd 8d04 213e 53df 783e
00000200: e1c1 aebe ba4f 87be 2e92 dcbe b3a7 86be
00000210: 5c19 64be 3134 92bd f67e 473e 3dea 453d
00000220: 67d6 60be db23 6dbe 2b0e 133e c8e1 5bbe
00000230: 6a96 11bd 7ecd 0d3e 0dcf 08be 24ee 00bd
00000240: 59d8 cdbc a2de 8bbd 62e1 15be 8ec1 83be
00000250: f9f3 6ebe c548 1ebe 9fc0 8e3e e0c7 0ebe
00000260: 8381 46be 194e 8f3d 52f1 a23d c5f6 213e
00000270: 9743 cc3e c84c c33d 4452 a4be 225a 9bbc
00000280: 01aa 2b3e d3c7 aebd 7854 87be 51f8 ad3e
00000290: 7bab 1fbd b107 c6be 473d 98be 89c7 653e
000002a0: 17de 593d 5524 cc3d d0f6 90bd a186 8cbe
000002b0: 22a5 debe b238 72bc 0a74 343e c325 9a3e
000002c0: 7c41 8fbe 9f72 613e 2ba2 43be 2753 5cbe
000002d0: 2e97 22bd 5a6b 353d b18f 453e 53bb f8be
000002e0: 30cc 983c 0965 0dbf 4640 513c 202a be3e
000002f0: 6167 14be 1e43 a93e 743b 30be d212 5ebe
00000300: 91bb a83e 2cf2 c5bd ccf3 2abc e74f 58be
00000310: 2c41 913e 02b4 623e 4e63 3f3e ff3c f2be
00000320: 0c83 61be bc9b 6f3a 3c06 973d d22f 8cbe
00000330: 126b a5bd 15a4 473e a261 bc3c e264 553c
00000340: 0c7f 91bd 01d9 85be bcf8 8abe 874d 0dbe
00000350: f242 16be 4c31 b83d 4b1b acbd 0a4b e7bd
00000360: 63d1 1b3f 1d26 163e 0436 343e e058 87be
00000370: 87c2 fabd 4e89 723e fce1 90be 224c b6be
00000380: b71f 763d b23c 8dbe 2a25 72be 7aed 843e
00000390: d544 f13e a404 1f3d 0e87 43be 772d 00bf
000003a0: 0971 8ebe 77ad 6d3d bf4f adbb c5f2 40bd
000003b0: 15f7 21be bbf7 bb3e 9cd6 35be c43e 223e
000003c0: 2d93 cc3a 428c 1a3e 50b6 0f3e aefc 463e
000003d0: 4159 8a3d 81be e43e 5454 193e a475 ac3e
000003e0: 8395 d13e d775 c0bd 1933 09be e1ff d03e
000003f0: 8ea3 673e 06b5 61be 13cf b6bc 49c0 91be

mlr.0.bias f4 [64]
-0.07937846 0.18890905 0.027739841 -0.050336607 0.048765525 -0.08163923 0.1244021 0.12379047
0.07752258 -0.019403001 0.16663502 -0.04167602 -0.11238604 0.12547523 0.21352343 0.15391909
0.08122684 -0.09840758 0.081064194 0.15400223 -0.14888825 -0.035763077 -0.07144014 0.17691137
0.0064207334 -0.02954502 -0.024149736 -0.007038464 -0.069673 -0.12688984 0.070177615 -0.14529438
-0.063371874 0.02722968 -0.025335748 -0.27155265 0.21518707 -0.13112533 -0.15892498 0.009817694
-0.1506486 -0.10706029 -0.097269066 -0.04083536 -0.12056155 -0.061160117 0.0061341585 -0.2336011
-0.17472936 0.0042121904 -0.011940182 0.059924718 -0.0990788 0.20300832 0.047064178 0.042984635
-0.15304586 -0.18380544 -0.09179291 -0.06650413 0.10608101 -0.043104697 0.103422716 -0.16945413
00000000: 2d91 a2bd 6071 413e aa3e e33c c22d 4ebd
00000010: 5cbe 473d 7832 a7bd 87c6 fe3d dc85 fd3d
00000020: 29c4 9e3d 0bf3 9ebc 5fa2 2a3e 79b4 2abd
00000030: a72a e6bd 947c 003e e3a5 5a3e f79c 1d3e
00000040: 425a a63d ea89 c9bd fc04 a63d c3b2 1d3e
00000050: 2976 18be 4e7c 12bd 354f 92bd 4128 353e
00000060: 0465 d23b 6608 f2bc abd5 c5bc eaa2 e6bb
00000070: b8b0 8ebd 69ef 01be 48b9 8f3d 0dc8 14be
00000080: 1dc9 81bd c710 df3c ea8c cfbc f308 8bbe
00000090: 005a 5c3e b845 06be 3bbd 22be 65da 203c
000000a0: a043 1abe 6d42 dbbd 0135 c7bd fa42 27bd
000000b0: f9e8 f6bd 0883 7abd 0d01 c93b 2035 6fbe
000000c0: 41ec 32be 6a06 8a3b c1a0 43bc 9f73 753d
000000d0: d3e9 cabd 6ae1 4f3e 5ec6 403d a810 303d
000000e0: 0eb8 1cbe 7e37 3cbe ecfd bbbd 5133 88bd
000000f0: 0041 d93d 8d8e 30bd 4acf d33d 6285 2dbe

mlr.2.weight f4 [208, 64]
0.018994987 0.39489868 0.045872785 -0.054672375 -0.03134489 0.3395124 -0.12576585 -0.11415726
0.06067227 0.46241912 0.6000353 -0.013706058 -0.10063428 -0.061778188 0.15061635 0.45133612
-0.28790691 -0.05848989 -0.61414915 -0.2806045 0.15520726 -0.06024313 0.15155354 0.005127547
0.008242961 0.04457488 0.1230526 0.06274175 -0.017339434 0.10649024 0.04652329 -0.10527857
-0.04429257 0.073161185 0.07007239 0.11928755 0.17189308 0.06760791 -0.06894484 0.16033727
0.090194285 0.29347193 0.09000641 0.24641028 0.0024329573 0.46902657 0.83789325 0.054429352
-0.040175244 -0.002098918 -0.11008343 -0.60211873 -0.06084699 -0.24551529 -0.07220105 0.7367867
0.19821319 -0.006591123 0.24377978 0.13135886 -0.45084894 -0.12362622 0.026821887 0.07003924
-0.107314005 0.13820247 0.098302506 0.0075720698 -0.075307354 0.3459236 -0.1453913 -0.14746451
-0.08453569 0.53286 0.22680451 0.12368679 -0.052962467 -0.08098353 0.06537344 0.15761212
-0.27253562 0.05134192 -0.5776847 -0.27802923 0.1674116 0.09794232 0.021552395 -0.099640325
0.28494474 0.19681305 0.07481128 0.13891533 -0.061217885 0.042758774 0.12652187 -0.07333222
0.21099669 -0.12012197 0.3887159 0.12461425 0.23225266 0.042622343 -0.11173847 0.18043934
-0.021380946 0.35689315 0.12339535 0.06991155 -0.008843452 0.46374425 0.7233391 -0.088436246
0.020327166 -0.016731739 0.029783415 -0.14787121 0.031347968 -0.20320119 -0.051653147 0.18272726
0.26786283 0.040671892 0.040078174 0.2014034 -0.13016331 0.0231954 -0.09298482 0.018850565
0.120442525 0.48379502 -0.109130494 0.11410265 0.00968872 0.40990436 -0.06336535 -0.12754805
-0.09744185 0.54410976 0.54814875 0.009370759 -0.08734545 -0.14887878 0.22227001 0.40534306
-0.3065272 0.009858817 -0.46200383 -0.28718978 0.2518744 0.05003093 0.15200776 -0.06812905
0.2799136 0.14542285 -0.109016314 -0.007069843 0.017377008 0.13051818 0.25916857 -0.028682351
0.058754213 0.08132695 -0.016703842 0.10010758 0.1722185 -0.09593727 -0.08802503 0.03920194
-0.06850253 0.27614117 -0.009408683 0.14359525 -0.06315607 0.41047284 0.7350486 0.12262978
-0.046328604 -0.089500114 0.051755037 -0.55434537 0.10372136 -0.16760457 0.12804675 0.5130064
0.2280711 0.0574168 0.0801849 0.18774699 -0.21507566 0.0013688952 0.031752124 -0.04370269
-0.109022975 -0.2912527 0.047647297 -0.08169487 0.060624957 0.08254954 -0.2554629 -0.07565426
0.0340323 -0.021099651 0.30519974 0.02130197 0.033989847 0.04862068 -0.21134917 -0.34665802
-0.1866232 0.03408824 -0.12334033 -0.22574192 0.18899268 -0.004552081 0.03307168 -0.09770673
0.55418 0.017622959 -0.11552875 0.06832308 -0.056378633 0.15802912 0.61136556 -0.12399177
0.0664194 -0.0119724125 0.22807309 0.114847556 0.21315332 0.08030215 0.039277438 -0.0144200735
0.029373258 0.5589237 -0.08176258 0.03719016 0.12235613 0.40744814 0.57656974 0.075218126
-0.015991509 -0.12324117 0.0072223996 0.09830549 0.015040207 -0.18794465 -0.10871454 -0.18394652
0.37166452 0.22582722 0.1254662 0.069500856 -0.09749809 -0.031234175 -0.037642386 -0.069560766
00000000: 609b 9b3c 2930 ca3e 1ae5 3b3d 24f0 5fbd
00000010: 8063 00bd 92d4 ad3e c3c8 00be 48cb e9bd
00000020: 7c83 783d 33c2 ec3e ea9b 193f 608f 60bc
00000030: 5819 cebd 200b 7dbd 2c3b 1a3e 8715 e73e
00000040: 8968 93be 1893 6fbd e138 1dbf 65ab 8fbe
00000050: a7ee 1e3e 80c1 76bd da30 1b3e fb04 a83b
00000060: 7c0d 073c 2694 363d 0003 fc3d bf7e 803d
00000070: 6e0b 8ebc 8e17 da3d 358f 3e3d 4a9c d7bd
00000080: 206c 35bd 88d5 953d 1d82 8f3d 084d f43d
00000090: bd04 303e 0476 8a3d f432 8dbd 742f 243e
000000a0: c8b7 b83d f441 963e 4855 b83d fa52 7c3e
000000b0: 4072 1f3b 4024 f03e 2c80 563f 50f1 5e3d
000000c0: cc8e 24bd 008e 09bb 6c73 e1bd 7424 1abf
000000d0: b23a 79bd 5c68 7bbe 25de 93bd 0e9e 3c3f
000000e0: 66f8 4a3e 59fa d7bb 68a1 793e f082 063e
000000f0: acd5 e6be be2f fdbd 93b9 db3c bc70 8f3d
00000100: 72c7 dbbd f384 0d3e d352 c93d 201f f83b
00000110: be3a 9abd e61c b13e 75e1 14be f000 17be
00000120: 0c21 adbd 8369 083f 713f 683e 804f fd3d
00000130: 2cef 58bd b1da a5bd 83e2 853d 1265 213e
00000140: ca89 8bbe e84b 523d 25e3 13bf d959 8ebe
00000150: f26d 2b3e fc95 c83d a68e b03c 3a10 ccbd
00000160: 47e4 913e 5c89 493e a836 993d d23f 0e3e
00000170: 9bbf 7abd d323 2f3d f38e 013e 342f 96bd
00000180: 840f 583e 8202 f6bd c505 c73e c235 ff3d
00000190: a4d3 6d3e c494 2e3d 24d7 e4bd 17c5 383e
000001a0: 1827 afbc b3ba b63e b4b6 fc3d c92d 8f3d
000001b0: 20e4 10bc e36f ed3e c02c 393f 101e b5bd
000001c0: 2885 a63c 0011 89bc 59fc f33c 8d6b 17be
000001d0: ba66 003d f913 50be 4092 53bd db1c 3b3e
000001e0: 5125 893e 9297 263d 0329 243d b13c 4e3e
000001f0: 8849 05be 4804 be3c d36e bebd 806c 9a3c
00000200: 92aa f63d fbb3 f73e cf7f dfbd a6ae e93d
00000210: 70bd 1e3c fcde d13e b1c5 81bd f59b 02be
00000220: 988f c7bd c74a 0b3f 7a53 0c3f d087 193c
00000230: 2ce2 b2bd ae73 18be c09a 633e 2089 cf3e
00000240: 22f1 9cbe e086 213c c48b ecbe 8a0a 93be
00000250: aef5 803e 3ced 4c3d eca7 1b3e 3e87 8bbd
00000260: d650 8f3e bae9 143e f243 dfbd 24aa e7bb
00000270: 3a5a 8e3c 8fa6 053e beb1 843e 40f7 eabc
00000280: 42a8 703d be8e a63d 7fd6 88bc 3405 cd3d
00000290: 0c5a 303e c27a c4bd 7846 b4bd 3792 203d
000002a0: 0e4b 8cbd 6062 8d3e e026 1abc a20a 133e
000002b0: f857 81bd 7f29 d23e 252c 3c3f 5225 fb3d
000002c0: 10c3 3dbd d64b b7bd 17fd 533d 94e9 0dbf
000002d0: dd6b d43d 88a0 2bbe b01e 033e 6354 033f
000002e0: 788b 693e e12d 6b3d fb37 a43d bf40 403e
000002f0: cb3c 5cbe 806c b33a 840e 023d 9801 33bd
00000300: 7047 dfbd 131f 95be d029 433d a44f a7bd
00000310: e051 783d bc0f a93d 09cc 82be 9ff0 9abd
00000320: 7465 0b3d 2dd9 acbc 2443 9c3e 7881 ae3c
00000330: f038 0b3d 7a26 473d eb6b 58be 297d b1be
00000340: 271a 3fbe 1ca0 0b3d db99 fcbd e428 67be
00000350: 4c87 413e a029 95bb 2c76 073d 771a c8bd
00000360: bede 0d3f 065e 903c 569a ecbd f9ec 8b3d
00000370: 48ed 66bd 63d2 213e 7482 1c3f 66ef fdbd
00000380: e506 883d f027 44bc fe8b 693e 3235 eb3d
00000390: dd44 5a3e 7475 a43d 61e1 203d 2c42 6cbc
000003a0: 30a0 f03c a015 0f3f 2473 a7bd b654 183d
000003b0: da95 fa3d 0b9d d03e 139a 133f f60b 9a3d
000003c0: a000 83bc de65 fcbd e1a9 ec3b 6454 c93d
000003d0: 336b 763c 9074 40be bba5 debd 7a5c 3cbe
000003e0: d04a be3e 403f 673e 367a 003e 7756 8e3d
000003f0: 14ad c7bd d0de ffbc e72e 1abd e075 8ebd

mlr.2.bias f4 [208]
0.10107575 0.07050718 -0.013210553 0.10782494 0.13656585 0.11214221 0.15407906 0.034712076
0.09236846 0.13088326 0.09895647 0.032169446 0.10017121 -0.034076992 0.030433727 0.055263683
0.12074407 0.070250615 -0.0024462375 0.046723805 0.09654721 0.04730041 0.11958702 0.06708397
0.10991355 0.09024502 0.07894557 0.096617 0.061481554 0.10745381 0.061195705 0.09381454
0.09317617 -0.0041623428 0.05856244 0.013348451 0.04831465 0.030208321 0.097914666 -0.022570288
0.047905166 0.092076406 0.06603682 0.08160259 -0.01201574 0.14509745 0.026599476 0.05839212
0.037878197 0.13723825 0.115190186 0.041802067 0.14206792 0.16096048 0.04823478 0.09695311
0.08053196 0.12249798 0.10691971 0.14562282 0.103328325 0.115437806 0.07418934 0.1318595
0.07442 0.035806347 0.118425936 0.012385982 0.038130835 -0.0065648956 0.106919214 0.12528677
0.106756344 0.063216865 0.015773037 0.085803226 0.04984999 0.07813342 0.13644426 0.16299723
0.17014515 0.112378225 0.12556036 0.12765923 0.1146775 0.09265396 0.10027174 0.1283124
0.13526425 0.07677455 0.10556337 0.1472541 0.16418083 0.0636452 0.18177372 0.1423128
0.05334293 0.15755439 0.12822485 0.09073078 0.046318226 0.03666003 0.14678133 0.060262617
0.1744856 0.1269164 0.09234158 0.21215054 0.055837408 0.12967522 0.22118966 0.15974125
0.23585324 0.18365023 0.10924422 0.18578951 0.11957197 0.18845332 0.06011046 0.14112836
0.11962761 0.13369061 0.08485447 0.16413157 0.1628109 0.18489198 0.059058152 0.061994184
0.1355057 0.017651293 0.10040603 0.13974944 0.17274506 0.10799311 0.08757606 0.09076503
0.10139222 0.15814124 0.06638993 0.14785622 0.17431848 0.14129491 0.13559598 0.11356981
0.08656092 0.08326946 0.035837695 -0.0030840535 0.09413416 0.023904013 0.0343628 0.11164019
0.05665276 0.1857735 0.14902359 0.0055989623 0.1575734 0.06417467 0.21034491 0.16146505
0.09585959 0.1792303 0.059749212 0.059881132 0.13789429 0.12543227 0.0723783 0.09902611
-0.00580496 0.0062291087 0.00054689334 -0.0106472345 0.09149354 -0.008690718 -0.012602859 0.035688132
0.13119245 0.162062 0.11872075 0.05746974 0.1067988 0.06423834 0.18053956 0.04021884
0.14970715 0.16552134 0.055210665 0.16157503 0.07636553 0.1321713 0.04568288 0.07042081
0.023029339 0.053618133 0.07305147 0.08160762 -0.014739132 -0.009509553 0.060234774 -0.027474144
-0.012881188 -0.030994143 0.13880824 0.14541939 0.054155737 0.12588124 0.1579328 0.1276751
00000000: ce00 cf3d 1266 903d 1371 58bc 52d3 dc3d
00000010: ebd7 0b3e d1aa e53d e7c6 1d3e 402e 0e3d
00000020: ad2b bd3d 4306 063e b1a9 ca3d 1cc4 033d
00000030: 9026 cd3d 5194 0bbd 2750 f93c 2c5c 623d
00000040: ab48 f73d 8edf 8f3d 0e51 20bb 7661 3f3d
00000050: 8bba c53d 13be 413d 0aea f43d 5263 893d
00000060: 5b1a e13d 62d2 b83d 37ae a13d 22df c53d
00000070: 15d4 7b3d be10 dc3d 59a8 7a3d d621 c03d
00000080: 26d3 be3d 4364 88bb 2bdf 6f3d 76b3 5a3c
00000090: 95e5 453d 7177 f73c 7c87 c83d 53e5 b8bc
000000a0: 3538 443d 8e92 bc3d 503e 873d 421f a73d
000000b0: abdd 44bc 6d94 143e 25e7 d93c 932c 6f3d
000000c0: 2b26 1b3d 2f88 0c3e d5e8 eb3d a538 2b3d
000000d0: 417a 113e d3d2 243e d591 453d 5a8f c63d
000000e0: f1ed a43d 39e0 fa3d b9f8 da3d 261e 153e
000000f0: cd9d d33d a86a ec3d 95f0 973d 2d06 073e
00000100: 8369 983d ada9 123d 4c89 f23d 93ee 4a3c
00000110: 142f 1c3d 561e d7bb 76f8 da3d 2d4b 003e
00000120: 12a3 da3d d877 813d 7536 813c 9ab9 af3d
00000130: 812f 4c3d 6a04 a03d 0bb8 0b3e bfe8 263e
00000140: 883a 2e3e 8e26 e63d e592 003e 1ab9 023e
00000150: 0adc ea3d 5cc1 bd3d 455b cd3d 5364 033e
00000160: b682 0a3e fa3b 9d3d 9c31 d83d c7c9 163e
00000170: 051f 283e 6a58 823d e422 3a3e 72ba 113e
00000180: 1e7e 5a3d f055 213e 604d 033e 0fd1 b93d
00000190: 2eb8 3d3d d428 163d d84d 163e efd5 763d
000001a0: 5aac 323e 5ff6 013e 951d bd3d fe3d 593e
000001b0: c4b5 643d 95c9 043e 8b7f 623e 3693 233e
000001c0: 8383 713e ce0e 3c3e 6fbb df3d 9b3f 3e3e
000001d0: 26e2 f43d e8f9 403e 6336 763d f483 103e
000001e0: 52ff f43d 31e6 083e 2ec8 ad3d 1b12 283e
000001f0: e7b7 263e 5354 3d3e f6e6 713d 9ded 7d3d
00000200: 02c2 0a3e 7299 903c ada1 cd3d 7a1a 0f3e
00000210: 15e4 303e 7e2b dd3d 145b b33d 04e3 b93d
00000220: b9a6 cf3d c7ef 213e 72f7 873d 9f67 173e
00000230: 8b80 323e 9daf 103e acd9 0a3e 4a97 e83d
00000240: da46 b13d 2e89 aa3d 8cca 123d d51d 4abb
00000250: 69c9 c03d 59d2 c33c 02c0 0c3d 9da3 e43d
00000260: b90c 683d 693b 3e3e a499 183e 8077 b73b
00000270: ec5a 213e 026e 833d a864 573e 1857 253e
00000280: 0852 c43d 2688 373e 97bb 743d eb45 753d
00000290: 2934 0d3e 5171 003e 133b 943d 33ce ca3d
000002a0: 8937 bebb 8d1d cc3b 645d 0f3a bd71 2ebc
000002b0: f760 bb3d 8363 0ebc 397c 4ebc b82d 123d
000002c0: 5057 063e 95f3 253e dd23 f33d 6465 6b3d
000002d0: 54b9 da3d 648f 833d 5ddf 383e 83bc 243d
000002e0: d54c 193e 6d7e 293e 9424 623d ed73 253e
000002f0: 8865 9c3d ea57 073e f91d 3b3d c938 903d
00000300: 06a8 bc3c b09e 5b3d 029c 953d e521 a73d
00000310: 667c 71bc f5cd 1bbc bdb8 763d 7511 e1bc
00000320: 9e0b 53bc 6ee7 fdbc bf23 0e3e d2e8 143e
00000330: 68d2 5d3d 03e7 003e 23b9 213e 43bd 023e
