pqc_reup_v1_output/model_params_epoch_10.pth (torch, 61309 bytes, 6 tensors)

reupload_weights f4 [12, 3, 4]
0	0x3e378c3e	0.17924592
1	0x3e1517be	0.14559838
2	0x3e183153	0.14862566
3	0xbdc4a52d	-0.09601817
4	0x3ea03394	0.3128935
5	0x3da91cbd	0.082574345
6	0x3e8d84e6	0.27640456
7	0x3eb9cf29	0.36290863
8	0x3cb5ba40	0.022183537
9	0x3e8cacf1	0.27475694
10	0x3da9fdad	0.08300338
11	0xbd57b34d	-0.05266123
12	0xbe412699	-0.1886238
13	0xbe19692b	-0.14981525
14	0xbd8c55cd	-0.06852303
15	0x3d9cc43e	0.07654618
16	0xbc0caa2a	-0.008585492
17	0xbe4e6cf1	-0.20158745
18	0xbe82bae7	-0.2553322
19	0xbe24e024	-0.16101128
20	0x3d946cef	0.0724734
21	0x3e628256	0.22120032
22	0x3da4ebfa	0.080528215
23	0x3e109c30	0.14122081
24	0x3d185e42	0.037199266
25	0x3da0396a	0.07823451
26	0x3d0d4dae	0.03449791
27	0x3d9737b5	0.07383672
28	0x3ecad5f0	0.39616346
29	0x3eac3d52	0.33640534
30	0x3e8c1e06	0.27366656
31	0x3ed8c25d	0.42335787
32	0xbdc92f6a	-0.09823497
33	0x3c6cc293	0.014450687
34	0x3df59010	0.11990368
35	0x3e806aaa	0.25081378
36	0x3ac5bacb	0.0015085576
37	0xbe024688	-0.12722218
38	0x3cdff913	0.027340448
39	0xbe337e70	-0.17528701
40	0x3c2328a2	0.009958418
41	0x3eafdafc	0.3434676
42	0x3d58475e	0.052802436
43	0xbd033a47	-0.032038
44	0x3e8d233d	0.27565947
45	0x3f1a9bf7	0.60394233
46	0x3e93b704	0.28850567
47	0x3e3ae313	0.18250684
48	0x3c1af1c0	0.009457052
49	0x3d196304	0.037447944
50	0x3dbbec1b	0.09175893
51	0x3e154def	0.1458051
52	0xbc84a56f	-0.016192166
53	0x3e0c10ad	0.13678236
54	0xbd742606	-0.059606574
55	0xbd7d1ec3	-0.061796915
56	0xbe3af508	-0.18257535
57	0xbd14bc04	-0.03631212
58	0xbd830be4	-0.06398752
59	0x3c0f032e	0.008728785
60	0xbd948ebe	-0.072537884
61	0x3dd84c00	0.10561371
62	0xbe465157	-0.19366966
63	0x3d5fb0df	0.054612037
64	0x3dc63cc1	0.09679557
65	0x3ce8e6f7	0.028430445
66	0x3e274cc3	0.16337876
67	0x3c4e5d43	0.0125954775
68	0xbbcbbf93	-0.006217906
69	0xbda04b4d	-0.078268625
70	0xbe29e062	-0.16589502
71	0x3dd121be	0.10211514
72	0xbcdc0228	-0.026856497
73	0x3d0321a7	0.032014515
74	0xbc480518	-0.012208246
75	0x3d76a719	0.06021795
76	0xbc34f751	-0.011045293
77	0xbe1361af	-0.14392732
78	0xbe9822da	-0.2971409
79	0xbdbcb09d	-0.09213374
80	0x3e02034e	0.12696573
81	0x3d5f2e86	0.054487728
82	0xbd2dcb35	-0.04243012
83	0x3dc3e530	0.095651984
84	0x3e1c2166	0.15247115
85	0x3dd0127f	0.10159778
86	0x3df96769	0.12177927
87	0x3cb4442c	0.022005163
88	0xbe42eb9e	-0.19035193
89	0xbe90c6db	-0.28276715
90	0xbe17f93b	-0.14841168
91	0x3cae6276	0.021287184
92	0xbeb0c967	-0.34528658
93	0xbe5c82d3	-0.2153428
94	0x3e20b4c0	0.1569395
95	0x3d8ac1ea	0.067752674
96	0xbe87c148	-0.2651465
97	0xbbb36465	-0.0054746144
98	0xbd3aa56f	-0.045567926
99	0xbd3f2026	-0.04666152
100	0x3d945e44	0.07244542
101	0x3edbee2a	0.42955142
102	0x3f02566b	0.50913113
103	0x3e9a831f	0.30178162
104	0xbed434f6	-0.41446656
105	0xbd61c0e2	-0.055115588
106	0x3c4b733d	0.012417612
107	0xbe0e63fc	-0.13905329
108	0x3d01179b	0.031516653
109	0x3e1bb0e1	0.15204193
110	0x3d4ee59c	0.05051194
111	0x3dcb39fb	0.09923168
112	0xbeb4d5d6	-0.35319394
113	0xbe58f348	-0.21186554
114	0xbe919d8e	-0.28440517
115	0xbeec97a6	-0.4620945
116	0x3e31e94c	0.17374152
117	0x3de66acd	0.112508394
118	0x3cc490a6	0.023994755
119	0x3cf97a8b	0.03045394
120	0xbdab7e1e	-0.08373664
121	0xbda91b10	-0.08257115
122	0xbc1e98a6	-0.009679949
123	0x3d1f21d8	0.038850635
124	0x3df93261	0.12167812
125	0x3cebd1bb	0.02878653
126	0x3e32be4e	0.17455408
127	0x3e074407	0.13209544
128	0xbea456ab	-0.32097372
129	0xbedb97db	-0.42889294
130	0xbf11e76c	-0.56993747
131	0xbf0d8643	-0.5528299
132	0xbcf7cb1f	-0.030248223
133	0x3e565238	0.20929801
134	0x3da0d231	0.07852591
135	0x3d8aa695	0.06770054
136	0xbed51dc3	-0.4162427
137	0xbe8a682c	-0.27032602
138	0xbf0819de	-0.5316447
139	0xbe796256	-0.24353918
140	0xbed068e3	-0.40705022
141	0x3cf5b74f	0.029994635
142	0xbe398d87	-0.18120395
143	0xbd1dfa0c	-0.03856854

reupload_bias f4 [12, 3]
0	0xbed4f051	-0.41589597
1	0x3eb001a3	0.3437625
2	0x3da14e00	0.078762054
3	0x3ece0822	0.4024058
4	0xbed98af6	-0.4248883
5	0xbd87fe5d	-0.06640313
6	0xbe8b0b4a	-0.2715705
7	0x3f05e3e1	0.5230084
8	0x3dd83962	0.1055782
9	0x3eb56111	0.35425618
10	0x3d9d77db	0.07688876
11	0x3f29a22e	0.6626309
12	0xbea5e5ab	-0.32401785
13	0x3e0c3962	0.13693765
14	0xbe255583	-0.16145901
15	0x3df50524	0.11963871
16	0xbe88dd5a	-0.26731378
17	0xbe2618ab	-0.16220348
18	0xbdb5902a	-0.08865388
19	0xbe52dd50	-0.20592237
20	0xbe018d7e	-0.12651631
21	0xbf008831	-0.5020781
22	0xbea74c72	-0.3267551
23	0xbcfe2376	-0.031022768
24	0x3ecc2317	0.3987052
25	0x3f194c66	0.598822
26	0xbf1f9ef1	-0.623519
27	0xbece0db9	-0.40244845
28	0xbeb5ef7c	-0.35534275
29	0x3c3924e4	0.011300299
30	0x3e5114de	0.20418116
31	0x3e759f8d	0.23986645
32	0xbf484e94	-0.782449
33	0xbecb32d2	-0.3968721
34	0xbef20771	-0.47271302
35	0xbd029bc1	-0.03188682

mlr.0.weight f4 [64, 12]
0	0x3b8a086f	0.004212431
1	0xbc8d331b	-0.017236283
2	0x3d8e21fc	0.06940076
3	0x3da5ad0d	0.080896474
4	0xbe863deb	-0.26219115
5	0xbdda2d76	-0.10653202
6	0x3e78efb0	0.24310184
7	0x3de64eb8	0.11245483
8	0xbc6b3dd1	-0.014358
9	0xbe323890	-0.1740439
10	0xbe34da04	-0.17661291
11	0xbe846555	-0.2585856
12	0xbdb0d74e	-0.08634816
13	0x3dd021ac	0.101626724
14	0x3e3fc20f	0.18726371
15	0x3e0ea0c7	0.13928519
16	0xbe7c7025	-0.24652155
17	0xbe2c3fa0	-0.16821146
18	0xbd27fb9a	-0.04101143
19	0x3e95a92f	0.2923064
20	0x3d50ada9	0.050946865
21	0xbd8cea70	-0.06880653
22	0x3e032d1d	0.12810178
23	0xbdc40742	-0.09571697
24	0xbe3f54b8	-0.18684661
25	0x3e57c1d1	0.21070029
26	0xbe06694f	-0.1312611
27	0xbd6d08d9	-0.057869766
28	0xbe9308a2	-0.28717524
29	0x3e45d6b0	0.19320178
30	0x3e5ff596	0.21871027
31	0x3dd776d6	0.10520713
32	0xbe4e1dd8	-0.20128572
33	0xbe91df12	-0.28490502
34	0xbe701533	-0.23445587
35	0x3e5c6e75	0.21526511
36	0x3e0debbe	0.1385946
37	0x3e78c064	0.24292141
38	0x3e1adb91	0.1512282
39	0x3d95a139	0.073061414
40	0xbb394397	-0.0028269046
41	0xbe60cee1	-0.21953918
42	0xbe7d43c4	-0.24732882
43	0xbe8a3eff	-0.27001187
44	0x3df2047c	0.118172616
45	0xbe1121bc	-0.14173025
46	0xbd6df6b7	-0.058096614
47	0xbe2a1f0c	-0.16613406
48	0xbd5776ac	-0.05260341
49	0xbe500e52	-0.20317963
50	0xbe4126e0	-0.18862486
51	0x3dc41c12	0.095756665
52	0xbdafb459	-0.085793205
53	0x3e367d1c	0.17821163
54	0xbdbdaa0e	-0.09260951
55	0xbe58d84d	-0.21176262
56	0xbd509fad	-0.05093353
57	0xbe0f4aff	-0.13993452
58	0xbdb4dfec	-0.08831772
59	0xbe8cb4e0	-0.27481747
60	0x3e238461	0.15968467
61	0xbe58835c	-0.2114386
62	0x3e0be81c	0.13662761
63	0x3df80076	0.12109463
64	0x3e4e1acc	0.2012741
65	0xbe6b2165	-0.22961958
66	0x3e4d6827	0.20059262
67	0xbe0dde86	-0.13854417
68	0x3dd39e52	0.103329316
69	0x3e878038	0.2646501
70	0xbd2c931a	-0.042132474
71	0xba9c3918	-0.0011918871
72	0xbd2311eb	-0.03981201
73	0xbe81d0de	-0.25354666
74	0x3e2616d6	0.16219649
75	0xbea17930	-0.3153777
76	0x3e428954	0.18997699
77	0x3e57764c	0.2104122
78	0x3e99d28d	0.3004345
79	0xbdc58c30	-0.09645879
80	0xbe6cde16	-0.23131594
81	0x3d71617f	0.05893087
82	0x3e4d4a73	0.20047931
83	0xbe993a72	-0.29927403
84	0xbd8631bb	-0.06552454
85	0xbe313377	-0.17304789
86	0xbcced62a	-0.025248606
87	0xbe117ffd	-0.1420898
88	0xbdf1aa87	-0.11800104
89	0xbdbbaf0d	-0.09164248
90	0xbe8c74de	-0.27432913
91	0x3e728b75	0.23686011
92	0x3e77d042	0.24200538
93	0xbd397beb	-0.045284193
94	0xbd06a7da	-0.03287492
95	0xbdf14881	-0.11781407
96	0xbe857964	-0.26069176
97	0xbe8fd516	-0.2809226
98	0x3ddbba19	0.10728855
99	0xbe224cc5	-0.15849598
100	0xbe3e095d	-0.1855826
101	0xbcb882e7	-0.022523357
102	0xbdc4e0e0	-0.09613204
103	0xbdbf4484	-0.0933924
104	0x3c17f82b	0.009275476
105	0xbd7acdf8	-0.061231583
106	0xbdcb8f4f	-0.09939443
107	0xbe0d8960	-0.13821936
108	0xbe6cac19	-0.23112525
109	0x3e7284f1	0.23683526
110	0xbdf6ff3c	-0.12060401
111	0x3d94ad03	0.07259562
112	0xbdd02ffe	-0.10165404
113	0x3ca20dce	0.019781973
114	0x3e87aa38	0.26497054
115	0x3e0bdce2	0.13658479
116	0xbe7ec86a	-0.2488114
117	0x3dec29e3	0.11531427
118	0x3e8c9ee0	0.27464962
119	0x3da69ae5	0.081350125
120	0x3e670643	0.22560982
121	0x3e9f10d6	0.31067532
122	0xbca54833	-0.020176029
123	0x3db56307	0.088567786
124	0xbe2f11d7	-0.17096649
125	0xbd08e3a0	-0.033420205
126	0x3e74397c	0.23850054
127	0x3e3c94d4	0.18416148
128	0xbe19decc	-0.15026397
129	0xbe4fff17	-0.20312153
130	0xbe2c42fd	-0.16822429
131	0xbe7d8a0b	-0.2475969
132	0xbe64195c	-0.22275299
133	0xbd923431	-0.07138861
134	0x3e477ef6	0.19482026
135	0x3d45ea3d	0.04831909
136	0xbe60d667	-0.21956788
137	0xbe6d23db	-0.23158209
138	0x3e130e2b	0.14360873
139	0xbe5be1c8	-0.21472847
140	0xbd11966a	-0.035543837
141	0x3e0dcd7e	0.1384792
142	0xbe08cf0d	-0.13360234
143	0xbd00ee24	-0.03147711
144	0xbccdd859	-0.025127577
145	0xbd8bdea2	-0.06829573
146	0xbe15e162	-0.14636758
147	0xbe83c18e	-0.25733608
148	0xbe6ef3f9	-0.23335256
149	0xbe1e48c5	-0.15457447
150	0x3e8ec09f	0.27881333
151	0xbe0ec7e0	-0.13943434
152	0xbe468183	-0.19385342
153	0x3d8f4e19	0.06997318
154	0x3da2f152	0.079561844
155	0x3e21f6c5	0.15816791
156	0x3e89fb80	0.26949692
157	0x3e4e07dc	0.20120186
158	0xbe7a8498	-0.24464643
159	0x3d891fdb	0.06695529
160	0x3e60f682	0.21969035
161	0x3c69880f	0.01425363
162	0xbe032856	-0.12808356
163	0x3ea5fdbe	0.32420152
164	0xbd7752e6	-0.060381792
165	0xbdf5e1b6	-0.120059416
166	0xbe59b75d	-0.21261354
167	0x3d836c93	0.06417193
168	0x3d8c53b0	0.068518996
169	0x3db6dd4a	0.08928926
170	0x3d437836	0.047722064
171	0xbe4102a6	-0.18848667
172	0xbe8dc904	-0.27692425
173	0x3cb86625	0.022509644
174	0x3e8044e3	0.25052556
175	0x3e2163ad	0.1576068
176	0xbe43fd6b	-0.1913964
177	0xbd1fc9ca	-0.0390108
178	0xbe8b1ebe	-0.27171892
179	0xbe2f0d70	-0.1709497
180	0x3d8e32ef	0.069433086
181	0x3e20c20f	0.15699027
182	0x3e776e26	0.24163112
183	0xbe871956	-0.26386517
184	0x3e4e0b4e	0.201215
185	0xbe500c18	-0.20317113
186	0x3de4274d	0.111403085
187	0x3e83bb91	0.2572904
188	0x3c89bd21	0.016813817
189	0x3e894a11	0.2681432
190	0xbe6ec581	-0.2331753
191	0xbdbe4d33	-0.09292068
192	0x3e2d2235	0.1690758
193	0xbd9403d7	-0.07227295
194	0xbd748e65	-0.05970611
195	0xbe0959db	-0.13413183
196	0x3e482357	0.19544731
197	0x3e08a55d	0.13344331
198	0x3dbd4d56	0.09243266
199	0xbe349ea4	-0.17638642
200	0xbe74f038	-0.23919761
201	0x3cbeff67	0.023315145
202	0x3db5215b	0.08844253
203	0xbe12e4bb	-0.14345066
204	0xbda56b12	-0.08077063
205	0x3e47a415	0.19496186
206	0x3cbc61a2	0.022995774
207	0x3c5564e2	0.013024541
208	0xbd917f0c	-0.071043104
209	0xbe85d901	-0.26142123
210	0xbe8af8bc	-0.27142894
211	0xbe0d4d87	-0.13799106
212	0xbe1642f2	-0.14673975
213	0x3db8314c	0.08993778
214	0xbdac1b4b	-0.08403643
215	0xbde74b0a	-0.112936094
216	0x3ea4e0eb	0.3220285
217	0x3e0a62f3	0.13514309
218	0x3e7a3ca8	0.24437201
219	0xbdd7bcce	-0.105340585
220	0xbd9d9a86	-0.07695489
221	0x3e115c35	0.1419533
222	0xbe1c7ad3	-0.15281229
223	0xbe162c9b	-0.14665453
224	0x3cef538d	0.029214645
225	0xbd885728	-0.06657249
226	0xbe2ea2df	-0.17054318
227	0x3e5ded32	0.21672514
228	0x3e8c2dc4	0.27378666
229	0x3d91c0c5	0.07116846
230	0xbcb3c96d	-0.021946633
231	0xbe785c45	-0.24253948
232	0xbd93ad72	-0.072108164
233	0x3dcae016	0.09906022
234	0x3e29a007	0.16564952
235	0xba39bac1	-0.00070850184
236	0xbd9e067f	-0.07716083
237	0x3e44413f	0.19165514
238	0xbe43f633	-0.19136886
239	0x3e6406a4	0.22268158
240	0xbd5eee00	-0.054426193
241	0x3d47067e	0.048590176
242	0xbc3bf3d7	-0.01147171
243	0x3da47dd0	0.08031809
244	0xbd1763bc	-0.03696035
245	0x3e832012	0.25610405
246	0x3d1ff28b	0.039049666
247	0x3e908271	0.2822452
248	0x3ea9d6db	0.33171734
249	0xbdb84baa	-0.08998807
250	0xbe1f9d89	-0.15587439
251	0x3e958717	0.29204628
252	0x3e67a38e	0.22620985
253	0xbe61b506	-0.22041711
254	0xbcb6cf13	-0.022315538
255	0xbe91c049	-0.28467014

mlr.0.bias f4 [64]
0	0xbda2912d	-0.07937846
1	0x3e5c1309	0.21491636
2	0x3db71e51	0.08941329
3	0xbd4e2dc2	-0.050336607
4	0x3d47be5c	0.048765525
5	0xbe096e97	-0.13421093
6	0x3dc1e468	0.09467393
7	0x3de9dc28	0.114189446
8	0x3d9ec429	0.07752258
9	0xbe1e4218	-0.154549
10	0x3e77c6a4	0.24196869
11	0xbd2ab479	-0.04167602
12	0xbde62aa7	-0.11238604
13	0x3e477ad3	0.19480447
14	0x3ec3574f	0.3815255
15	0x3e75568b	0.23958795
16	0x3da06e16	0.07833497
17	0xbdc989ea	-0.09840758
18	0x3e1a6406	0.15077218
19	0x3e645630	0.22298503
20	0xbe925d98	-0.2858703
21	0xbd127c4e	-0.035763077
22	0xbe74a753	-0.23891954
23	0x3d5c5ab1	0.053797428
24	0x3da77855	0.081772484
25	0xbd7e1f3a	-0.0620415
26	0xbcc5d5ab	-0.024149736
27	0x3d826371	0.06366623
28	0xbd46ba56	-0.048517548
29	0xbe85c503	-0.2612687
30	0x3e3c6669	0.18398441
31	0xbe14c80d	-0.14529438
32	0xbdb1ce9c	-0.08681986
33	0x3cdf10c7	0.02722968
34	0xbc9980af	-0.018738119
35	0xbe8b08f3	-0.27155265
36	0x3e079f70	0.13244414
37	0xbe0645b8	-0.13112533
38	0xbe22bd3b	-0.15892498
39	0x3d224017	0.039611902
40	0xbe1a43a0	-0.1506486
41	0xbe4c699e	-0.19962165
42	0xbdc73501	-0.097269066
43	0xbdfadcb3	-0.12249126
44	0xbdf6e8f9	-0.12056155
45	0xbdad2762	-0.08454777
46	0x3c6a4a50	0.014299944
47	0xbe6f3520	-0.2336011
48	0xbe32ec41	-0.17472936
49	0x3b8a066a	0.0042121904
50	0x3d246f9e	0.04014551
51	0x3dc12e86	0.09432702
52	0xbe52b29a	-0.20575944
53	0x3dbcb61c	0.09214422
54	0x3df0b99a	0.11754151
55	0x3dccfc5c	0.10009071
56	0xbeaeedfe	-0.3416595
57	0xbe205efe	-0.15661237
58	0xbe96eddd	-0.2947835
59	0xbe454221	-0.19263507
60	0x3e207000	0.15667725
61	0xbd308e8d	-0.043104697
62	0x3dfb1799	0.1226036
63	0xbe2d8562	-0.16945413

mlr.2.weight f4 [208, 64]
0	0x3c9b9b60	0.018994987
1	0xbd65aaff	-0.056071278
2	0x3d7ff1d8	0.0624865
3	0xbd5ff024	-0.054672375
4	0xbd006380	-0.03134489
5	0xbdb77ccc	-0.0895935
6	0xbdfac34d	-0.12244282
7	0x3df31122	0.11868502
8	0x3d78837c	0.06067227
9	0xbd0e18ff	-0.034691807
10	0x3c98d0a0	0.018654168
11	0xbc608f60	-0.013706058
12	0xbdce1958	-0.10063428
13	0x3e09e1a4	0.13464981
14	0xbca3e97e	-0.020008799
15	0x3d4d0d75	0.05006166
16	0xbd5152d3	-0.051104378
17	0xbd6f9318	-0.05848989
18	0x3d1fb82c	0.038994
19	0x3d8a18c7	0.06743007
20	0x3da4eae8	0.08052617
21	0xbd76c180	-0.06024313
22	0x3e0ed99c	0.13950199
23	0xbc96bcc0	-0.01840055
24	0xbd4d77a5	-0.05016293
25	0xbcc9aac4	-0.02461756
26	0x3dfc0300	0.1230526
27	0x3cc6e879	0.024280773
28	0xbc8b0088	-0.016968027
29	0xbca41b69	-0.020032601
30	0xbc5ce6ba	-0.013482744
31	0xbdd79c4a	-0.10527857
32	0xbd9284a9	-0.07154209
33	0x3d95d588	0.073161185
34	0x3e0950dc	0.13409752
35	0x3df44d08	0.11928755
36	0xbdb8d136	-0.09024279
37	0x3d8a7604	0.06760791
38	0xbd8d32f4	-0.06894484
39	0x3dd2d4ea	0.102945164
40	0x3db8b7c8	0.090194285
41	0x3e092725	0.13393839
42	0x3db85548	0.09000641
43	0x3dd4d9ee	0.10393129
44	0x3b1f7240	0.0024329573
45	0x3db6a14b	0.08917483
46	0xbc73631c	-0.0148551725
47	0x3d5ef150	0.054429352
48	0xbd248ecc	-0.040175244
49	0xbb098e00	-0.002098918
50	0xbdded126	-0.10879736
51	0xbc069d7e	-0.00821626
52	0xbd38e31d	-0.045138467
53	0xbd2cb550	-0.0421651
54	0xbd7b8d7e	-0.061414234
55	0xbdb36eda	-0.08761378
56	0x3de8719f	0.113497965
57	0x3de0ecae	0.10982643
58	0x3e0bd265	0.13654478
59	0x3ddfb50c	0.10923204
60	0xbd11a196	-0.03555449
61	0xbdfd2fbe	-0.12362622
62	0x3d42356c	0.04741423
63	0x3d8f70bc	0.07003924
64	0xbddbc772	-0.107314005
65	0x3dac2316	0.084051296
66	0x3dd87132	0.10568465
67	0x3bf81f20	0.0075720698
68	0xbd9a3abe	-0.075307354
69	0x3e0813d0	0.13288808
70	0xbd9a37b7	-0.07530158
71	0x3da98604	0.082775146
72	0xbdad210c	-0.08453569
73	0x3ded4bb7	0.11586707
74	0xbd1d865b	-0.03845821
75	0x3dfd4f80	0.12368679
76	0xbd58ef2c	-0.052962467
77	0x3e0c062e	0.13674232
78	0x3ce71f72	0.028213236
79	0x3d955b15	0.07292763
80	0xbca49e45	-0.020095
81	0x3d524be8	0.05134192
82	0xbbe4fd97	-0.006988238
83	0xbd99587d	-0.07487581
84	0x3cd87b85	0.026426086
85	0x3dc895fc	0.09794232
86	0x3bd72c9b	0.0065665967
87	0x3d20ee58	0.039289802
88	0xbb4d59af	-0.0031333973
89	0x3e17f745	0.1484042
90	0x3d9936a8	0.07481128
91	0x3da869b0	0.08223283
92	0xbd82db7e	-0.06389521
93	0xbd6038f1	-0.054741804
94	0x3d19a56d	0.037511278
95	0xbd962f34	-0.07333222
96	0x3e0ff26e	0.14057323
97	0xbdf60282	-0.12012197
98	0x3dd7d2cb	0.105382524
99	0x3dff35c2	0.12461425
100	0x3d80364a	0.06260355
101	0x3d2e94c4	0.042622343
102	0xbde4d724	-0.11173847
103	0x3e281ec3	0.16417985
104	0xbcaf2718	-0.021380946
105	0xbd92230a	-0.071355894
106	0x3dfcb6b4	0.12339535
107	0xbbfc6151	-0.0077020307
108	0xbc10e420	-0.008843452
109	0x3e2b7358	0.16743219
110	0xbd2d60fe	-0.042328827
111	0xbdb51e10	-0.088436246
112	0x3ca68528	0.020327166
113	0xbc891100	-0.016731739
114	0x3cebdeb8	0.028792724
115	0xbd895af7	-0.06706803
116	0x3d42df8d	0.047576476
117	0xbd63b78c	-0.055594966
118	0xbd03c401	-0.032169346
119	0xbd9df4e7	-0.07712727
120	0x3e1be78b	0.15225045
121	0x3d8b6458	0.068062484
122	0xbd86072f	-0.06544339
123	0x3e203ee5	0.15648992
124	0x3dbd5179	0.09244055
125	0x3cbe0448	0.0231954
126	0xbd964e92	-0.07339205
127	0x3c9a6c80	0.018850565
128	0x3df6aa92	0.120442525
129	0x3dfe0368	0.124029934
130	0xbdc7640a	-0.09735878
131	0x3de9aea6	0.11410265
132	0x3c1ebd70	0.00968872
133	0x3dada3ce	0.08478509
134	0xbc867908	-0.016415134
135	0x3dda3e0a	0.10656364
136	0xbdc78f98	-0.09744185
137	0x3e15aafe	0.1461601
138	0xbd103d86	-0.035214923
139	0x3c1987d0	0.009370759
140	0xbdb2e22c	-0.08734545
141	0x3d0d1a0e	0.034448676
142	0x3dfb1470	0.122597575
143	0x3cc01d94	0.023451604
144	0xbc9c03be	-0.019044753
145	0x3c2186e0	0.009858817
146	0x3e2a9a84	0.16660506
147	0x3de8cc05	0.11367039
148	0x3e079279	0.13239469
149	0x3d4ced3c	0.05003093
150	0x3df85f05	0.121274985
151	0xbbbd06c0	-0.005768627
152	0x3d4e652f	0.050389465
153	0x3d9a320d	0.07529078
154	0xbddf43f2	-0.109016314
155	0xbd850113	-0.064943455
156	0x3c7b1670	0.015325174
157	0xbc07a4e0	-0.008279055
158	0x3d11fbec	0.035640642
159	0xbceaf740	-0.028682351
160	0x3d5754ae	0.05257099
161	0x3da68ebe	0.08132695
162	0x3b4ffff3	0.003173825
163	0x3dcd0534	0.10010758
164	0x3dca20b8	0.09869522
165	0xbdc47ac2	-0.09593727
166	0xbdb44678	-0.08802503
167	0xbd794c62	-0.06086386
168	0xbd8c4b0e	-0.06850253
169	0xbbe1845e	-0.0068822345
170	0xbc1a26e0	-0.009408683
171	0x3bbda6f1	0.005787723
172	0xbd8157f8	-0.06315607
173	0x3bf872a7	0.007582027
174	0xbb4b45a8	-0.003101686
175	0x3dfb2552	0.12262978
176	0xbd3dc310	-0.046328604
177	0xbdb74bd6	-0.089500114
178	0x3d54d650	0.051962197
179	0x3ce3312d	0.02773341
180	0x3e01a895	0.12661965
181	0x3d9ff508	0.07810408
182	0x3e1068db	0.14102499
183	0xbd68d187	-0.056840446
184	0x3e0042e7	0.12525521
185	0x3e13a506	0.1441842
186	0xbd156c73	-0.03648038
187	0x3e247449	0.16059984
188	0x3e168030	0.14697337
189	0x3ab36c80	0.0013688952
190	0x3d76dcb0	0.060269058
191	0xbd330198	-0.04370269
192	0xbddf4770	-0.109022975
193	0x3d2d7804	0.042350784
194	0x3d18a3e0	0.03726566
195	0xbda74fa4	-0.08169487
196	0x3d7851e0	0.060624957
197	0xbdb8c90b	-0.09022721
198	0xbe081dd5	-0.1329263
199	0x3df7e86e	0.12104879
200	0x3d0b6574	0.0340323
201	0xbd2ffd8b	-0.042966407
202	0x3d7ae5f7	0.061254468
203	0x3cae8178	0.02130197
204	0x3d0b38f0	0.033989847
205	0x3d97cdde	0.07412313
206	0xbd318829	-0.043342743
207	0xbd109285	-0.035295982
208	0xbd42bc91	-0.047543112
209	0x3d0ba01c	0.03408824
210	0x3cd82083	0.02638269
211	0x3dec96dc	0.11552212
212	0xbabbdec6	-0.001433336
213	0xbb9529a0	-0.004552081
214	0x3d4e3ab9	0.05034897
215	0xbd07fb48	-0.033198625
216	0x3ddd3578	0.10801214
217	0x3d43df06	0.047820114
218	0xbdec9a56	-0.11552875
219	0x3be4546a	0.0069680708
220	0xbd68389c	-0.056694612
221	0x3d401009	0.046890292
222	0xbc4550a7	-0.012043155
223	0xbdfdef66	-0.12399177
224	0x3c1bda97	0.009512565
225	0xbc4427f0	-0.0119724125
226	0xbc69b76a	-0.014264921
227	0x3deb3532	0.114847556
228	0xbcdf6f98	-0.027274892
229	0x3da47574	0.08030215
230	0x3d20e161	0.039277438
231	0xbd9dd11b	-0.07705899
232	0x3cf0a030	0.029373258
233	0x3e17738e	0.14790174
234	0xbda77324	-0.08176258
235	0xbd5d5286	-0.05403378
236	0x3dfa95da	0.12235613
237	0x3e047534	0.12935334
238	0xbd27fe02	-0.041013725
239	0x3d9a0bf6	0.075218126
240	0xbc8300a0	-0.015991509
241	0xbdfc65de	-0.12324117
242	0x3c19df90	0.00939168
243	0x3d819a46	0.063282534
244	0xbc5bcf40	-0.0134161115
245	0x3d321dc8	0.043485433
246	0xbdb8e6e7	-0.09028416
247	0x3ddea956	0.10872142
248	0x3e69e60e	0.22841665
249	0x3dc69e47	0.09698158
250	0x3d5c4165	0.053773303
251	0x3db00693	0.08595004
252	0xbd84151e	-0.0644934
253	0xbcffded0	-0.031234175
254	0xbc438480	-0.011933446
255	0xbd8e75e0	-0.069560766

mlr.2.bias f4 [208]
0	0x3d76691d	0.060158838
1	0x3bb311b9	0.005464759
2	0xbd9efe79	-0.077633806
3	0x3d460947	0.04834869
4	0x3dac0cba	0.08400865
5	0x3dbe2a49	0.09285409
6	0x3dda92f7	0.106725626
7	0xbd408d1c	-0.047009572
8	0x3da0480f	0.07826244
9	0x3dcbdee5	0.09954623
10	0x3d9c6631	0.07636679
11	0xbd2d9381	-0.042377
12	0x3dd7fc36	0.10546152
13	0xbd999729	-0.07499535
14	0xbd8588d2	-0.06520237
15	0x3da64310	0.0811826
16	0x3dacb984	0.08433822
17	0x3d2cf0d9	0.042221878
18	0xbc83741b	-0.016046574
19	0xbd88a7df	-0.06672644
20	0x3d8edc89	0.069756575
21	0xbcff1d41	-0.031141879
22	0x3d821cb4	0.06353131
23	0x3ce1c977	0.027561886
24	0x3d594f82	0.05305434
25	0x3d505f77	0.050872292
26	0xbc6b8b8f	-0.014376535
27	0xbbc24965	-0.0059291595
28	0xbc0f9175	-0.008762707
29	0xbc6f8e90	-0.014621392
30	0xbd66b5f3	-0.056325864
31	0x3d3bef86	0.045882724
32	0x3d6a9f51	0.057280842
33	0xbdbda057	-0.09259098
34	0xbcc395d1	-0.023875149
35	0xbd959699	-0.07304115
36	0x3c85ba2e	0.016324129
37	0xbcbf168d	-0.023326183
38	0x3dbc4e0b	0.09194573
39	0xbd98179e	-0.074263796
40	0xbcf35e9f	-0.029708205
41	0x3e071977	0.13193308
42	0x3c4f7c3f	0.0126639
43	0x3db50bc4	0.08840135
44	0xbd18026b	-0.03711168
45	0x3db524ea	0.088449314
46	0xbd8ba95c	-0.06819412
47	0xbd1fbc54	-0.038997963
48	0xbd837798	-0.06419295
49	0x3de1847e	0.11011599
50	0x3d6cfa23	0.057855736
51	0xbc8aff56	-0.016967457
52	0x3d0bf0a4	0.03416504
53	0x3d33b6d8	0.043875545
54	0xbd810e3b	-0.06301542
55	0xbd29f377	-0.04149195
56	0x3cc93776	0.024562579
57	0x3d80bfa5	0.06286553
58	0x3d470a4a	0.048593797
59	0x3daf7671	0.08567513
60	0x3cdc4972	0.02689049
61	0x3dad56bb	0.08463808
62	0x3d1ac6a5	0.0377871
63	0x3de53a52	0.11192764
64	0x3d140dbc	0.03614591
65	0xbd4f9e8c	-0.05068831
66	0x3d863bd8	0.06554383
67	0xbcef1728	-0.029185846
68	0xbd8d5cb3	-0.069024466
69	0xbd9224b2	-0.07135905
70	0x3dc0b2ae	0.094090804
71	0x3d16a04a	0.036773957
72	0x3d8b2d26	0.06795721
73	0xbcef7e68	-0.02923508
74	0xbdb61875	-0.088913836
75	0x3d353df4	0.044248536
76	0xbd6a6e42	-0.057234056
77	0x3d55b7cc	0.052177235
78	0x3c14b7d8	0.009077035
79	0x3d592ec9	0.053023133
80	0x3dbc077c	0.09181115
81	0xbd7a244c	-0.06106977
82	0x3d9492d5	0.072545685
83	0xbcb55687	-0.022135986
84	0x3c540dae	0.012942715
85	0xbd286757	-0.041114178
86	0xbc29937f	-0.010350107
87	0x3d6ee6a3	0.05832542
88	0x3d6a2448	0.057163507
89	0xbd7e67ca	-0.0621107
90	0x3d1c806b	0.038208406
91	0x3d18824a	0.03723363
92	0x3da951be	0.08267544
93	0x3bf54496	0.0074849827
94	0x3e0a6d92	0.1351836
95	0x3df33bcb	0.11876639
96	0xbd73f231	-0.059557144
97	0x3da12474	0.07868281
98	0x3d52f211	0.051500384
99	0xbc699526	-0.014256751
100	0xbd59bc46	-0.053158067
101	0xbd7543c8	-0.059879094
102	0x3d5a3913	0.053277086
103	0xbd01e588	-0.03171304
104	0x3d841664	0.06449583
105	0x3d01d83c	0.031700358
106	0xbc033a01	-0.008009435
107	0x3dd315bd	0.103068806
108	0xbd3d4066	-0.046203993
109	0xbc830bb6	-0.015996795
110	0x3de7b0b1	0.11312998
111	0x3db456d5	0.088056244
112	0x3e1517c3	0.14559846
113	0x3daaaa22	0.083332315
114	0xbd52bcb1	-0.05144948
115	0x3daac4cc	0.08338317
116	0x3d0e522c	0.034746334
117	0x3de7b745	0.11314253
118	0xbcad9b33	-0.021192169
119	0x3daceb67	0.08443337
120	0xbbc0c830	-0.005883239
121	0x3d7082ed	0.05871861
122	0xbd00a70e	-0.031409316
123	0x3d61cc9a	0.055126764
124	0x3d9fa3c8	0.07794911
125	0x3dc0de3f	0.0941739
126	0xbd0b4d11	-0.034009043
127	0xbd66e022	-0.056366093
128	0x3d9413ef	0.072303645
129	0xbd0b955c	-0.034077987
130	0xbd4ece31	-0.05048961
131	0x3d6c1097	0.05763301
132	0x3dee58fc	0.11638066
133	0xbd7e9b08	-0.062159568
134	0xbcac3fd0	-0.021026522
135	0xbd3a9a63	-0.04555739
136	0xbbc451cf	-0.0059911977
137	0x3da17f40	0.07885599
138	0xbd92cd0e	-0.07168017
139	0x3df5aec1	0.11996222
140	0x3da5b022	0.08090235
141	0x3cc8dd6f	0.02451965
142	0x3dc307dd	0.09522984
143	0x3d966a6c	0.07344517
144	0x3d495a77	0.04915854
145	0xbad56bc0	-0.0016282722
146	0xbd2556e4	-0.04036607
147	0xbdb50bc0	-0.08840132
148	0x3d9337a9	0.07188351
149	0xbc01c72e	-0.007921023
150	0xbdabb636	-0.08384363
151	0xbc5fadf6	-0.013652315
152	0xbd51b452	-0.051197357
153	0x3dbf99c9	0.09355504
154	0x3da3a741	0.079908855
155	0xbdcb8982	-0.09938337
156	0x3d697140	0.05699277
157	0xbcb7ea70	-0.022450656
158	0x3ddafb74	0.10692492
159	0x3d13fd2a	0.036130108
160	0xbb1dc940	-0.0024076253
161	0x3d8e321f	0.069431536
162	0xbd88232e	-0.06647335
163	0xbcc2f541	-0.023798587
164	0x3db90233	0.090336226
165	0x3dd689ac	0.104754776
166	0x3c660430	0.014039084
167	0x3da8833a	0.082281545
168	0xbd975173	-0.07388582
169	0xbda2a0d7	-0.07940834
170	0xbac6cc6c	-0.0015167124
171	0xbdc5a7d4	-0.09651151
172	0x3db50e31	0.088405974
173	0xbd52d804	-0.05147554
174	0xbd328a92	-0.043589182
175	0x3d75730c	0.05992417
176	0x3bef0dbd	0.007295339
177	0x3d7619d9	0.060083244
178	0x3d8f6687	0.070019774
179	0xbd4dca36	-0.05024167
180	0x3d6b3cf9	0.057431195
181	0xbb4794cc	-0.003045368
182	0x3da2b903	0.079454444
183	0xbd23e70e	-0.040015273
184	0x3d1068ce	0.0352562
185	0x3d85307d	0.06503389
186	0xbd93b34b	-0.07211932
187	0x3d72f826	0.059318684
188	0xbc1cd8bb	-0.009573157
189	0x3d7e53f3	0.06209178
190	0xbd15ee72	-0.036604352
191	0xbbd02a3a	-0.00635269
192	0xbda1c559	-0.07898969
193	0xbb0c76d6	-0.0021433136
194	0x3da1a441	0.07892657
195	0x3d93fde3	0.072261594
196	0xbd50e984	-0.051003948
197	0xbdab2462	-0.08356549
198	0x3da1428f	0.07874023
199	0xbd6d7000	-0.05796814
200	0xbd8e9ef7	-0.06963914
201	0xbd430cdb	-0.04761968
202	0x3d5df012	0.054184027
203	0x3cf366c8	0.029712096
204	0xbd0b808b	-0.034058135
205	0x3dad227c	0.08453843
206	0x3dfeb3d8	0.12436646
207	0x3d422985	0.047402877
