pqc_reup_v1_output/model_params_epoch_30.pth (torch, 61309 bytes, 6 tensors)

reupload_weights f4 [12, 3, 4]
00000000: f565 2a3e 48a6 e03d ea0f 553e f8d7 44be
00000010: b148 be3e 1949 363e 543c bf3e 72f5 603f
00000020: 18e9 0d3d ad13 933e dd29 093e 0f04 6fbe
00000030: 6f73 1cbe c414 33be 72b8 32bb c2d7 d33d
00000040: 142c 90be 220c 02bf e3b8 b9bd fb87 c63c
00000050: 644a 54bc 05d6 013e 243f eb3d 6b55 613e
00000060: 560a 443d 98d8 b93d f751 d53d 4c24 7c3d
00000070: bad5 2f3f 4006 8e3e 39f2 7f3e 8d8a 413e
00000080: bb7a 35be a0be 15bc 3b25 453e c80c 403e
00000090: 02ff e63c 9086 33be 4e7a 833d 07e4 62be
000000a0: 2e39 c23e cd29 493f 7545 b73e bf03 93be
000000b0: 98c0 1c3f e3f2 703f 7d93 0d3f 4788 ddbd
000000c0: 0bae 59bd 81ac 613b 2414 073e 7880 483e
000000d0: 8faf 9d3e 3968 0a3f ffe2 bfbe f0fe cebe
000000e0: 6a1a d03d 8596 9a3e 537a b1be 69b7 80be
000000f0: c609 9dbd 938e f03d 3372 38be 7124 1cbd
00000100: 3882 b93e f482 9f3b dc91 c63d fe02 c33d
00000110: d86a 833d 5bab 63be 2f58 aebe daab 983d
00000120: d701 76bd ced9 7abd 8ee7 b1bd 74fb c53d
00000130: d61d 9f3d a546 e7bd ac2e 6abe 8f9a c6bc
00000140: 1da5 cf3e 7d19 8c3e b611 563e 59ea 503e
00000150: 293f 003e f52b cb3d 1f5f 803d 94e7 08bd
00000160: 2674 99be d4c4 dcbe 55df 793e dcc1 9f3e
00000170: 4a64 e8be aeeb babe 7f28 0b3f ac2b bc3e
00000180: 781b 87be 1fc9 243e 43ac 1ebc 4d0c 893d
00000190: c750 6cbe df55 133f 01a0 363f 9e3c da3e
000001a0: 194c 12bf 6235 f13d 7511 823e 784c da3b
000001b0: 4123 83bd 2981 ae3d 9a27 443d 56c0 113e
000001c0: a456 163b e3f7 ce3b 1bfb 66bc 487e 7abf
000001d0: c584 b63e 8b6a 6e3e 71ed 213e 6ad0 423e
000001e0: 61c3 9bbd f36d 27be 4b03 713d e69c 5c3d
000001f0: f8d8 46bd cd55 c7bd 2631 043f 713a c73e
00000200: ff83 12bf aa51 40bf 8e43 b2be 183a eebe
00000210: 9e53 82bd 1e91 813e 7ebf a93d 8b2c 993d
00000220: 6b15 54bf 8cf2 abbd 1607 f9be 094f 22be
00000230: 1389 68bf 5e82 223e a285 31be 4220 b93b
0.16640456 0.10969216 0.20806852 -0.1922301 0.37164834 0.17801322 0.37350714 0.8787452
0.034646124 0.2872595 0.13394876 -0.23341392 -0.1527841 -0.1748839 -0.0027270583 0.10343887
-0.2815863 -0.50799763 -0.090684675 0.024234762 -0.012957189 0.12679298 0.114866525 0.2200524
0.04786142 0.09074515 0.10416024 0.061558053 0.68685496 0.27739143 0.24994744 0.18900509
-0.17722599 -0.009139687 0.19252484 0.18754876 0.02819777 -0.175318 0.06419812 -0.22157298
0.3793425 0.7857941 0.3579518 -0.28713796 0.61231375 0.94120616 0.55303174 -0.108170085
-0.053144496 0.0034435096 0.13191277 0.19580257 0.30798003 0.5406528 -0.37477872 -0.40428877
0.10161288 0.30192962 -0.34663638 -0.2513993 -0.0766788 0.11745944 -0.18012314 -0.03812069
0.36232162 0.0048679058 0.09695789 0.09522055 0.06416863 -0.22233336 -0.34051654 0.07454653
-0.06006035 -0.06124287 -0.08686744 0.096671015 0.07769363 -0.11292771 -0.22869366 -0.024243621
0.4055566 0.27363196 0.20905194 0.20401897 0.12524094 0.099204935 0.06268143 -0.033423975
-0.29971427 -0.43118918 0.244016 0.3120259 -0.45389014 -0.36507934 0.5435867 0.3675207
-0.26388144 0.16092347 -0.009684625 0.06691799 -0.23077689 0.57552904 0.71337897 0.42624372
-0.57147366 0.1177776 0.25403944 0.006661948 -0.064032085 0.08520729 0.04788933 0.14233527
0.0022939825 0.0063161715 -0.014097954 -0.9784894 0.3564817 0.2328283 0.15813233 0.19024816
-0.07605625 -0.16350536 0.05884103 0.053860568 -0.04854676 -0.09733162 0.51637495 0.38911775
-0.5723266 -0.7512461 -0.34817165 -0.46528697 -0.06363605 0.25306028 0.08288477 0.07479199
-0.8284518 -0.083958715 -0.4863822 -0.15850462 -0.9083416 0.15870044 -0.17336133 0.0056495974

reupload_bias f4 [12, 3]
00000000: 36b1 e3be 6479 3b3f 6395 523d c50d d63e
00000010: 74e3 bfbe 98b1 033e 5fc7 b6be 9b47 6a3f
00000020: 5427 4c3d c993 b43e fb87 6b3e cd99 583f
00000030: a81f d1be 8378 1fbd 7fd3 40be f9dd 723e
00000040: c74c 84be 0441 9bbe 3e68 25be f489 7abe
00000050: 8081 8fbd 0c89 12bf 2858 bfbe 28f5 7dbd
00000060: 272d f13e 45ee 1b3f 1721 09bf 2b73 cabe
00000070: 565b 35bf 6d8d 903e 2457 693e 0606 ac3d
00000080: dc92 89bf e6e0 debe 0322 0ebf caed 24be
-0.4447114 0.732321 0.051411998 0.4180738 -0.3747822 0.12860715 -0.35698983 0.9151551
0.049842194 0.35269 0.23001091 0.8460968 -0.40844464 -0.03893329 -0.1883068 0.23717488
-0.25839826 -0.3032304 -0.16153046 -0.24466687 -0.07007122 -0.57240367 -0.37371945 -0.062001377
0.4710476 0.60910445 -0.53566116 -0.3954099 -0.7084249 0.282329 0.22787148 0.083995864
-1.0747943 -0.4353096 -0.5552065 -0.16106334

mlr.0.weight f4 [64, 12]
00000000: 6f08 8a3b 1b33 8dbc fc21 8e3d 0dad a53d
00000010: eb3d 86be 762d dabd b0ef 783e b84e e63d
00000020: d13d 6bbc 9038 32be 04da 34be 5565 84be
00000030: cecb 2abe 1507 5c3d d596 013e 4563 ed3d
00000040: d006 98be 97e3 5dbe 0cd1 d0bd b9d6 983e
00000050: e905 283a f834 d8bd f563 983d 3f88 debd
00000060: e173 49be cc9b 4e3e d783 10be 0f63 88bd
00000070: f324 98be 45b0 3c3e 5cd1 553e 6a71 c53d
00000080: b7f0 57be 506b 96be 65d9 7abe 5e4d 533e
00000090: beeb 0d3e 64c0 783e 91db 1a3e 39a1 953d
000000a0: 9743 39bb e1ce 60be c443 7dbe ff3e 8abe
000000b0: 7c04 f23d bc21 11be b7f6 6dbd 0c1f 2abe
000000c0: ac76 57bd 520e 50be e026 41be 121c c43d
000000d0: 59b4 afbd 1c7d 363e 0eaa bdbd 4dd8 58be
000000e0: ad9f 50bd ff4a 0fbe ecdf b4bd e0b4 8cbe
000000f0: 7b12 1a3e 5148 69be dcd0 233e 1b59 aa3d
00000100: 3d7b 4f3e 2a2f 6fbe 891a 703e 8da7 57be
00000110: b325 9f3d 58c5 863e fcea d9bc cfb0 9abd
00000120: 4818 0dbc a609 93be db29 6e3e ee18 c9be
00000130: b576 743e 260f 453e 1d41 c43e 0796 51be
00000140: d5af 67be 3497 3d3d e583 933e 97e0 cfbe
00000150: bb31 86bd 7733 31be 2ad6 cebc fd7f 11be
00000160: 87aa f1bd 0daf bbbd de74 8cbe 758b 723e
00000170: 42d0 773e eb7b 39bd daa7 06bd 8148 f1bd
00000180: 6479 85be 16d5 8fbe 19ba db3d c54c 22be
00000190: 5d09 3ebe e782 b8bc e0e0 c4bd 8444 bfbd
000001a0: 2bf8 173c f8cd 7abd 4f8f cbbd 6089 0dbe
000001b0: 4c02 89be 3320 843e 902d 0dbe e66f d83d
000001c0: c7f4 f5bd 01bc 2a3d 4745 803e aa59 2e3e
000001d0: 391f 8abe 1b39 153e 6385 773e b2df c53d
000001e0: 33c3 203e 6047 983e 4da5 bfbd b98c d53d
000001f0: e0e1 74be e285 49bd 30df 253e 1596 463e
00000200: 60d2 53be 3701 7fbe 0f0a 8abe 9253 6abe
00000210: 5c19 64be 3134 92bd f67e 473e 3dea 453d
00000220: 67d6 60be db23 6dbe 2b0e 133e c8e1 5bbe
00000230: 6a96 11bd 7ecd 0d3e 0dcf 08be 24ee 00bd
00000240: 59d8 cdbc a2de 8bbd 62e1 15be 8ec1 83be
00000250: f9f3 6ebe c548 1ebe 9fc0 8e3e e0c7 0ebe
00000260: 8381 46be 194e 8f3d 52f1 a23d c5f6 213e
00000270: e7fe 783e c79d 4a3e b883 96be 8244 ae3d
00000280: 469e 353e 53ae 903a 813f 3dbe 1380 be3e
00000290: 78a3 a8bd 5631 06be bc4d 86be 85df de3d
000002a0: 48b7 f33c 310d c63d 4a1f df3a 75d8 13be
000002b0: bdb3 9abe 46c7 e83c 5eaf 563e 3abd 503e
000002c0: fce1 50be 1c8e ecbc 0a37 a9be e9f6 08be
000002d0: 4dd9 89bc b649 c83d 1b04 273e fb69 9ebe
000002e0: 9bcd f83d 99a7 83be bd62 053d 6573 513e
000002f0: 17e8 8abd 2cdc 523e 0943 a4be 5372 19be
00000300: dc89 633e b131 e2bd 0bb3 ba3c 6fb3 65be
00000310: 4f67 813e a56e e53d 030c 3e3e 5bf3 98be
00000320: 096e 65be dffb 9cb9 b70c 493e e66d 81be
00000330: 126b a5bd 15a4 473e a261 bc3c e264 553c
00000340: 0c7f 91bd 01d9 85be bcf8 8abe 874d 0dbe
00000350: f242 16be 4c31 b83d 4b1b acbd 0a4b e7bd
00000360: f716 a53e 43e1 c73d 7c6b 633e b9db 23be
00000370: 643e eabd 5a4a db3d 6aab 34be 464f 41be
00000380: 3193 aeb9 2c92 c2bd e047 31be 84e6 373e
00000390: d4fc 743e 6fc9 bb3c a0b3 b1bd da32 9abe
000003a0: 5bed 10be 9de6 423d 801f c63d b207 1dbd
000003b0: 7dcc 02be a9a8 1b3e 5585 7bbe 7e5b 3c3e
000003c0: 103e 07bd 7d5a da3d 9dba a13c ca9a 1b3e
000003d0: 66c3 c6bb 6e1e a23e 579f 8a3d f906 b53e
000003e0: af53 b93e 677e 1bbd a342 0ebe 34cd b73e
000003f0: 8ea3 673e 06b5 61be 13cf b6bc 49c0 91be
0.004212431 -0.017236283 0.06940076 0.080896474 -0.26219115 -0.10653202 0.24310184 0.11245483
-0.014358 -0.1740439 -0.17661291 -0.2585856 -0.16679308 0.05371769 0.12655194 0.115912
-0.29692698 -0.2166885 -0.101961225 0.2985132 0.0006409572 -0.10556978 0.0744094 -0.10865831
-0.1967311 0.2017662 -0.14112793 -0.06659519 -0.2971569 0.18426616 0.20880646 0.09640773
-0.21087919 -0.29378748 -0.24496992 0.20634982 0.1385946 0.24292141 0.1512282 0.073061414
-0.0028269046 -0.21953918 -0.24732882 -0.27001187 0.118172616 -0.14173025 -0.058096614 -0.16613406
-0.05260341 -0.20317963 -0.18862486 0.095756665 -0.085793205 0.17821163 -0.09260951 -0.21176262
-0.05093353 -0.13993452 -0.08831772 -0.27481747 0.15046112 -0.22781493 0.15997642 0.08317777
0.20261855 -0.23357835 0.23447622 -0.2106001 0.077708624 0.26322436 -0.026601307 -0.07553255
-0.008611746 -0.287183 0.23258154 -0.39276832 0.23873408 0.1924406 0.38330927 -0.20467387
-0.22625668 0.046286777 0.28811565 -0.40601036 -0.06552454 -0.17304789 -0.025248606 -0.1420898
-0.11800104 -0.09164248 -0.27432913 0.23686011 0.24200538 -0.045284193 -0.03287492 -0.11781407
-0.26069176 -0.2809226 0.10728855 -0.15849598 -0.1855826 -0.022523357 -0.09613204 -0.0933924
0.009275476 -0.061231583 -0.09939443 -0.13821936 -0.26759565 0.25805816 -0.13786912 0.10568218
-0.12009578 0.0416832 0.25052854 0.17026392 -0.26976946 0.14572565 0.24171977 0.09661807
0.15699463 0.29741955 -0.093577005 0.10427231 -0.2391429 -0.049199946 0.1619842 0.19393189
-0.2068572 -0.24902807 -0.269608 -0.22883442 -0.22275299 -0.07138861 0.19482026 0.04831909
-0.21956788 -0.23158209 0.14360873 -0.21472847 -0.035543837 0.1384792 -0.13360234 -0.03147711
-0.025127577 -0.06829573 -0.14636758 -0.25733608 -0.23335256 -0.15457447 0.27881333 -0.13943434
-0.19385342 0.06997318 0.079561844 0.15816791 0.24315988 0.1978675 -0.29397368 0.085091606
0.17736158 0.0011038281 -0.18481256 0.37207088 -0.08234304 -0.13104758 -0.26231182 0.10882477
0.029750481 0.09670485 0.0017022875 -0.1443804 -0.30215254 0.028415333 0.20965335 0.20384684
-0.20398706 -0.028876357 -0.33049804 -0.13375439 -0.01682725 0.09779684 0.1631016 -0.30940232
0.12148591 -0.25713804 0.032564867 0.20454176 -0.06782549 0.20591801 -0.32082394 -0.14985017
0.22220558 -0.11044634 0.022790452 -0.2243173 0.2527413 0.112027444 0.1855927 -0.29873165
-0.22405256 -0.00029942297 0.19633757 -0.25279158 -0.08077063 0.19496186 0.022995774 0.013024541
-0.071043104 -0.26142123 -0.27142894 -0.13799106 -0.14673975 0.08993778 -0.08403643 -0.112936094
0.32244083 0.09759762 0.22208971 -0.16001786 -0.11437681 0.10707541 -0.17643514 -0.18877897
-0.00033297532 -0.09500536 -0.17312574 0.17959028 0.23924571 0.0229232 -0.08676839 -0.30116922
-0.14153044 0.04758321 0.09673977 -0.038337417 -0.12773319 0.15201057 -0.24562581 0.18394276
-0.03301817 0.106617905 0.019742304 0.15195766 -0.006065774 0.3166384 0.06768673 0.35356882
0.36196658 -0.037962344 -0.13892607 0.35898745 0.22620985 -0.22041711 -0.022315538 -0.28467014

mlr.0.bias f4 [64]
00000000: 2d91 a2bd c4ed 2a3e 810b a53d c22d 4ebd
00000010: 5cbe 473d d8ff debd 69d8 bc3d 28dc e93d
00000020: 29c4 9e3d bb90 f9bd d491 3d3e 79b4 2abd
00000030: a72a e6bd cb0a 393e 6bd4 a23e c7ee 253e
00000040: ced7 963d ea89 c9bd 8490 e83d a0e7 2f3e
00000050: 71af 70be 4e7c 12bd d180 46be b15a 5c3d
00000060: beda 2d3d 55f5 9dbd abd5 c5bc 4afe b33c
00000070: b8b0 8ebd fdee 80be a618 113e 0dc8 14be
00000080: 6020 a2bd c710 df3c aba8 0bbd f308 8bbe
00000090: 709f 073e b845 06be 3bbd 22be 698f 4a3c
000000a0: a043 1abe 2a45 40be 0135 c7bd 9c03 0ebe
000000b0: f9e8 f6bd fb40 c6bd ab1b 86bc 2035 6fbe
000000c0: 41ec 32be 6a06 8a3b 9e6f 243d 8633 3f3d
000000d0: 38df 3cbe 1cb6 bc3d 7633 b23d 3c70 083d
000000e0: 6218 85be f87b 30be 12a4 73be c925 2abe
000000f0: 623f f83d 8d8e 30bd 9917 fb3d 6285 2dbe
-0.07937846 0.16692263 0.08058835 -0.050336607 0.048765525 -0.10888642 0.092209645 0.114189446
0.07752258 -0.12185808 0.1851266 -0.04167602 -0.11238604 0.18070523 0.31802687 0.16204368
0.0736538 -0.09840758 0.11355689 0.17178202 -0.23504426 -0.035763077 -0.19385077 0.053797428
0.042444937 -0.07712809 -0.024149736 0.02197184 -0.069673 -0.25182334 0.14169559 -0.14529438
-0.07916331 0.02722968 -0.0340964 -0.27155265 0.13244414 -0.13112533 -0.15892498 0.012363293
-0.1506486 -0.18776384 -0.097269066 -0.13868564 -0.12056155 -0.09680363 -0.016370615 -0.2336011
-0.17472936 0.0042121904 0.04014551 0.046679996 -0.18444526 0.09214422 0.08701222 0.03331016
-0.25995165 -0.1723479 -0.23793057 -0.16615976 0.12121464 -0.043104697 0.1226036 -0.16945413

mlr.2.weight f4 [208, 64]
00000000: 609b 9b3c 2fd0 cbbc a263 473d 24f0 5fbd
00000010: 8063 00bd 9b42 96bd 7328 89be 2211 f33d
00000020: 7c83 783d 555a 0b3d 516c a23d 608f 60bc
00000030: 5819 cebd aefc 3e3e 7bd9 163d 7fc2 b63d
00000040: 3e00 52be 1893 6fbd 5dc9 333d a032 a03d
00000050: 04d9 123e 80c1 76bd 8ecc 0b3e c0bc 96bc
00000060: 7cd2 89bc a442 813c 0003 fc3d 9279 5d3d
00000070: 6e0b 8ebc 923b b13c 3f3c 8c3d 4a9c d7bd
00000080: 5edc 1abd 88d5 953d 0d15 283e 084d f43d
00000090: 36d1 b8bd 0476 8a3d f432 8dbd 02bf 0e3e
000000a0: c8b7 b83d bdc1 633e 4855 b83d 0b2d 093e
000000b0: 4072 1f3b d6e2 113e 9fdc 383d 50f1 5e3d
000000c0: cc8e 24bd 008e 09bb 26d1 debd 857f 373c
000000d0: b21a 40bd 50b5 2cbd c8d7 85bd 194f 3cbd
000000e0: 240e 253e bd5a 163e 49f6 1f3e ee13 0d3e
000000f0: 1a08 7fbb be2f fdbd 6c35 423d bc70 8f3d
00000100: 72c7 dbbd fe9c ce3d 8100 ce3d 201f f83b
00000110: be3a 9abd fc5e 033e ac03 b5be 0486 a93d
00000120: 0c21 adbd 6a7a 603e 3b33 14bd 804f fd3d
00000130: 2cef 58bd 2aa8 4d3e 70fd 0a3d 2bdb ca3d
00000140: cfa4 a1be e84b 523d d998 76bc b527 93bd
00000150: b58f f73d fc95 c83d adf0 ae3b 58ee 203d
00000160: 003f 083d 86d0 493e a836 993d 4b7e d43d
00000170: 9bbf 7abd cf00 f8bb e6df 153d 342f 96bd
00000180: cbe8 483e 8202 f6bd 3617 0d3e c235 ff3d
00000190: 4a36 803d c494 2e3d 24d7 e4bd 1daf 523e
000001a0: 1827 afbc 555b a73d b4b6 fc3d 2bf6 9f3c
000001b0: 20e4 10bc b289 683e ef2f 143d 101e b5bd
000001c0: 2885 a63c 0011 89bc b8de eb3c 936c 27bd
000001d0: 9173 203d 8cb7 63bd 8416 38bd 5b41 48bd
000001e0: fab5 553e f233 e43d 22c6 27bd 14e4 553e
000001f0: f707 073e 4804 be3c 924e 96bd 806c 9a3c
00000200: 92aa f63d 7003 1b3e dcfa d9bd a6ae e93d
00000210: 70bd 1e3c 8db7 c83d f1d6 62be 0a3e da3d
00000220: 988f c7bd af76 5e3e ace4 703c d087 193c
00000230: 2ce2 b2bd 6bab d33d 1466 2d3e 7deb 873d
00000240: 39c5 6dbe e086 213c f183 343e 4834 fb3d
00000250: 3bc2 5d3e 3ced 4c3d 2601 fd3d c006 bdbb
00000260: 6f26 c83d 16b0 003e f243 dfbd e684 b7bc
00000270: 3a5a 8e3c 57f9 2c3d 92bd 2d3e 40f7 eabc
00000280: 8ccd b83d be8e a63d 2488 243d 3405 cd3d
00000290: b820 ca3d c27a c4bd 7846 b4bd b595 56bc
000002a0: 0e4b 8cbd 0552 eb3d e026 1abc fbfd 1f3d
000002b0: f857 81bd dbcf 923d 0ce7 893d 5225 fb3d
000002c0: 10c3 3dbd d64b b7bd 50d6 543d 77c9 5a3d
000002d0: 6342 013e 08f5 9f3d b906 0b3e 1e74 91bc
000002e0: aae5 383e f62b 433e 64c5 63bc faf3 4d3e
000002f0: f26d 3f3e 806c b33a b0dc 763d 9801 33bd
00000300: 7047 dfbd 54df 3e3d f208 4a3d a44f a7bd
00000310: e051 783d d5c1 aebd b71c d1be 6ee8 f73d
00000320: 7465 0b3d d9de 473d 6a4d a03d 7881 ae3c
00000330: f038 0b3d 877a 0e3e 2522 47bd c6aa ddbc
00000340: 2e19 a8be 1ca0 0b3d 2272 043d 0449 df3d
00000350: 1cd5 d03d a029 95bb d331 463d 48fb 07bd
00000360: 3afd 1c3e 72cd b73d 569a ecbd 997f 113d
00000370: 48ed 66bd 8fd3 c53d e99b d93d 66ef fdbd
00000380: c1f1 8d3d f027 44bc b3b8 a73c 3235 eb3d
00000390: 986f dfbc 7475 a43d 61e1 203d 7edb 0abd
000003a0: 30a0 f03c dc4b 993e 2473 a7bd 05ef 9abc
000003b0: da95 fa3d 6a9e 4e3e 372e 6d3d f60b 9a3d
000003c0: a000 83bc de65 fcbd 90df 193c 2a74 b83d
000003d0: f7e7 d3bb c81d 323d 78ee d2bd 7b49 123e
000003e0: f55a 973e 2298 203e 6e3a ac3d 7a8b fd3d
000003f0: 1de8 9dbc d0de ffbc 8084 43bc e075 8ebd
0.018994987 -0.024879543 0.048679 -0.054672375 -0.03134489 -0.07336923 -0.26788673 0.11868502
0.06067227 0.034021694 0.07930816 -0.013706058 -0.10063428 0.18651077 0.0368285 0.08923816
-0.20507905 -0.05848989 0.043893207 0.07822156 0.14340597 -0.06024313 0.1365225 -0.01840055
-0.016824 0.015778847 0.1230526 0.054071017 -0.017339434 0.02163485 0.068474285 -0.10527857
-0.037807815 0.073161185 0.1641428 0.11928755 -0.09024279 0.06760791 -0.06894484 0.13940051
0.090194285 0.22241874 0.09000641 0.13396089 0.0024329573 0.14246687 0.045132276 0.054429352
-0.040175244 -0.002098918 -0.10879736 0.011199837 -0.04690046 -0.0421651 -0.06535298 -0.04597387
0.16118675 0.14683051 0.15621294 0.13777134 -0.003891474 -0.12362622 0.04741423 0.07003924
-0.107314005 0.10088538 0.1005869 0.0075720698 -0.075307354 0.12829202 -0.35354364 0.082775146
-0.08453569 0.21921697 -0.03618167 0.12368679 -0.052962467 0.20083681 0.033933103 0.09905084
-0.3157105 0.05134192 -0.01505109 -0.07185308 0.12087957 0.09794232 0.0053387494 0.039289802
0.033263206 0.19708452 0.07481128 0.10375651 -0.061217885 -0.0075684558 0.03659048 -0.07333222
0.19620053 -0.12012197 0.13778386 0.12461425 0.06260355 0.042622343 -0.11173847 0.20574613
-0.021380946 0.08171717 0.12339535 0.019526562 -0.008843452 0.22708777 0.036178526 -0.088436246
0.020327166 -0.016731739 0.028792724 -0.04087503 0.039172713 -0.055594966 -0.044943348 -0.048890453
0.208702 0.1114272 -0.04096044 0.20887786 0.13186632 0.0231954 -0.07339205 0.018850565
0.120442525 0.1513803 -0.10643551 0.11410265 0.00968872 0.098006345 -0.22152306 0.10656364
-0.09744185 0.21724962 0.014702957 0.009370759 -0.08734545 0.1033543 0.16933471 0.06636713
-0.23219766 0.009858817 0.17628457 0.12265831 0.21656124 0.05003093 0.12353735 -0.005768627
0.097729556 0.12567171 -0.109016314 -0.022402238 0.017377008 0.042229977 0.16966847 -0.028682351
0.0902358 0.08132695 0.040168896 0.10010758 0.09869522 -0.09593727 -0.08802503 -0.013097216
-0.06850253 0.11490253 -0.009408683 0.039060574 -0.06315607 0.071685515 0.06733522 0.12262978
-0.046328604 -0.089500114 0.051962197 0.053414788 0.12622981 0.07810408 0.13576783 -0.017755564
0.1805636 0.19059739 -0.013902042 0.20112601 0.18694285 0.0013688952 0.060269058 -0.04370269
-0.109022975 0.0465997 0.049324937 -0.08169487 0.060624957 -0.08533064 -0.4084222 0.12104879
0.0340323 0.04879651 0.078272656 0.02130197 0.033989847 0.13913928 -0.048616547 -0.02705897
-0.3283171 0.03408824 0.032335408 0.109025985 0.101968974 -0.004552081 0.04838736 -0.033198625
0.15330973 0.089747325 -0.11552875 0.035522077 -0.056378633 0.09659492 0.106254406 -0.12399177
0.069308765 -0.0119724125 0.020473814 0.114847556 -0.027274892 0.08030215 0.039277438 -0.03390073
0.029373258 0.2994069 -0.08176258 -0.018912802 0.12235613 0.20177618 0.057905402 0.075218126
-0.015991509 -0.12324117 0.00939168 0.090065315 -0.0064668613 0.043485433 -0.102993906 0.14285843
0.29561582 0.15683034 0.08409582 0.12380119 -0.01927572 -0.031234175 -0.011933446 -0.069560766

mlr.2.bias f4 [208]
00000000: fce1 c43d 2e55 103d 6089 01bd d8ad a63d
00000010: e309 013e 5f92 013e d022 193e 65d9 533c
00000020: 75ba e63d 971d f23d 2449 dd3d 72f0 ec3b
00000030: a908 033e fb38 29bd 00e9 35b7 245b ab3d
00000040: 11c4 eb3d 62ad 983d 3a49 7f3c 4523 0fbc
00000050: f6df c13d bc23 593b d1aa c03d a561 493d
00000060: 125b b43d 5373 9d3d 39ce 3e3d 180a 343d
00000070: f149 1a3d 80eb 333d 1819 463c c003 b03d
00000080: 87b0 b93d 9cd8 c0bc 9b0e 2c3d 51ea 0dbc
00000090: aa8f 6f3d f074 b43c e293 023e b0c7 0cbd
000000a0: 6395 0e3d 92f7 083e d298 683d 2303 e43d
000000b0: 2819 d93a 2d05 e53d 636f a8bc 43aa ed3b
000000c0: b104 bfbc fec5 073e 62b3 9b3d 0744 843c
000000d0: 6271 af3d d648 c93d 4af3 0e3b 1a24 643c
000000e0: 1cc3 833d ca80 e23d 3a75 a93d 11af 1e3e
000000f0: 806f a83d fc61 e03d db27 a63d 1353 0b3e
00000100: cc1c a23d 3f39 273c de7c ec3d 4045 8e3c
00000110: 9f6d 123c 0144 a7bc d6d1 013e 4020 8e3d
00000120: 27a7 b33d edc5 96b8 b127 26bd d4fb 483d
00000130: cd31 f2bc cb25 533d 5d02 533d 2807 b43d
00000140: d6e4 0e3e f020 4eba 4360 c93d a48e 1d3d
00000150: a6dd 2f3d 2217 c73c cd2e 083d 5bca c13d
00000160: a9aa d53d 9678 93bc 1efe 983d 145b a23d
00000170: 0a0d fb3d 4666 283d 1c2f 183e 38d4 053e
00000180: 92d7 babc 2677 bd3d 48f8 9c3d b9c9 8c3c
00000190: 09d5 bdbc d371 dabc 3425 8b3d 6805 943b
000001a0: 561d c73d 310b 7b3d 2846 103d 7bb9 0f3e
000001b0: d23d 17bb 30b2 1c3d 0cfb 013e 9a66 c53d
000001c0: d8c1 183e 0e3e e83d 773d a2bb 650c e53d
000001d0: f166 603d 7f90 e33d d8d7 ccbb e3fe a73d
000001e0: b27f 5c3c 8227 983d 0651 1dbc 4326 ad3d
000001f0: 16cf bb3d f18c d03d 4ed5 5abc a741 36bd
00000200: 7770 8e3d d251 1fbd 044c 15bc 4717 933d
00000210: 05b1 f33d 25d5 3ebc 9653 a83c 4140 5c3a
00000220: d1ae 0d3d f43f d03d 3771 babc 563d f83d
00000230: 83e0 d83d 92ea 8e3d ab79 d53d ec54 8c3d
00000240: 48ce 393d 3bd9 893c e5b8 edbc 8f25 73bd
00000250: fc1c 613d d6f0 85bc 0c65 63bd 1839 40bb
00000260: b3c9 10bd c330 c53d ac8d 953d 10ba a1bd
00000270: ca2f b03d 453f d339 3c62 0b3e fda7 9c3d
00000280: 1856 0b3d 0ffa e13d 8d68 1ebc 9c47 573c
00000290: d54a df3d 8040 e23d f384 0f3d 8c35 b73d
000002a0: 5425 48bd 73bb 56bd e994 a5bc c676 9cbd
000002b0: 70fc 933d 2aee 1dbd 28bd 68bd 0142 273d
000002c0: 1e64 f63c 2519 963d b4c1 703d ca59 14bd
000002d0: a502 4b3d e675 c9bb 21a7 d73d 5bbb b3bc
000002e0: 3ea2 8c3d 0e8e b13d ad5d cabc ee27 b63d
000002f0: 0f42 a33c 02d4 c13d 3de8 903b ad91 363d
00000300: 45ed 13bd 4988 083d 6014 b43d 7b6a 563d
00000310: 370c 20bd b154 76bd 8f5a 8f3d cc5f 2bbd
00000320: 1b3b 76bd 098d 31bd f6f0 6d3d 2456 4d3d
00000330: 1f1e ebbc 86e9 723d 5044 ea3d b189 5e3d
0.096134156 0.035237484 -0.03162515 0.08138627 0.12601428 0.12653492 0.14954686 0.012930249
0.112660326 0.1182205 0.10804966 0.0072308118 0.12796272 -0.041314106 -1.084269e-05 0.08366993
0.11512006 0.07454945 0.015581423 -0.008736436 0.09466545 0.0033132872 0.09407581 0.049165387
0.08806433 0.07688012 0.046583388 0.04395494 0.037668172 0.043925762 0.012090944 0.08594465
0.09066873 -0.023540787 0.042006116 -0.008661822 0.058486618 0.022028416 0.12751725 -0.034370124
0.034810435 0.1337569 0.056786366 0.11133411 0.0016563283 0.11182628 -0.020560926 0.007252963
-0.023317667 0.13259122 0.07602574 0.01614572 0.08566548 0.098283455 0.0021812492 0.013924623
0.064336985 0.11059721 0.08274312 0.1549647 0.08224392 0.10956189 0.081130706 0.13605909
0.07915649 0.01020652 0.11547254 0.017367005 0.0089372685 -0.020418169 0.12677702 0.06939745
0.08772116 -7.189424e-05 -0.040565196 0.049068287 -0.029564762 0.051549714 0.051515926 0.087904274
0.13954481 -0.00078631844 0.098328136 0.03846611 0.04293599 0.024303023 0.033247758 0.09462424
0.104329415 -0.018001836 0.07470344 0.07927528 0.122583464 0.04111316 0.14861721 0.13069236
-0.02280787 0.092512414 0.076645434 0.017186033 -0.023172872 -0.026665604 0.06794205 0.004517246
0.09722392 0.06128997 0.035223156 0.14035599 -0.002307762 0.03825587 0.12693423 0.0963871
0.14917696 0.11339961 -0.004951175 0.11184005 0.054785673 0.11111545 -0.0062513165 0.08202913
0.013458179 0.074294105 -0.009601837 0.084545635 0.09170358 0.101831324 -0.01335652 -0.044496205
0.06955045 -0.03889639 -0.009112362 0.07182174 0.11898998 -0.011647497 0.02054767 0.00084019086
0.034590546 0.10168448 -0.022759063 0.12121074 0.10589697 0.069783345 0.10423597 0.06852135
0.04536274 0.016827216 -0.029018829 -0.05936199 0.054959282 -0.016350191 -0.055516288 -0.0029330906
-0.035348605 0.09628441 0.073024124 -0.07896817 0.08602865 0.00040292196 0.13611692 0.07649229
0.034017652 0.11034023 -0.009668482 0.013139632 0.10902945 0.11047459 0.0350389 0.0894576
-0.048863724 -0.05242486 -0.020212607 -0.07639842 0.07225883 -0.03855721 -0.05682102 0.04083443
0.030077036 0.07329015 0.05877848 -0.036218442 0.04956307 -0.006148088 0.10529924 -0.021939924
0.06866883 0.08669673 -0.024702871 0.08894335 0.01992896 0.094642654 0.004422216 0.04457252
-0.03611495 0.033333097 0.08792949 0.05234764 -0.03907415 -0.06013936 0.069996946 -0.041839406
-0.06011496 -0.043347392 0.058091126 0.05013098 -0.028700886 0.059304737 0.11438811 0.05433053
