pqc_reup_v1_output/model_params_epoch_50.pth (torch, 61309 bytes, 6 tensors)

reupload_weights f4 [12, 3, 4]
00000000: 6b1c 213e 0196 223e aaf6 4b3e 6410 2abe
00000010: 5f95 a83e 6948 653e 1d7f 8b3e d349 5c3f
00000020: c867 b93c 708e bc3e 16bf 85bc 78a8 a7be
00000030: dbb9 3abe eb8e 51be 7049 ea3b e85e 323d
00000040: a114 7abe 212e 0ebf 253b 27be 4af7 cc3d
00000050: c0a9 a5bc 0d67 853d 825e 043d 192f 873e
00000060: 7fed 763d eca7 c03d 927d 6e3e b001 6c3d
00000070: 02d9 193f 3d30 7b3d f859 453e 60b0 19be
00000080: ab69 43bd d224 2b3d 2dc8 c53e b7d5 4d3e
00000090: cf79 90bb 7121 31be f3fa 753d 3e52 45be
000000a0: 3098 0e3f b46f 6f3f 2ffc c63e a3d7 c3be
000000b0: 128b 623f 5584 973f 7f0c 273f 3931 c7bd
000000c0: b468 83bd 88d6 b8bb 2326 0c3e e902 4e3e
000000d0: 6b0a ce3e 5bb6 153f 9e4d 1abf 8f06 2cbf
000000e0: 17db 483e 877a df3e 34a4 a5be b6c5 93be
000000f0: 431a ecbd 6558 e53d 35f1 44be 0dda 9abc
00000100: 73c7 cd3e 0502 993d f132 553d 2a63 d83d
00000110: 8abe 4a3d fc43 45be 7cf0 e4be ea31 333d
00000120: c481 d9bd 9242 abbd a581 29be 1ece 683b
00000130: 79fb c03d 1029 02be fcb2 20be b073 e53c
00000140: 6dbb e43e e73b 933e 4364 a33e cd11 813e
00000150: cb86 fd3d 0a87 ea3d 4b48 d5bc feea bcbd
00000160: 1a16 b5be e177 07bf 9be5 683e 5dc2 b43e
00000170: ef70 e2be 3b59 d0be 09a4 163f 5e4f f23e
00000180: b441 86be 27ad 463e 4342 863d 2265 193d
00000190: 3a67 66be 5f18 203f 6c5d 453f 5aad c63e
000001a0: d069 13bf 2c4d 753e 9579 d23e 9957 b5bd
000001b0: 583b 81bd afe3 2f3d 236a 1e3d f8c2 ae3d
000001c0: dbbc 8c3e a854 7e3e 823b f73d 97eb 51bf
000001d0: b081 1b3f f308 b13e 5a22 0a3e 0ad2 623e
000001e0: d05a abbd ff7c 5dbe 1161 fb3c 1ec4 f73c
000001f0: b876 e6bc ead6 afbd 0095 273f 21b6 bf3e
00000200: ff71 0cbf 52bb 3dbf 1c57 2cbe e36c 04bf
00000210: e653 15bd eeaa 663e 6efd bd3d 35b3 d93d
00000220: 1791 73bf 277e 2f3d 4b70 93be 82b7 02be
00000230: 609c 88bf f3e1 513e 1e05 64be 37aa 7dbd
0.15733497 0.15877534 0.19918314 -0.16607815 0.3292646 0.22390904 0.27245417 0.86050147
0.022632495 0.3682742 -0.016326468 -0.3274572 -0.1823496 -0.20464675 0.0071498677 0.04354754
-0.24421932 -0.5553914 -0.16331156 0.10008104 -0.020222545 0.06513796 0.032316692 0.2640312
0.060285088 0.094070286 0.23290089 0.057618797 0.6009675 0.0613253 0.19272602 -0.15008688
-0.047708195 0.04178316 0.38629285 0.20101057 -0.004409052 -0.17297913 0.060053777 -0.19269654
0.5570097 0.9352982 0.38864276 -0.38250455 0.88493454 1.183726 0.6525344 -0.09726185
-0.06416455 -0.0056408085 0.13686423 0.20118298 0.40242323 0.5848138 -0.60274684 -0.6719751
0.19614826 0.43648168 -0.3235184 -0.2886178 -0.115284465 0.111985005 -0.19232638 -0.018902803
0.4019123 0.07471088 0.052050535 0.10565789 0.04949812 -0.19264215 -0.44714725 0.043748774
-0.10620454 -0.08362307 -0.16553362 0.0035523246 0.094229646 -0.12710977 -0.15693277 0.028009266
0.44674245 0.2875664 0.3191243 0.25208893 0.12379225 0.11451538 -0.026035449 -0.09224509
-0.35368425 -0.52917296 0.22743838 0.35304537 -0.44226786 -0.40693077 0.5884405 0.47326177
-0.26222003 0.1940199 0.06555607 0.037449963 -0.22500315 0.6253719 0.77095675 0.38804132
-0.5758333 0.2395522 0.41108385 -0.088545986 -0.06310147 0.042941745 0.03867544 0.08533281
0.27487835 0.24836981 0.12071897 -0.82000107 0.6074476 0.3457714 0.13489667 0.22150436
-0.083669305 -0.21629713 0.030685933 0.030244883 -0.028132781 -0.085859135 0.6546173 0.3744364
-0.54861444 -0.74113953 -0.16830105 -0.5172865 -0.036456965 0.22526142 0.092768535 0.10629884
-0.95143265 0.042844918 -0.2879661 -0.12765315 -1.0672722 0.20496349 -0.22267577 -0.061929908

reupload_bias f4 [12, 3]
00000000: 3d6c e2be bf64 263f fbb6 e33c 9ab8 ce3e
00000010: afd0 92be 3f9f 8a3e 20ef f1be ffea 6e3f
00000020: 74e0 013e 2010 b73e 86f7 ef3e ffb4 9a3f
00000030: f166 cabe 8276 83be 6c23 1ebc d5ea a83e
00000040: 0ace 0ebe 1e10 75be 1628 30be 985d 55be
00000050: 1148 50bd aff0 2dbf f64b 06bf 3226 24be
00000060: bb18 f93e b04e 133f 420f 2abf df94 edbe
00000070: 629a 45bf f23d e73e 855d 813e 690f 513b
00000080: 12bc 9cbf ed67 d3be f166 f4be 567f 06be
-0.44223204 0.64997476 0.027797213 0.40375215 -0.28674838 0.2707462 -0.4725275 0.93327326
0.12683278 0.3575449 0.46868533 1.2086486 -0.39531663 -0.25676352 -0.009652 0.32991663
-0.13945785 -0.2393193 -0.17202792 -0.20836484 -0.050849978 -0.6794538 -0.5245966 -0.16030195
0.4865168 0.5754194 -0.6642953 -0.46402642 -0.77188694 0.45164448 0.25266662 0.0031900054
-1.2244895 -0.41290227 -0.47734788 -0.13134512

mlr.0.weight f4 [64, 12]
00000000: 6f08 8a3b 1b33 8dbc fc21 8e3d 0dad a53d
00000010: eb3d 86be 762d dabd b0ef 783e b84e e63d
00000020: d13d 6bbc 9038 32be 04da 34be 5565 84be
00000030: eb1c f9bd 31b0 21bd 8b26 d33d 7743 153d
00000040: 8e6a 9bbe a15d adbe 9780 13be bad9 c83e
00000050: 2c0f 303d 3c75 06be 6e00 0e3e af77 67bd
00000060: 85af 5fbe 2c07 383e 880a 27be fb71 b5bd
00000070: e861 a3be 142e 263e 664c 3f3e 8528 993d
00000080: 263d 6ebe b9b0 a1be ba5c 88be db3f 3d3e
00000090: beeb 0d3e 64c0 783e 91db 1a3e 39a1 953d
000000a0: 9743 39bb e1ce 60be c443 7dbe ff3e 8abe
000000b0: 7c04 f23d bc21 11be b7f6 6dbd 0c1f 2abe
000000c0: ac76 57bd 520e 50be e026 41be 121c c43d
000000d0: 59b4 afbd 1c7d 363e 0eaa bdbd 4dd8 58be
000000e0: ad9f 50bd ff4a 0fbe ecdf b4bd e0b4 8cbe
000000f0: 16d6 fb3d a16a 6bbe be5f 1a3e 4c02 ab3d
00000100: 6fe2 433e ed0b 74be 2bd2 6c3e b168 6fbe
00000110: 1a80 3f3d f6b6 883e 109a 83bd 4721 dcbd
00000120: 113f c1bc 3bbe 8fbe ce9a 5f3e 1062 c5be
00000130: 3e97 6a3e 2eb5 533e 8a7f c33e ba33 60be
00000140: 5468 75be e17c 993d 6ffc 863e ad8c d8be
00000150: 881e 39bd bb8b 48be 096e 9e3b f17c 2dbe
00000160: c91a b3bd 488a e7bd dd2d 7bbe 9508 533e
00000170: 49ae 853e cec2 72bd 9328 013d 9cba 13be
00000180: 6479 85be 16d5 8fbe 19ba db3d c54c 22be
00000190: 5d09 3ebe e782 b8bc e0e0 c4bd 8444 bfbd
000001a0: 2bf8 173c f8cd 7abd 4f8f cbbd 6089 0dbe
000001b0: 6b5b a7be f459 923e 5a9e 0fbe 3744 f93d
000001c0: c1be 12be 8afe b13d f579 8c3e 3d38 103e
000001d0: 9f55 a9be 9241 5f3e 4cde 6b3e 251d 263d
000001e0: c402 713d 2f7f b23e 8069 acbd 9e36 3c3e
000001f0: c191 5dbe 4ed8 d9bc 143d 1e3e 6216 373e
00000200: 712c 7abe 575b adbe 965d c2be 1b9f 64be
00000210: 5c19 64be 3134 92bd f67e 473e 3dea 453d
00000220: 67d6 60be db23 6dbe 2b0e 133e c8e1 5bbe
00000230: 6a96 11bd 7ecd 0d3e 0dcf 08be 24ee 00bd
00000240: 59d8 cdbc a2de 8bbd 62e1 15be 8ec1 83be
00000250: f9f3 6ebe c548 1ebe 9fc0 8e3e e0c7 0ebe
00000260: 8381 46be 194e 8f3d 52f1 a23d c5f6 213e
00000270: 4f1f 833e c6ab 153e e20a 99be 31eb 303d
00000280: fe8d 373e fce4 86bd f248 5dbe 1269 ca3e
00000290: 43e1 94bd 9435 51be b730 84be fe51 073e
000002a0: 9a94 853c cff9 853d ee37 d8bc e1c9 38be
000002b0: 50ae aebe e242 3b3c de6d 563e 556c 6a3e
000002c0: e912 69be bb6b 163d 18c1 96be 815d 1ebe
000002d0: 24a0 26bb 5d91 5e3c ca1e 063e 4af1 c8be
000002e0: e52c bc3d fb9b b9be df5f 81bb 1327 843e
000002f0: a50a 93bd 7e25 5a3e 36fd 8ebe e5cd 19be
00000300: 2e5b 613e e81d 9ebd 26eb 873c e433 47be
00000310: 88ae 7e3e e64a 253e f0c4 403e 05bb acbe
00000320: 4049 6ebe 2cdb 8b3c ee44 1f3e ce00 87be
00000330: 126b a5bd 15a4 473e a261 bc3c e264 553c
00000340: 0c7f 91bd 01d9 85be bcf8 8abe 874d 0dbe
00000350: f242 16be 4c31 b83d 4b1b acbd 0a4b e7bd
00000360: 159b b93e c075 be3d 2455 5b3e ad61 3cbe
00000370: eee7 06be c853 e83d b6d1 4ebe 94ad 6abe
00000380: 9e23 283b f72c 11be 08ec 40be d43e 383e
00000390: 8840 9c3e 0e91 71bc 94a8 03be b200 c2be
000003a0: 108f 54be 6253 2c3c aae2 893d 8f4c b2bc
000003b0: 9a54 07be 4dfb 643e 8b8e 49be c2ac 313e
000003c0: b7b4 09bd 22e5 123e 9c45 863d b379 493e
000003d0: 687e 273d 2c6d ba3e 3e1a ce3d d212 b43e
000003e0: e2cd bf3e f09b 58bd c9ee 0fbe 95bc bf3e
000003f0: 8ea3 673e 06b5 61be 13cf b6bc 49c0 91be
0.004212431 -0.017236283 0.06940076 0.080896474 -0.26219115 -0.10653202 0.24310184 0.11245483
-0.014358 -0.1740439 -0.17661291 -0.2585856 -0.12163719 -0.03947467 0.10310086 0.036441293
-0.30354732 -0.33860496 -0.14404522 0.39228612 0.04298322 -0.13130659 0.13867351 -0.056510624
-0.21844299 0.17971486 -0.16312611 -0.08859631 -0.31910634 0.16228515 0.18681487 0.074784316
-0.23265514 -0.3158014 -0.26633245 0.1848139 0.1385946 0.24292141 0.1512282 0.073061414
-0.0028269046 -0.21953918 -0.24732882 -0.27001187 0.118172616 -0.14173025 -0.058096614 -0.16613406
-0.05260341 -0.20317963 -0.18862486 0.095756665 -0.085793205 0.17821163 -0.09260951 -0.21176262
-0.05093353 -0.13993452 -0.08831772 -0.27481747 0.12296693 -0.22989894 0.15075585 0.083500475
0.19129346 -0.23832674 0.23127048 -0.2337978 0.046753027 0.26702088 -0.064258695 -0.10748535
-0.023589643 -0.28074822 0.21836397 -0.38551378 0.22909257 0.20674583 0.38183242 -0.21894732
-0.2396558 0.07494522 0.26364467 -0.42294827 -0.045195132 -0.19584553 0.0048348946 -0.16942193
-0.08745343 -0.11305672 -0.24529214 0.20608743 0.26109532 -0.05926781 0.031532835 -0.14426655
-0.26069176 -0.2809226 0.10728855 -0.15849598 -0.1855826 -0.022523357 -0.09613204 -0.0933924
0.009275476 -0.061231583 -0.09939443 -0.13821936 -0.32686934 0.28584254 -0.1402525 0.12171214
-0.1433058 0.086911276 0.27436796 0.14083953 -0.33073136 0.21802357 0.23034018 0.04055514
0.058840528 0.34862658 -0.0841856 0.1838021 -0.21637632 -0.0265924 0.15452987 0.17879632
-0.24431016 -0.3385875 -0.37962025 -0.22326319 -0.22275299 -0.07138861 0.19482026 0.04831909
-0.21956788 -0.23158209 0.14360873 -0.21472847 -0.035543837 0.1384792 -0.13360234 -0.03147711
-0.025127577 -0.06829573 -0.14636758 -0.25733608 -0.23335256 -0.15457447 0.27881333 -0.13943434
-0.19385342 0.06997318 0.079561844 0.15816791 0.25609824 0.14616308 -0.29891115 0.043193046
0.1792526 -0.06586644 -0.21609858 0.39533287 -0.07269528 -0.20430595 -0.25818416 0.13214871
0.01630621 0.06541788 -0.026393857 -0.1804576 -0.34117365 0.01142952 0.20940349 0.22892888
-0.2276112 0.036723834 -0.29444194 -0.15465356 -0.002542504 0.013584462 0.13097683 -0.3924659
0.091882505 -0.36251816 -0.0039481963 0.2581106 -0.07179765 0.21303365 -0.2792756 -0.15019949
0.22007439 -0.07720548 0.01659162 -0.19453388 0.24871266 0.16141853 0.18825126 -0.33736435
-0.2327013 0.017072283 0.15553638 -0.263678 -0.08077063 0.19496186 0.022995774 0.013024541
-0.071043104 -0.26142123 -0.27142894 -0.13799106 -0.14673975 0.08993778 -0.08403643 -0.112936094
0.3625113 0.09299803 0.21419197 -0.18396635 -0.13174412 0.11344105 -0.20197186 -0.22917777
0.0025655995 -0.14177309 -0.18840039 0.17992717 0.30517983 -0.014744056 -0.12857276 -0.37891155
-0.20757699 0.010517927 0.06732686 -0.021765022 -0.13215867 0.22361489 -0.19683282 0.17351058
-0.03361961 0.1434522 0.06556246 0.19675331 0.040892035 0.36411417 0.10063599 0.3517061
0.37461764 -0.05288309 -0.14055933 0.37448564 0.22620985 -0.22041711 -0.022315538 -0.28467014

mlr.0.bias f4 [64]
00000000: 2d91 a2bd ce37 483e 1592 6d3d c22d 4ebd
00000010: 5cbe 473d 83fd 9dbd 19b3 bc3d dc35 243e
00000020: 29c4 9e3d bf5c bebd 9c19 323e 79b4 2abd
00000030: a72a e6bd e545 303e 74ce 903e 36dd 273e
00000040: 0ab7 803d ea89 c9bd 2f65 bb3d eb0f 2d3e
00000050: 8b12 53be 4e7c 12bd b50c 07be 0e0e 3b3d
00000060: 7948 d33b 15ea 8fbd abd5 c5bc eaa2 e6bb
00000070: b8b0 8ebd 7f7c 5fbe 7acd bf3d 0dc8 14be
00000080: 2cb9 55bd c710 df3c f432 74bd f308 8bbe
00000090: 6834 3e3e b845 06be 3bbd 22be c0dd 57bb
000000a0: a043 1abe 0877 2fbe 0135 c7bd 3f25 d2bd
000000b0: f9e8 f6bd 1893 c4bd 1626 24bd 2035 6fbe
000000c0: 41ec 32be 6a06 8a3b 41a0 933c 6af4 553d
000000d0: b70f 24be 1cb6 bc3d baf4 7e3d 1169 a43c
000000e0: 6f4b 4cbe 1ddb 38be ba08 3abe 5c48 e7bd
000000f0: 3f47 033e 8d8e 30bd 9917 fb3d 6285 2dbe
-0.07937846 0.19552538 0.058000643 -0.050336607 0.048765525 -0.07714369 0.09213848 0.1603617
0.07752258 -0.09295034 0.17392582 -0.04167602 -0.11238604 0.17214163 0.2828251 0.16392979
0.06284912 -0.09840758 0.091501586 0.16900603 -0.20612542 -0.035763077 -0.13188441 0.0456677
0.0064478484 -0.070270695 -0.024149736 -0.007038464 -0.069673 -0.21824835 0.093653634 -0.14529438
-0.052178547 0.02722968 -0.059618905 -0.27155265 0.18574679 -0.13112533 -0.15892498 -0.003293857
-0.1506486 -0.1713525 -0.097269066 -0.102610104 -0.12056155 -0.095983684 -0.040075384 -0.2336011
-0.17472936 0.0042121904 0.018020751 0.052235045 -0.1602162 0.09214422 0.06224511 0.02006963
-0.1995065 -0.18052335 -0.18167391 -0.11293098 0.12820147 -0.043104697 0.1226036 -0.16945413

mlr.2.weight f4 [208, 64]
00000000: 609b 9b3c ff29 c1bc 2f0d 3e3d 24f0 5fbd
00000010: 8063 00bd 8508 1fbd dafe 54be ab56 b43b
00000020: 7c83 783d c859 863d 18ad c03e 608f 60bc
00000030: 5819 cebd 78e7 1f3e 9152 15bd a028 cc3d
00000040: 5d31 2bbe 1893 6fbd 909d 82bc caae c4bc
00000050: 4301 143e 80c1 76bd 7d37 0e3e 822d db3b
00000060: 0b73 08bc ef2b c13b 0003 fc3d bf7e 803d
00000070: 6e0b 8ebc a262 403d 2198 313e 4a9c d7bd
00000080: 7b58 5cbd 88d5 953d d325 1b3e 084d f43d
00000090: 0c1b 12bd 0476 8a3d f432 8dbd 87ee 093e
000000a0: c8b7 b83d 44be 7d3e 4855 b83d d6e7 203e
000000b0: 4072 1f3b 26fc 503e 8a77 b43d 50f1 5e3d
000000c0: cc8e 24bd 008e 09bb 9292 ddbd d158 e6bd
000000d0: 2c49 1dbd 50b5 2cbd 7197 87bd e070 b33b
000000e0: 6595 313e 7231 523e c582 303e ba56 fd3d
000000f0: 78e3 b9bd be2f fdbd 6c35 423d bc70 8f3d
00000100: 72c7 dbbd 2891 dc3d 4a51 c93d 201f f83b
00000110: be3a 9abd 4e26 243e 2d6c 6abe 39c6 b9ba
00000120: 0c21 adbd 16b4 863e c12a cc3d 804f fd3d
00000130: 2cef 58bd 76f5 473e 35c1 283d cba4 f73d
00000140: 4290 46be e84b 523d 3779 9abc f3e9 4fbd
00000150: 0c47 043e fc95 c83d 02c2 933c f748 bf3c
00000160: d859 913d 54bc 503e a836 993d d23f 0e3e
00000170: 9bbf 7abd da8c 563c fa53 3b3e 342f 96bd
00000180: d963 493e 8202 f6bd 2e6f 5f3e c235 ff3d
00000190: c0e0 943a c494 2e3d 24d7 e4bd 7838 4e3e
000001a0: 1827 afbc 399d 053e b4b6 fc3d 1459 ef3c
000001b0: 20e4 10bc 50be 893e 5448 da3d 101e b5bd
000001c0: 2885 a63c 0011 89bc eff6 f33c c4ac 9dbc
000001d0: 1256 763d 8cb7 63bd 38f6 43bd d658 d7bc
000001e0: 4e5d 743e f182 3e3e 7ec2 98bc 83e0 573e
000001f0: 30bb ff3d 4804 be3c 924e 96bd 806c 9a3c
00000200: 92aa f63d b096 0a3e 0aae debd a6ae e93d
00000210: 70bd 1e3c 6cfd 0a3e 5953 15be 7d6e 4abc
00000220: 988f c7bd 1834 683e 14cc aa3e d087 193c
00000230: 2ce2 b2bd 7907 b73d 4905 bd3d ebd1 a83d
00000240: bfc6 34be e086 213c bb7e 0d3e 2c03 c83c
00000250: bad4 713e 3ced 4c3d 6f33 153e f1da 633b
00000260: e49d 093e 4d3b 023e f243 dfbd 24aa e7bb
00000270: 3a5a 8e3c dade a93d 4971 a33e 40f7 eabc
00000280: a4f8 743d be8e a63d 1970 313d 3405 cd3d
00000290: f2c3 883d c27a c4bd 7846 b4bd 86d1 093a
000002a0: 0e4b 8cbd d56d 253e e026 1abc c576 963d
000002b0: f857 81bd ec2e 163e 0b97 ba3d 5225 fb3d
000002c0: 10c3 3dbd d64b b7bd 0ced 593d 10e2 5ebd
000002d0: 8c58 173e 08f5 9f3d c4e9 083e 0be4 91bb
000002e0: d276 573e 9157 863e 0d48 913c 082e 4f3e
000002f0: ca30 003e 806c b33a b0dc 763d 9801 33bd
00000300: 7047 dfbd 99f2 17bd b3f2 443d a44f a7bd
00000310: e051 783d beb9 6dbd 3fa3 96be 2892 1c3c
00000320: 7465 0b3d 647a e23c 9951 6c3e 7881 ae3c
00000330: f038 0b3d d73e 033e 3a7a aabd 63d1 d2bd
00000340: 4cc5 52be 1ca0 0b3d 3213 443d 464e 473d
00000350: cad3 e23d a029 95bb 7e3e 193d edf2 41bc
00000360: a672 523e dac2 873d 569a ecbd f9ec 8b3d
00000370: 48ed 66bd a421 e13d 6506 d23e 66ef fdbd
00000380: a417 433d f027 44bc 6bec 8d3d 3235 eb3d
00000390: 1b35 083d 7475 a43d 61e1 203d 7898 40bd
000003a0: 30a0 f03c 3a6f ae3e 2473 a7bd d0b2 86bc
000003b0: da95 fa3d cb61 813e 8880 fc3d f60b 9a3d
000003c0: a000 83bc de65 fcbd c254 0f3c 2a09 803d
000003d0: ef5f 123c c81d 323d df3c d9bd dac1 003e
000003e0: 3d31 a23e e902 853e 3a39 be3d d41a b23d
000003f0: 3842 2fbd d0de ffbc 8084 43bc e075 8ebd
0.018994987 -0.023579596 0.04639929 -0.054672375 -0.03134489 -0.038826484 -0.20800343 0.0055034957
0.06067227 0.06560093 0.3763206 -0.013706058 -0.10063428 0.15615642 -0.036455695 0.09968686
-0.1671805 -0.05848989 -0.015944272 -0.024009127 0.14453606 -0.06024313 0.13888355 0.0066887746
-0.00832821 0.00589513 0.1230526 0.06274175 -0.017339434 0.046969064 0.17343189 -0.10527857
-0.05379532 0.073161185 0.15151148 0.11928755 -0.035670325 0.06760791 -0.06894484 0.13469897
0.090194285 0.24779612 0.09000641 0.15713438 0.0024329573 0.20408687 0.08811863 0.054429352
-0.040175244 -0.002098918 -0.10818972 -0.11247409 -0.03839986 -0.0421651 -0.06620682 0.0054761022
0.17342146 0.20526674 0.17237385 0.123700574 -0.09076589 -0.12362622 0.04741423 0.07003924
-0.107314005 0.10769874 0.09829958 0.0075720698 -0.075307354 0.16030237 -0.22892828 -0.0014173455
-0.08453569 0.2630927 0.09969092 0.12368679 -0.052962467 0.1952723 0.04119988 0.12091979
-0.19390967 0.05134192 -0.018856628 -0.05076022 0.12917727 0.09794232 0.018036846 0.023350222
0.070972145 0.20384341 0.07481128 0.13891533 -0.061217885 0.013095105 0.18293753 -0.07333222
0.19666995 -0.12012197 0.21819755 0.12461425 0.0011358485 0.042622343 -0.11173847 0.20138729
-0.021380946 0.13048257 0.12339535 0.02921728 -0.008843452 0.2690301 0.10658327 -0.088436246
0.020327166 -0.016731739 0.029780833 -0.01924742 0.060140677 -0.055594966 -0.047842234 -0.026287477
0.23863718 0.18604638 -0.018647429 0.21081738 0.12486875 0.0231954 -0.07339205 0.018850565
0.120442525 0.13534045 -0.10873039 0.11410265 0.00968872 0.13573235 -0.14582576 -0.012355444
-0.09744185 0.22676122 0.33358824 0.009370759 -0.08734545 0.08936972 0.09229524 0.08243164
-0.1765394 0.009858817 0.13817875 0.024415575 0.23616305 0.05003093 0.14570402 0.003476795
0.13439137 0.12717934 -0.109016314 -0.007069843 0.017377008 0.08294459 0.31922367 -0.028682351
0.059807435 0.08132695 0.043319795 0.10010758 0.066779986 -0.09593727 -0.08802503 0.00052573567
-0.06850253 0.16155179 -0.009408683 0.07346872 -0.06315607 0.14666337 0.091108404 0.12262978
-0.046328604 -0.089500114 0.05320458 -0.05441481 0.14779872 0.07810408 0.13370425 -0.0044522337
0.2104142 0.26238683 0.017734552 0.20232403 0.12518612 0.0013688952 0.060269058 -0.04370269
-0.109022975 -0.037096594 0.04808302 -0.08169487 0.060624957 -0.058038466 -0.29421422 0.009556331
0.0340323 0.027646251 0.23078002 0.02130197 0.033989847 0.1281694 -0.08324094 -0.102938436
-0.20583075 0.03408824 0.04786987 0.04865863 0.11075552 -0.004552081 0.037413113 -0.011837703
0.20551547 0.06628962 -0.11552875 0.06832308 -0.056378633 0.109927446 0.41020504 -0.12399177
0.047629967 -0.0119724125 0.06929859 0.114847556 0.03325377 0.08030215 0.039277438 -0.047020406
0.029373258 0.34069234 -0.08176258 -0.016442686 0.12235613 0.25269923 0.12329203 0.075218126
-0.015991509 -0.12324117 0.008748235 0.06251748 0.008934005 0.043485433 -0.10607313 0.12573949
0.3167819 0.25978783 0.09288259 0.08696523 -0.04278776 -0.031234175 -0.011933446 -0.069560766

mlr.2.bias f4 [208]
00000000: ba56 b93d 0de4 9e3d cefb a4bc ae2f d13d
00000010: f130 033e 1ca1 f23d 27fc 1a3e e24d 033d
00000020: 7eca c63d f3dc fa3d 6cf1 d43d 392a 373d
00000030: a2f8 c63d b998 1fbd e332 14bc c691 5e3d
00000040: f415 c33d ca77 613d 0916 14bd 43fa 8e3c
00000050: ce7d 983d 221b 023d 5cc0 cb3d 1d77 263d
00000060: 7531 bd3d 56ee 8b3d 008a 703d 304a ce3d
00000070: b441 5c3d 3b57 9c3d 0e00 b63c 06c1 873d
00000080: af2b f43d 69a2 0fbc bd96 873d d8ba aa3c
00000090: e296 7e3d 8a1d 6d3d 513d d73d f505 f3bc
000000a0: 17f9 ae3c 1fbd d43d 8aa5 d43c a139 993d
000000b0: 68e9 d9bc 3ac6 f03d fb34 15bc b2f6 1c3d
000000c0: c4da acb9 a8dd 033e 2063 933d 4194 8f3c
000000d0: d7eb ed3d 4dcc 0c3e cfbb f03c e2b7 5d3d
000000e0: e48e 933d 7279 cb3d 5b1d fb3d f19b 1d3e
000000f0: dc31 d73d 81db fe3d 5417 a33d 78fa 1f3e
00000100: 17fe 813d 642c 803c 21ba c13d c43c 1c3b
00000110: 3eca 65bc 5da0 0ebd f200 c53d 0615 ab3d
00000120: 47e4 a53d bddc cf3c 64e0 c9bc 7caa 8c3d
00000130: e253 353c 5435 6a3d 0fa0 f03d 1163 063e
00000140: 8efb 213e 94a0 8c3d 83a0 e93d 3697 8e3d
00000150: 1f53 d43d 589f 603d e390 bf3d 7d30 e73d
00000160: 3d41 fe3d bcd3 2b3d 5282 bc3d 7a9a b53d
00000170: 386f df3d a1b8 ed3c b678 103e f735 fe3d
00000180: ed94 4b3b eb61 f03d 6a85 c43d 23db 5c3d
00000190: 7afe 083c 7e89 683c 7f2d bc3d d679 dc3c
000001a0: 961b 1e3e e55e d63d f8f1 833d a1f5 273e
000001b0: 7acf d43c ee09 613d 482d 523e e884 123e
000001c0: 7efd 4b3e dad6 213e 4a1d 7d3d b76c 1d3e
000001d0: 20a2 d33d df23 163e 3384 c43c 69a3 cf3d
000001e0: 496f 803d 2d70 ab3d 3653 233d a7bd ff3d
000001f0: b21c 033e 746e 0b3e b7ac a03c 7a1a b73c
00000200: 1535 ee3d 7493 dabb a3d6 4d3d aaae e23d
00000210: 407f 1e3e 2b77 3a3d 6281 223d e985 043d
00000220: 0105 5f3d 35bf 0e3e 1603 c43c 0713 093e
00000230: 1798 043e f032 b43d 51d3 f23d d531 b03d
00000240: 49f1 a23d 67e4 683d 2ac1 29bb 30b4 2dbd
00000250: 7b15 843d 94a3 3c3b 9b39 de3b 1d13 6f3d
00000260: a758 fd3c 0f25 1b3e 827f f33d c8ca ebbc
00000270: 4dad f43d fee2 533d b5e5 2c3e a5cf ce3d
00000280: ee6e 653d 3fe1 f43d 538f 673c cda7 353d
00000290: 72df ed3d 508f da3d 7ae5 313d d244 b43d
000002a0: 511f 93bc ed7f b5bc 9e04 1e3b a6e2 4abd
000002b0: f9aa ad3d d7ce b4bc aed3 a4bc 05cc fa3c
000002c0: bd7e b43d 3bb6 ed3d 18e5 b73d f218 d33c
000002d0: 0b96 b03d 1363 1c3d eba3 113e 6a2d 5e3c
000002e0: d518 d83d 1e78 ef3d f184 f03a a922 f33d
000002f0: bafc 493d c82f e43d edb4 013d 2b77 5a3d
00000300: e2a1 2e3a badb 1f3d ea1a 883d 3df4 9c3d
00000310: 5f25 3bbc 8fc9 27bd 7019 593d 2771 1abd
00000320: aa34 28bd bdca 6cbd 5161 cc3d 1aa7 d93d
00000330: ff43 dc3c ac40 cb3d 2641 fe3d 33d7 c83d
0.09049745 0.07758341 -0.020139601 0.10214172 0.12811638 0.118471354 0.15135251 0.032056697
0.09706591 0.12249174 0.1039761 0.044718 0.09715392 -0.038964007 -0.009045335 0.05433824
0.095256716 0.05504588 -0.036153827 0.017453318 0.0744587 0.031764157 0.09948799 0.04064094
0.09237949 0.06832568 0.058725357 0.10072744 0.053773597 0.076338254 0.022216823 0.06628613
0.119223945 -0.008766749 0.06620548 0.020841047 0.06215561 0.0578895 0.10509742 -0.029665926
0.02135901 0.103876345 0.025957841 0.07481695 -0.026600555 0.11756559 -0.00910687 0.038321204
-0.0003296939 0.12877524 0.07196641 0.017526748 0.116172485 0.1374981 0.02938643 0.054130442
0.072049886 0.09935273 0.122614585 0.15391518 0.10507557 0.12444211 0.07963434 0.1562289
0.06347292 0.015646167 0.094593294 0.002383993 -0.014025269 -0.034820903 0.09619321 0.08353619
0.08100181 0.02537381 -0.02464313 0.06868455 0.0110673625 0.057179764 0.11749279 0.13123728
0.15818617 0.06866565 0.11407568 0.06962435 0.103674166 0.054839462 0.09353807 0.11288545
0.12414787 0.041949973 0.09204544 0.08867355 0.10909885 0.029018702 0.14108548 0.12412637
0.0031064108 0.11737426 0.09595759 0.053919923 0.008361453 0.014192937 0.09188365 0.026913565
0.1544021 0.104673184 0.06442636 0.16402294 0.025977839 0.05494111 0.20525086 0.14308512
0.19920918 0.15804616 0.06179551 0.15373503 0.10333657 0.14662121 0.023988819 0.1013859
0.06271226 0.08371005 0.039874278 0.12487345 0.12803915 0.13616353 0.019613607 0.022351492
0.11631218 -0.00667041 0.05025352 0.11068471 0.1547823 0.045523804 0.03967417 0.03235427
0.05444813 0.13940127 0.023927253 0.13386165 0.12948643 0.08798778 0.11856712 0.08603255
0.07956178 0.056858446 -0.0025902488 -0.04240817 0.064494096 0.0028784024 0.0067817695 0.058367837
0.030926062 0.15150855 0.118895546 -0.028783217 0.11947117 0.05173015 0.16884501 0.10098199
0.056013994 0.11957025 0.014133292 0.04434948 0.116148844 0.10671866 0.043431737 0.08802189
-0.017959269 -0.022155726 0.0024111639 -0.049532555 0.08479876 -0.022071285 -0.020120468 0.030614862
0.08813236 0.11607023 0.08979243 0.02576873 0.086223684 0.038180422 0.14222686 0.013560632
0.10551611 0.116928324 0.0018350167 0.11871845 0.049313284 0.11141926 0.031666685 0.053336304
0.00066616957 0.039027907 0.066457585 0.07663772 -0.011422484 -0.040963706 0.053002775 -0.037705567
-0.04106585 -0.057810534 0.09979499 0.10627575 0.026887892 0.099244446 0.1241477 0.09806671
