pqc_reup_v1_output/model_params_epoch_260.pth (torch, 61385 bytes, 6 tensors)

reupload_weights f4 [12, 3, 4]
00000000: 0b02 2b3e 9ee3 793d adbe 153e c18a 92bd
00000010: f1de 623d c820 5abf 5a33 ed3e 6ccc 2d3f
00000020: 7b2f 3b3f 0b76 813d ed07 ab3e 2654 23bf
00000030: bdcf 63be 810d fc3c aaaf 813d 532c cabd
00000040: e8f0 293f 15f5 70bf 92ab 0ebf 5313 0c3e
00000050: bdb8 d1be f8f0 edbc 807a d63e 04f7 a03e
00000060: 14bb b93e d5a7 393d e794 b13c 966e 15bd
00000070: 1dc9 1e3f 645c 96be 9c14 c9bd c8b4 52bf
00000080: d554 a7be 0d37 9f3e dbc8 473f 7359 f4bd
00000090: 6fe0 30be 4227 ecbd cd39 f63c f16e b9bd
000000a0: 90b7 343e aa20 5e3f 265f 863e 3626 2dbf
000000b0: ac34 bd3e 1081 863f bfd6 c1be 46a4 2fbe
000000c0: ad0e d73d 9519 ebbd 55bb 9c3d 8053 6f3d
000000d0: 9a2b 5e3f 3069 563f 6094 8bbf 23c3 a2be
000000e0: 1300 9a3e a7ea 003e 2b89 91bf 98b1 5abe
000000f0: 13f2 5abd b8a0 243c 9bec e5bd 092e 44be
00000100: 2e7d 2f3f 27da db3e fd0a 8fbe ee0a 04bc
00000110: 88b1 1bbe 7e02 d0be 6ce6 99bf 843c 613e
00000120: 1fe2 7c3b 7282 1e3d 818c 84be c231 103d
00000130: a75e 61bd 51a6 8fbd df89 f1be da56 153f
00000140: c5af d03e 4d41 9a3e 0e4c 733e 0a72 193f
00000150: b0da b23d b622 803d 5418 853d 5f95 653c
00000160: 9e23 59be 2a4b 1cbf 80d6 9ebe ac6f 5f3e
00000170: 6042 aebe 34ee 603e e1cf 473f d425 c13d
00000180: 3883 48be 34c1 0e3d 6110 583e 8c17 263d
00000190: c5cc febd 9278 523e 4b8a 303f f198 5f3d
000001a0: c062 2d3e 5bd5 3c3f b506 9fbe 429b 86be
000001b0: cd3f 03be d2de 863e e99d 653e 9dc8 81bb
000001c0: dbb3 92be 0741 243f 3096 bb3e d8e9 37bf
000001d0: 5b80 0d3f 4c53 ad3e 37a6 d5be 0a91 793f
000001e0: cded 233e 457f 17bf d33e 42be 6248 913e
000001f0: 94c2 bf3e 1fc7 2d3f 3fd0 1f3f c261 503e
00000200: 197a 86bf b704 72bf 213f 8bbf c9d5 93bf
00000210: 11be f93b 17b7 fe3d 9a1e d03d 22fa 763e
00000220: cddb 75bf 32b6 1f3f 39b4 73be b987 64bf
00000230: b0ba 9fbf 153e 2e3f 3b85 763e f1d4 87be
0.16699998 0.06100809 0.14623518 -0.071553715 0.055388395 -0.8520627 0.4632824 0.6789005
0.73119324 0.06321343 0.33404484 -0.63800275 -0.22247215 0.030768158 0.063323334 -0.098717354
0.6638322 -0.94123966 -0.55730546 0.13679247 -0.40961257 -0.029045567 0.41890335 0.31438458
0.36275542 0.045326073 0.021677447 -0.036482416 0.62025625 -0.29367363 -0.09818384 -0.823071
-0.3268191 0.31096688 0.78040856 -0.119311236 -0.17273115 -0.11530925 0.030056858 -0.090543635
0.17648149 0.8676859 0.26244467 -0.6763643 0.36954248 1.0508137 -0.3785915 -0.17152509
0.10500846 -0.11479489 0.07652918 0.05842924 0.8678528 0.83754253 -1.0904655 -0.31789503
0.30078182 0.12589513 -1.1369985 -0.21356809 -0.053453516 0.010048084 -0.112267695 -0.19158186
0.68550384 0.42939875 -0.2793807 -0.008059246 -0.15204442 -0.406269 -1.2023444 0.21995741
0.0038586927 0.03869862 -0.25888446 0.035203703 -0.055021908 -0.07014144 -0.471755 0.5833565
0.40759102 0.30127946 0.23759481 0.59939635 0.087331176 0.062566206 0.06498781 0.014012664
-0.21204993 -0.6105219 -0.31023026 0.21819943 -0.34035015 0.21965867 0.78051573 0.09431043
-0.19581306 0.03485222 0.21099998 0.0405498 -0.124414004 0.20553806 0.6896102 0.054589216
0.16932201 0.73763055 -0.31059805 -0.26290327 -0.12817307 0.26341873 0.22423519 -0.0039606825
-0.28652844 0.64161724 0.3663802 -0.7184119 0.5527398 0.33852613 -0.41728374 0.9748694
0.16008683 -0.5917857 -0.18969278 0.28375536 0.3745314 0.6788196 0.62427133 0.20349792
-1.0506011 -0.94538444 -1.087864 -1.1549617 0.0076215346 0.12437265 0.10162087 0.24118856
-0.96038514 0.62387383 -0.23799218 -0.89269596 -1.2478848 0.6806348 0.24074261 -0.2652965

reupload_bias f4 [12, 3]
00000000: 7252 17bf 3a9e 843e 2bb4 05bf 3bfd 0c3f
00000010: 9f81 d1be 5746 d93e a1ed 12bf 1719 603f
00000020: 1e19 693e a128 063f 8f89 753f 9497 f33f
00000030: f74d bfbe f345 eabe 2861 0d3f 5e02 133f
00000040: e353 873e d9b0 2cbf 5856 a7bd 1cbc 403c
00000050: 2f7b 953e ac5f 42bf 6935 42bf 86c1 65be
00000060: 21fc 033f 4dc8 673f ab03 fbbe 01ce 22bf
00000070: e559 26bf e107 2c3f 8004 823e 0a31 033f
00000080: 6639 09c0 507c 11bf 20bd 61bf f3d4 923f
-0.59110177 0.25901967 -0.5222804 0.550739 -0.40919206 0.42436478 -0.5739384 0.87538284
0.22763488 0.52405745 0.9591302 1.9030633 -0.3736417 -0.45756492 0.55226374 0.5742549
0.26431188 -0.6745735 -0.08170766 0.011763599 0.29195544 -0.75927234 -0.7586275 -0.22437105
0.51556593 0.9054001 -0.49026236 -0.63595587 -0.6498092 0.6719952 0.25394058 0.512467
-2.1441283 -0.5683031 -0.88179207 1.1471237

mlr.0.weight f4 [64, 12]
00000000: 6f08 8a3b 1b33 8dbc fc21 8e3d 0dad a53d
00000010: eb3d 86be 762d dabd b0ef 783e b84e e63d
00000020: d13d 6bbc 9038 32be 04da 34be 5565 84be
00000030: df15 98be 9b9e cdbb 7c98 873e 90d3 a2bd
00000040: 45d0 1abf 0a49 1bbf 2544 853c fc96 103f
00000050: ffe9 953d 572e c8be d9c1 e63e 3df3 a13d
00000060: fbae 77be a49c 1c3e 33d9 3dbe feb5 edbd
00000070: 025e b1be 10e1 0c3e d72d 263e 32f0 463d
00000080: 146c 84be df29 aebe 7d2c 92be cc5f 233e
00000090: beeb 0d3e 64c0 783e 91db 1a3e 39a1 953d
000000a0: 9743 39bb e1ce 60be c443 7dbe ff3e 8abe
000000b0: 7c04 f23d bc21 11be b7f6 6dbd 0c1f 2abe
000000c0: e3c6 a53e 812a 20be 2a6e e1be 702b c9bd
000000d0: f607 ed3d 708a 493e 2c1b 51be 25eb 22bf
000000e0: 9509 4cbe 6eb0 c8bd ec54 813e 63fe 82be
000000f0: 16ba f6bd a42f 8bbe 6a2b a73e 0755 973e
00000100: bbd2 f73e 007e 41bf 47f9 c03e ba7d 67be
00000110: 51c0 393e 3f47 65be ac47 8fbe 53e8 71be
00000120: f421 f2bd a5ee d7be b867 a53e 2561 0fbf
00000130: cd3d a13e 1548 a73e bb72 e43e 1a55 bdbe
00000140: e8dc 86be a9a0 9a3d 2527 203e 189d ebbe
00000150: 552a 23be 9949 8dbe 4a94 e83c 13e2 e2be
00000160: 4011 72be 85fd 48bc f108 f8bd c5eb e33e
00000170: 733c 473f 1f77 acbe f1dc 543e 20ea 0dbd
00000180: c493 883e 8cb4 26bf e3f5 ebbe 00b0 e4be
00000190: 20c4 18be 4474 f2be 6d4e c6be 7e77 dabe
000001a0: 0c56 35bd 6c3e f7bd d117 813d b9b5 54be
000001b0: 593b 05bf bb18 e03e 6207 8ebd eeec 593d
000001c0: 6779 87be 74be f2ba 2fcd 983e c879 a83e
000001d0: a51e 2ebf 7060 f33e e49d e73e 91f6 53bc
000001e0: feb0 5bbd bf9a 003f 538f c03b bdd9 eb3e
000001f0: 7645 0cbf e76e a4be e458 7f3e d602 b03e
00000200: 2a00 acbe 5c18 29be b7b3 b5be ee92 90be
00000210: 5c19 64be 3134 92bd f67e 473e 3dea 453d
00000220: 67d6 60be db23 6dbe 2b0e 133e c8e1 5bbe
00000230: 6a96 11bd 7ecd 0d3e 0dcf 08be 24ee 00bd
00000240: 59d8 cdbc a2de 8bbd 62e1 15be 8ec1 83be
00000250: f9f3 6ebe c548 1ebe 9fc0 8e3e e0c7 0ebe
00000260: 8381 46be 194e 8f3d 52f1 a23d c5f6 213e
00000270: 6a72 233f f404 be3d a970 f1be b38d 3e3e
00000280: c626 c43e 93a6 c3be 6a05 aabe db65 8f3e
00000290: 0ac8 b7be e5b3 aabe 4e7f 13be 8849 da3e
000002a0: df15 6d3d 7c70 743e 6de1 d53b fa94 c3be
000002b0: 26c4 29bf 447e 823d 2ec3 803e 68da df3e
000002c0: 6da2 a1be e32a f93d 432c 8d3d 4718 59be
000002d0: dc81 08bd 21e0 a43e ae79 a33e 2d78 fdbe
000002e0: ae22 cdbc 120f 3dbf 7f1e 013c 3c62 d53e
000002f0: 73e7 1a3e 3e70 d43e e18b 8cbe 40a3 13bf
00000300: e686 f83e ae29 07be cc4b 173c 673c 83be
00000310: bf47 e83e 4975 6f3e 4956 bc3d b8bc 17bf
00000320: e6ef bebe 02b4 be3d 0aee 9a3c 1c3d 7fbe
00000330: 126b a5bd 15a4 473e a261 bc3c e264 553c
00000340: 0c7f 91bd 01d9 85be bcf8 8abe 874d 0dbe
00000350: f242 16be 4c31 b83d 4b1b acbd 0a4b e7bd
00000360: 1c92 403f 1290 b63e cb6b 853e 023f 9cbe
00000370: 5cd6 15be a98d 6d3e 8640 cabe 63d6 04bf
00000380: a521 65be 1998 dbbe 611b 40be 3c44 e43e
00000390: 2afd 2c3f c478 54bc 0db0 e9bd d143 08bf
000003a0: 6719 80be 21ab 153c 1187 82bd 713b 90bd
000003b0: 4f0a b9be cd37 013f ef2b 06be 2c33 843e
000003c0: 5192 3fbe 636f 073e 6769 543e 0691 0a3e
000003d0: 26cd 30be d3bd ec3e 8217 833e 9003 bd3e
000003e0: ae4a b33e 0265 70be 0178 f7bd bf5f 073f
000003f0: 8ea3 673e 06b5 61be 13cf b6bc 49c0 91be
0.004212431 -0.017236283 0.06940076 0.080896474 -0.26219115 -0.10653202 0.24310184 0.11245483
-0.014358 -0.1740439 -0.17661291 -0.2585856 -0.29704186 -0.0062750108 0.26483524 -0.079505086
-0.60474044 -0.60658324 0.016267845 0.56480384 0.07320022 -0.39097854 0.4506977 0.07907722
-0.24187844 0.15294129 -0.18539886 -0.11606978 -0.34642035 0.1375773 0.16228424 0.04856891
-0.25863707 -0.3401632 -0.28549567 0.15954512 0.1385946 0.24292141 0.1512282 0.073061414
-0.0028269046 -0.21953918 -0.24732882 -0.27001187 0.118172616 -0.14173025 -0.058096614 -0.16613406
0.323783 -0.15641214 -0.4402936 -0.09822738 0.11573784 0.19681716 -0.20420521 -0.6364005
-0.1992553 -0.09799276 0.25260103 -0.25584707 -0.12047212 -0.27184784 0.3265031 0.29557058
0.48402962 -0.75582886 0.37690184 -0.22606555 0.18139769 -0.2239046 -0.2798437 -0.23623781
-0.11822882 -0.4217426 0.32305694 -0.56007606 0.31492463 0.32672182 0.44618782 -0.3697899
-0.26340413 0.07550175 0.15639932 -0.4601829 -0.15934117 -0.27595213 0.028391022 -0.44313106
-0.23639393 -0.012267475 -0.121110804 0.44515815 0.77826613 -0.33684632 0.20787407 -0.034647107
0.26675236 -0.6511924 -0.46086034 -0.44665527 -0.14918566 -0.4735433 -0.3873171 -0.4266929
-0.044271514 -0.12072453 0.06303371 -0.20772447 -0.5204368 0.43768868 -0.06935002 0.05320447
-0.2645981 -0.0018519894 0.29844043 0.32905412 -0.6801551 0.47534513 0.45237648 -0.012937204
-0.05363559 0.50236124 0.0058764606 0.4606456 -0.5479349 -0.32115862 0.24936253 0.34377164
-0.33593875 -0.16513199 -0.35488674 -0.28237098 -0.22275299 -0.07138861 0.19482026 0.04831909
-0.21956788 -0.23158209 0.14360873 -0.21472847 -0.035543837 0.1384792 -0.13360234 -0.03147711
-0.025127577 -0.06829573 -0.14636758 -0.25733608 -0.23335256 -0.15457447 0.27881333 -0.13943434
-0.19385342 0.06997318 0.079561844 0.15816791 0.63846457 0.092782885 -0.47156265 0.18608741
0.38310832 -0.38213024 -0.33207256 0.28007397 -0.35894805 -0.33340374 -0.14404032 0.42634225
0.057882186 0.23871034 0.006527117 -0.38199598 -0.66314924 0.063717395 0.2514891 0.43721318
-0.31569234 0.12166383 0.06893208 -0.21200667 -0.03332697 0.32202247 0.31928772 -0.4950575
-0.02504095 -0.7385112 0.007880806 0.4167651 0.15127353 0.41491884 -0.2745047 -0.57670975
0.4854042 -0.13199493 0.00923438 -0.2563202 0.45367238 0.23384584 0.09196145 -0.59272337
-0.37292403 0.093116775 0.018912334 -0.24925655 -0.08077063 0.19496186 0.022995774 0.013024541
-0.071043104 -0.26142123 -0.27142894 -0.13799106 -0.14673975 0.08993778 -0.08403643 -0.112936094
0.75222945 0.35656792 0.26058802 -0.3051682 -0.14632553 0.2319857 -0.39502352 -0.5188963
-0.22376116 -0.4288948 -0.18760444 0.4458331 0.675738 -0.012968246 -0.11410532 -0.5322848
-0.2501938 0.009135039 -0.06373418 -0.070425875 -0.36140677 0.5047577 -0.13102697 0.2582029
-0.18708159 0.13226084 0.20743333 0.13531885 -0.17265758 0.46238574 0.25603873 0.3691678
0.35017914 -0.23476031 -0.12083436 0.5288047 0.22620985 -0.22041711 -0.022315538 -0.28467014

mlr.0.bias f4 [64]
00000000: 2d91 a2bd 6a17 1a3e aa3e e33c c22d 4ebd
00000010: 4990 043e e07f dabd 01f8 d83d f6eb 9f3d
00000020: 562a 5d3e f100 2a3d 86c2 cb3d 79b4 2abd
00000030: a72a e6bd 2c94 e03d c0e8 213e b441 d33d
00000040: 07da f03c ea89 c9bd 168d c63d 2e39 243e
00000050: 2124 a9bd 4e7c 12bd f822 5abc a66d e83d
00000060: 2fd6 993b 3ebb b4bb abd5 c5bc b2e7 30bd
00000070: b8b0 8ebd 403b bfbd aff3 323d 0dc8 14be
00000080: 1dc9 81bd c710 df3c 1d93 e03c f308 8bbe
00000090: d71e e83d b845 06be 3bbd 22be b5fa 753c
000000a0: a043 1abe 22e7 a6bc 0135 c7bd 79d4 8c39
000000b0: f9e8 f6bd 3297 1ebd 0a99 33bb 2035 6fbe
000000c0: 41ec 32be e46e c0bc c1a0 43bc e120 8a3d
000000d0: c11f 1dbd dca9 5e3e ac5e ff3d 6216 093d
000000e0: 0e7e eebd 663f cebd 1ae1 b5bc 6065 bfbb
000000f0: 1409 f03d 8d8e 30bd 14d6 293e 6285 2dbe
-0.07937846 0.15047994 0.027739841 -0.050336607 0.12945665 -0.106689215 0.10594178 0.07808678
0.21598181 0.041504804 0.09949212 -0.04167602 -0.11238604 0.109657615 0.15811443 0.10315266
0.029400839 -0.09840758 0.09694879 0.16037437 -0.08258844 -0.035763077 -0.013314001 0.11349039
0.004694722 -0.005515485 -0.024149736 -0.043189712 -0.069673 -0.09337473 0.043689426 -0.14529438
-0.063371874 0.02722968 0.0274139 -0.27155265 0.11334007 -0.13112533 -0.15892498 0.0150133865
-0.1506486 -0.020373885 -0.097269066 0.00026861185 -0.12056155 -0.03871841 -0.002740445 -0.2336011
-0.17472936 -0.023490377 -0.011940182 0.067445524 -0.03836036 0.21744484 0.12469229 0.03346861
-0.11645137 -0.10070686 -0.022202063 -0.0058409423 0.117204815 -0.043104697 0.1658557 -0.16945413

mlr.2.weight f4 [208, 64]
00000000: 609b 9b3c 5db0 0c3f 1ae5 3b3d 24f0 5fbd
00000010: 04e3 10be 5411 593f 0389 a8be c732 00bf
00000020: 3f6c 97be e91b a63e ec9d 323f 608f 60bc
00000030: 5819 cebd 43af bbbd 3d38 163e 073c 333f
00000040: 12cc 01bf 1893 6fbd ffda 42bf 96a2 b3be
00000050: 1d82 503e 80c1 76bd ce6b 3f3e 803e 63be
00000060: 51da f7be 8be6 bf3e 0003 fc3d 2de9 7e3d
00000070: 6e0b 8ebc d4e4 a43e 996b 8b3d 4a9c d7bd
00000080: 206c 35bd 88d5 953d fbcb b6be 084d f43d
00000090: 1e0b 1c3e 0476 8a3d f432 8dbd 5fa7 343e
000000a0: c8b7 b83d 755f c83e 4855 b83d f0b1 013f
000000b0: 4072 1f3b 66dc d53e aed4 ca3e 50f1 5e3d
000000c0: cc8e 24bd ac5d f8bc 6c73 e1bd 7bff d7be
000000d0: 0553 3abd 4cb4 1a3d 8ab2 c03d 57dd c03f
000000e0: e727 863e b8c9 263f 84a0 cc3e 82d2 2c3e
000000f0: 235f 40bf be2f fdbd 1230 0e3f bc70 8f3d
00000100: 72c7 dbbd 0df7 c33e d352 c93d 201f f83b
00000110: 3749 fabe 29d4 713f 0204 e1bd 406d 2e3f
00000120: cb90 04bf dbc6 763e bb06 093f 804f fd3d
00000130: 2cef 58bd a264 f6be 36ee 943e 5299 073f
00000140: 3563 26bf e84b 523d 4ec9 8bbf 5b8d 6abe
00000150: 6e63 9a3e fc95 c83d ffaf a8bc 563f 74bd
00000160: 04fd 623f 5945 ea3e a836 993d 98c4 0c3e
00000170: 9bbf 7abd 5f6b 033e c764 27ba 342f 96bd
00000180: 840f 583e 8202 f6bd 58c7 bd3e c235 ff3d
00000190: 2071 9c3e c494 2e3d 24d7 e4bd 90d3 50bc
000001a0: 1827 afbc caba 653f b4b6 fc3d 3e66 483e
000001b0: 20e4 10bc 0050 0a3f 93ca 933e 101e b5bd
000001c0: 2885 a63c 64cc e13b 59fc f33c 5865 043f
000001d0: 0dd3 07be 813c b3bd 2609 b03e beb4 803d
000001e0: 2f71 a43e 7491 6c3d 67e7 253e b7ad 103e
000001f0: 661a 0abe 4804 be3c aaf5 bb3e 806c 9a3c
00000200: 92aa f63d a140 383f cf7f dfbd a6ae e93d
00000210: 9bbc 21be 6bf4 533f 4fd2 2ebe c260 0e3e
00000220: d1f3 c8be 1ce5 873e 8bc6 703f d087 193c
00000230: 2ce2 b2bd ced1 04bf 8d5d de3e 0aac 663f
00000240: ad05 32bf e086 213c 0c91 ecbe 7e56 b2be
00000250: 030c c83e 3ced 4c3d 07c7 3c3e ee88 7ebd
00000260: 673e 813e 7692 533f f243 dfbd 3d0b 06bc
00000270: 3a5a 8e3c 8356 c23e a2cc ac3e 40f7 eabc
00000280: 42a8 703d be8e a63d c504 05bf 3405 cd3d
00000290: 3445 473e c27a c4bd 7846 b4bd 622f 2ebe
000002a0: 0e4b 8cbd ea4c 1d3f e026 1abc c7ac 7b3e
000002b0: f857 81bd 22dc af3e b8a0 423e 5225 fb3d
000002c0: 10c3 3dbd 4b3e 6bbd 17fd 533d 18ba 0dbf
000002d0: e4b6 cd3d 00ae a2ba 2c65 333d feaf 553f
000002e0: 555b 923e b166 033f fbe9 a63e 2ce5 1b3e
000002f0: df3a 73be 806c b33a 0d67 073f 9801 33bd
00000300: 7047 dfbd 425c 8bbe d029 433d a44f a7bd
00000310: c4b8 e0be 48f9 403f ab1c 3fbe 0d5d f13e
00000320: b881 2ebf ff8d 2abe 9d4b be3e 7881 ae3c
00000330: f038 0b3d 25a0 ddbd 334b 57bd b531 92bd
00000340: d4c4 bfbe 1ca0 0b3d fe9c 6abf 33bd 94be
00000350: 029b 843e a029 95bb 23da cdbc 41b5 e83c
00000360: 9cc6 863f d697 483e 569a ecbd 0445 893d
00000370: 48ed 66bd 318c 413e 983b 0d3f 66ef fdbd
00000380: e506 883d f027 44bc aff0 cd3e 3235 eb3d
00000390: c084 b33e 7475 a43d 61e1 203d ec85 54be
000003a0: 30a0 f03c 848c 6b3f 2473 a7bd 6e5f d33c
000003b0: da95 fa3d d36f 013f c8ba d13e f60b 9a3d
000003c0: a000 83bc 2dcf b3bd e1a9 ec3b 81f1 203f
000003d0: 062e eebd 981a 96bd c181 563e 9f46 e9be
000003e0: 9a19 d23e 7896 9abd 6ab6 193e 6a12 d13d
000003f0: d1e7 8abe d0de ffbc c8d5 8c3e e075 8ebd
0.018994987 0.5495661 0.045872785 -0.054672375 -0.141491 0.84792066 -0.32917032 -0.5007748
-0.29574773 0.3244317 0.6977222 -0.013706058 -0.10063428 -0.09164288 0.1466989 0.7001347
-0.5070201 -0.05848989 -0.7611541 -0.3508498 0.20362134 -0.06024313 0.18693468 -0.2219181
-0.4840875 0.37480578 0.1230526 0.062234093 -0.017339434 0.32205832 0.06807632 -0.10527857
-0.04429257 0.073161185 -0.357025 0.11928755 0.15238616 0.06760791 -0.06894484 0.17641972
0.090194285 0.39135328 0.09000641 0.50662136 0.0024329573 0.41769713 0.39615387 0.054429352
-0.040175244 -0.030318104 -0.11008343 -0.42187104 -0.04548933 0.0377696 0.094090536 1.5067548
0.26202318 0.6515155 0.39966214 0.16877177 -0.7514517 -0.12362622 0.555421 0.07003924
-0.107314005 0.38274422 0.098302506 0.0075720698 -0.48883983 0.94464356 -0.109870926 0.6813545
-0.51783437 0.24099295 0.53525895 0.12368679 -0.052962467 -0.48123652 0.2908799 0.52968323
-0.6499513 0.05134192 -1.0920808 -0.22905485 0.30153984 0.09794232 -0.020591734 -0.059630714
0.8866732 0.45756033 0.07481128 0.1374687 -0.061217885 0.12833928 -0.00063855614 -0.07333222
0.21099669 -0.12012197 0.3706615 0.12461425 0.30555058 0.042622343 -0.11173847 -0.012745753
-0.021380946 0.8973814 0.12339535 0.19570252 -0.008843452 0.5402832 0.2886549 -0.088436246
0.020327166 0.0068908203 0.029783415 0.5171714 -0.13264103 -0.087517746 0.3438198 0.06284474
0.32117602 0.057755902 0.16201554 0.14128767 -0.13486633 0.0231954 0.36710864 0.018850565
0.120442525 0.71973616 -0.109130494 0.11410265 -0.15794604 0.8279483 -0.17072414 0.13904098
-0.39248517 0.26541984 0.9405295 0.009370759 -0.08734545 -0.51882637 0.4343075 0.9010626
-0.6953991 0.009858817 -0.46204412 -0.34831613 0.39071664 0.05003093 0.18435298 -0.062142305
0.25242922 0.82645357 -0.109016314 -0.00818139 0.017377008 0.37956628 0.33749872 -0.028682351
0.058754213 0.08132695 -0.519604 0.10010758 0.19459993 -0.09593727 -0.08802503 -0.17010263
-0.06850253 0.61445487 -0.009408683 0.24577628 -0.06315607 0.34347636 0.19006622 0.12262978
-0.046328604 -0.057432454 0.051755037 -0.5536208 0.10044649 -0.0012411475 0.043797657 0.8347167
0.28585306 0.5132857 0.32600388 0.15224141 -0.23752926 0.0013688952 0.5289162 -0.04370269
-0.109022975 -0.27218825 0.047647297 -0.08169487 -0.43890965 0.75380373 -0.1866328 0.47141305
-0.68166685 -0.1665573 0.37167063 0.02130197 0.033989847 -0.10821561 -0.05256195 -0.07138387
-0.37454855 0.03408824 -0.916458 -0.29050598 0.25899512 -0.004552081 -0.02512843 0.028406741
1.0529361 0.19589171 -0.11552875 0.06702617 -0.056378633 0.18901135 0.5516906 -0.12399177
0.0664194 -0.0119724125 0.4022269 0.114847556 0.35062218 0.08030215 0.039277438 -0.20754212
0.029373258 0.92011285 -0.08176258 0.02580234 0.12235613 0.50561255 0.40962815 0.075218126
-0.015991509 -0.0877975 0.0072223996 0.62868506 -0.11629872 -0.07329291 0.20947935 -0.45561692
0.41035157 -0.07548231 0.15010992 0.1020859 -0.27129987 -0.031234175 0.27506852 -0.069560766

mlr.2.bias f4 [208]
00000000: 1828 ca3d a842 be3d e3f2 00bc e64e 1a3e
00000010: ac46 0c3e 3bba 053e 8c0d 343e f77a 913d
00000020: 81e3 9e3d 75de 3b3e b97e 1a3e e064 c63d
00000030: 0e8b 013e 5037 293c de5f 963d 7c82 853d
00000040: a8b3 2d3e 75ed e33d 1c1a 033d c826 dc3c
00000050: 7ea3 613d d4f9 dd3c 5d1f f73d 1140 a53d
00000060: b639 b23d 103f 903d 08d5 c73d 8171 0e3e
00000070: 65aa 8f3d 2be2 263e 710c b53d 9766 e73d
00000080: 5643 213e 55ba 2a3d a608 bf3d f12c cf3d
00000090: e7d1 ed3d 54be da3d daae 053e ccd0 043d
000000a0: cdc2 9b3d 85ae c33d 87fe e13d 0b43 f73d
000000b0: b01d 0e3d 5fb6 f13d 3195 bf3c 1029 413d
000000c0: bce9 a53d 50b6 173e 266d d13d a00d 303d
000000d0: bc1e 443e a114 4f3e 520d b03d 7bd5 403e
000000e0: 16ab 233e 4b8e 253e fe9d 253e b539 223e
000000f0: 092a 053e 3b06 343e 03d9 0b3e 113f 3b3e
00000100: 4db4 cb3d 195e 883d de2b d53d 5c90 233c
00000110: d569 8a3d 7068 6a3d 4812 f93d bdd8 0c3e
00000120: ccb0 f23d 96eb b33d 3fb3 ef3c f067 1f3e
00000130: 8838 c93d 0dde 003e 8854 5d3e 0e77 5e3e
00000140: 621f 3b3e 6c5a 6c3e d99c 5c3e ffbd 403e
00000150: c937 423e 3b9f 143e 2570 313e 7aba 1b3e
00000160: f23d 593e ec9e 2d3e b00d 333e 06b5 2d3e
00000170: 5822 2d3e 0a8a 943d f157 803e deea 583e
00000180: 3629 093e 1421 373e d2a9 153e a13e f83d
00000190: 5809 783d dc5c 013e 1a51 343e 56a0 d73d
000001a0: 12eb 7c3e d60e 493e be45 0b3e 2cae 943e
000001b0: e201 233e 10fb 263e 0134 923e 9f1b 5d3e
000001c0: 6197 953e ebdb 4e3e 4449 523e c825 683e
000001d0: 89dc 453e c03e 623e d0d6 de3d da9b 193e
000001e0: c055 5a3e b6a4 3f3e 5ded 2a3e 65cf 423e
000001f0: 82f9 4a3e 0482 583e 3df2 8d3d 8a45 2a3e
00000200: 2619 493e d86f bd3d b9e6 1c3e 5973 433e
00000210: e1f2 4d3e e242 443e c0a6 163e d993 043e
00000220: fe51 113e d115 3e3e 4952 bc3d 2f71 0a3e
00000230: 6d9c 683e b8d8 1e3e f4f6 363e 92cf 213e
00000240: 921d f73d 0fbd da3d 8da8 cf3d 61eb 6a3d
00000250: f8f9 053e 3764 863d 589f aa3d 29df 063e
00000260: e1a0 9f3d b2b7 713e 9ebf 323e 3c6b 6d3d
00000270: fe99 2a3e 1384 f93d 803d 4f3e 8612 4b3e
00000280: ced5 093e 5c17 2b3e 9120 a33d 67c9 f03d
00000290: 70a3 303e d31e 103e 9bbe 0f3e 9e57 343e
000002a0: bc4c b13d 1b0b c13d c69a b93d 7c38 943d
000002b0: 539f 333e 9190 b73d 4e48 c63d cf68 e03d
000002c0: 685d 103e b31a 0b3e 3f41 9f3d a999 df3d
000002d0: 50ac 003e b457 a63d 5382 323e a710 a33d
000002e0: 397a 0b3e f652 4e3e 0292 ac3d 176e 263e
000002f0: 546b cc3d e315 293e bacf 923d 27ed 983d
00000300: b89a d63d 48ef e23d 96ba db3d df3b 323e
00000310: 708b 4e3d 4404 7c3d 53d0 a33d 9592 5d3d
00000320: 7e7f 703d f8fe d13c be48 003e 73ea f73d
00000330: 6993 503c dd39 123e 003f 1b3e 78c1 c53d
0.098709285 0.092900574 -0.007870409 0.1506916 0.13698834 0.13059323 0.17583293 0.07103532
0.07758237 0.1834658 0.15087403 0.09687209 0.12650701 0.010328129 0.07342504 0.065190285
0.16963065 0.11129276 0.03200732 0.026873961 0.05508756 0.027096666 0.12066529 0.0806886
0.08702414 0.07043278 0.09757429 0.13910486 0.07014922 0.16297214 0.08840264 0.11298864
0.15748343 0.041681606 0.093278214 0.10115994 0.11612301 0.106808335 0.13054982 0.032425687
0.07605515 0.09554771 0.11034875 0.12073334 0.03469628 0.11802363 0.02338657 0.0471583
0.08101222 0.1481564 0.102258965 0.042981744 0.19152349 0.20222713 0.08596291 0.18831436
0.15983233 0.16167562 0.1617355 0.15842326 0.13004316 0.17580502 0.13657002 0.18285777
0.09946499 0.06658573 0.104087576 0.009983148 0.06758467 0.057228506 0.1216169 0.13754554
0.118501276 0.08785169 0.029260276 0.15566993 0.098252356 0.12584706 0.21614277 0.21725103
0.1827369 0.23081368 0.21544208 0.18822478 0.18966593 0.14513867 0.17327936 0.15207854
0.21215037 0.16955155 0.1748569 0.16963586 0.16907632 0.07252891 0.25067094 0.21183345
0.13394627 0.17883712 0.14615563 0.121213205 0.060555786 0.1263308 0.17609063 0.105286285
0.24699047 0.19634566 0.13600823 0.29039133 0.15918687 0.1630671 0.285553 0.21592568
0.29217055 0.2020108 0.20535761 0.22670662 0.19322409 0.2209425 0.10880816 0.15000859
0.21321774 0.18715176 0.1669211 0.19024427 0.19821742 0.21143347 0.06930969 0.1662809
0.196385 0.09249848 0.15322389 0.1908697 0.20112182 0.19166139 0.14712048 0.12947024
0.14191434 0.1856301 0.09195382 0.13519739 0.22715922 0.15512359 0.17867643 0.15801838
0.12066187 0.10680591 0.101395704 0.05735338 0.13083637 0.06562083 0.08331174 0.13171066
0.07794357 0.2360523 0.17455909 0.057963595 0.16660306 0.12183394 0.20238304 0.19831285
0.13460466 0.1670813 0.07965196 0.117571644 0.17249846 0.14074259 0.14037554 0.17611548
0.08657214 0.09425946 0.09062724 0.07237336 0.17541246 0.08963121 0.0968176 0.10957491
0.14098132 0.13584404 0.077761166 0.1091798 0.12565732 0.08122197 0.17432527 0.079621606
0.13620843 0.20148835 0.08426286 0.16252933 0.09981409 0.16512255 0.07168527 0.07467108
0.10478729 0.110807955 0.10728948 0.17405652 0.050425947 0.061527506 0.07998719 0.05409487
0.058715336 0.025634274 0.12527749 0.121052645 0.012730458 0.14279886 0.15160751 0.09656042
