pqc_reup_v1_output/model_params_epoch_280.pth (torch, 61385 bytes, 6 tensors)

reupload_weights f4 [12, 3, 4]
000000 39 98 1f 3e 0e 2b 5c 3d 03 de 15 3e 94 d3 79 bd
       0.15585412 0.053751998 0.14635472 -0.060992792
000010 5f 73 9d 3c 5b 09 60 bf 14 43 e3 3e b9 16 2e 3f
       0.019220052 -0.87514275 0.44387114 0.6800342
000020 9e f5 3d 3f a3 2e a6 3d a7 de ac 3e a0 63 1a bf
       0.7420291 0.08114364 0.3376362 -0.60308266
000030 6c 79 6f be db da 1b 3d 17 e5 7a 3d 69 e2 c2 bd
       -0.23386163 0.038050514 0.061253633 -0.095158406
000040 f0 e8 36 3f 43 33 65 bf 31 51 07 bf 37 5e 11 3e
       0.71449184 -0.89531344 -0.52858263 0.14196096
000050 68 ab d3 be 49 d2 3c bc da 42 dc 3e e7 37 9d 3e
       -0.4134171 -0.011524745 0.43019754 0.30706713
000060 29 38 b9 3e 60 bc 2a 3d b8 4c ca 3c c4 eb 13 bd
       0.3617566 0.041683555 0.024694785 -0.036113515
000070 43 ac 1a 3f fd ca 80 be 00 d9 c8 bd 7b 5f 47 bf
       0.604191 -0.25154868 -0.098070145 -0.77880067
000080 df 22 ba be c9 fc a7 3e 55 21 48 3f 08 0d c8 bd
       -0.3635473 0.32810047 0.7817586 -0.097681105
000090 b0 8e 2d be 18 21 f6 bd d5 21 37 3d f1 17 a9 bd
       -0.16948962 -0.12018031 0.04471 -0.082565196
0000a0 40 f8 16 3e 2d 5b 62 3f bd 92 8c 3e f7 dc 2c bf
       0.14743137 0.88420373 0.27455702 -0.67524666
0000b0 eb d2 9e 3e 54 7b 82 3f bd e0 df be d6 93 0c be
       0.31020293 1.0193887 -0.4372615 -0.1372827
0000c0 68 23 f2 3d 99 94 03 be 21 02 64 3d 08 2d 8f 3d
       0.118231595 -0.12849654 0.055666093 0.06991011
0000d0 82 e3 4f 3f 58 ac 53 3f 68 08 88 bf f6 2b 71 be
       0.81206524 0.8268485 -1.0627565 -0.23551926
0000e0 61 14 92 3e 53 3b 47 bc 66 c7 90 bf 58 6f 2a be
       0.28531173 -0.01216014 -1.1310852 -0.16644037
0000f0 a4 70 4b bd d8 30 fc 3b 12 bd f1 bd 0a db 3c be
       -0.04966797 0.0076962523 -0.118036404 -0.18442932
000100 51 cc 35 3f 75 2f e6 3e 40 a4 94 be de b9 a5 bd
       0.7101489 0.44958082 -0.29031563 -0.08092092
000110 8d 67 0d be 74 78 dd be 79 d0 9a bf 64 1a 89 3e
       -0.13809033 -0.4325596 -1.2094871 0.26777947
000120 17 a7 dd 3b 79 2d 0a 3d 7b 3f 8a be d6 33 e6 3c
       0.0067643034 0.033734772 -0.27001557 0.02810089
000130 d5 71 2b bd 1d 51 ba bd 6d e3 01 bf 07 f3 19 3f
       -0.041856606 -0.090975024 -0.5073765 0.60136455
000140 5d c0 c8 3e 97 f2 8e 3e de cb 4d 3e e8 e5 17 3f
       0.39209262 0.27919456 0.200973 0.59335184
000150 cc 62 b3 3d c8 89 58 3d 50 8b 57 3d dd 8a ab 3c
       0.087590784 0.052865773 0.052623093 0.020940239
000160 cc 7c 32 be 45 c0 17 bf 93 2b 91 be ed 8a 59 3e
       -0.17430419 -0.59277755 -0.28353557 0.21244402
000170 00 cc 9c be bd 6d 74 3e b4 75 49 3f de f7 a0 3d
       -0.3062439 0.23869987 0.78695226 0.07859777
000180 10 81 56 be 99 29 ff 3c 91 c3 65 3e a3 33 f9 3c
       -0.20947671 0.031147765 0.22437884 0.03042013
000190 14 ea f3 bd 49 04 18 3e 46 05 35 3f 8d 64 2f 3d
       -0.11909881 0.14845385 0.7071117 0.042820502
0001a0 4f 9b 28 3e f2 19 3a 3f 42 c9 c2 be 98 21 81 be
       0.16465496 0.7269584 -0.38044173 -0.25220942
0001b0 66 ba ee bd 36 ed 8c 3e c5 20 61 3e bf 03 36 bc
       -0.116566464 0.27524728 0.21985157 -0.011109292
0001c0 8c f9 96 be 38 13 24 3f 3b 10 bd 3e 40 55 2e bf
       -0.29487264 0.64091825 0.36926445 -0.6809883
0001d0 51 56 15 3f cd 59 a3 3e 5b a3 fd be 01 36 66 3f
       0.58334833 0.3190445 -0.49538693 0.89926153
0001e0 bb 50 2a 3e 52 e1 13 bf c0 a3 4c be 06 94 98 3e
       0.16632359 -0.57765687 -0.1998434 0.29800433
0001f0 cc 0a b1 3e 06 d6 2a 3f a9 94 25 3f a4 2e 2c 3e
       0.3457855 0.66732824 0.6467996 0.16814667
000200 1d ae 86 bf 52 9d 6f bf 63 5b 85 bf dc 52 96 bf
       -1.0521885 -0.93599427 -1.0418514 -1.1744037
000210 51 3f 37 3c 64 9f 05 3e 04 ca c8 3d 42 34 6c 3e
       0.011184529 0.13049084 0.098041564 0.2306681
000220 62 2f 62 bf 5d 88 33 3f d4 76 b3 be b0 5b 6d bf
       -0.8835355 0.7012995 -0.35051596 -0.9271803
000230 d1 30 9e bf b4 6f 32 3f d9 49 57 3e fc c5 81 be
       -1.2358648 0.69701695 0.21024264 -0.25346363

reupload_bias f4 [12, 3]
000000 68 37 1a bf 0c fb 81 3e 4b 23 09 bf 2d 58 0d 3f
       -0.60240793 0.25386846 -0.5356948 0.5521267
000010 c1 55 cf be cf f9 cf 3e ec 12 12 bf eb 0e 54 3f
       -0.40495113 0.40620276 -0.5706012 0.82835263
000020 df 57 62 3e d6 a8 05 3f 71 54 76 3f c6 39 ef 3f
       0.22103833 0.5221075 0.962226 1.8689506
000030 35 18 c2 be bc 6e f2 be e7 95 0d 3f ed 26 13 3f
       -0.37909093 -0.4735011 0.5530686 0.5748127
000040 b1 f2 86 3e 64 2c 38 bf 40 3f 7a bd f7 4c f6 3c
       0.26357034 -0.71942735 -0.061095476 0.030065997
000050 9b 50 a3 3e 55 5b 42 bf 82 66 46 bf a8 f2 6a be
       0.31897435 -0.7592061 -0.77500165 -0.22944129
000060 15 6d 05 3f 69 79 71 3f dc f9 ef be 85 b2 26 bf
       0.5211957 0.9432588 -0.46870315 -0.6511615
000070 26 1c 22 bf 9c f6 23 3f b4 16 67 3e ed c3 0c 3f
       -0.633242 0.6404817 0.22567254 0.5498646
000080 18 3a 0a c0 92 78 12 bf 27 4a 66 bf cb 19 95 3f
       -2.1597958 -0.57215226 -0.899569 1.1648496

mlr.0.weight f4 [64, 12]
000000 6f 08 8a 3b 1b 33 8d bc fc 21 8e 3d 0d ad a5 3d
       0.004212431 -0.017236283 0.06940076 0.080896474
000010 eb 3d 86 be 76 2d da bd b0 ef 78 3e b8 4e e6 3d
       -0.26219115 -0.10653202 0.24310184 0.11245483
000020 d1 3d 6b bc 90 38 32 be 04 da 34 be 55 65 84 be
       -0.014358 -0.1740439 -0.17661291 -0.2585856
000030 32 21 94 be 0e 26 22 3b 30 3c 86 3e f4 35 99 bd
       -0.28931576 0.002474192 0.26217794 -0.07480994
000040 d7 bb 1e bf e2 0a 20 bf 36 44 e3 3c 09 3a 10 3f
       -0.6200537 -0.62516606 0.027742486 0.56338555
000050 3d 05 7c 3d 20 76 d5 be 27 19 f2 3e 96 9c a2 3d
       0.061528433 -0.41691685 0.47284815 0.07940023
000060 fb ae 77 be a4 9c 1c 3e 33 d9 3d be fe b5 ed bd
       -0.24187844 0.15294129 -0.18539886 -0.11606978
000070 02 5e b1 be 10 e1 0c 3e d7 2d 26 3e 32 f0 46 3d
       -0.34642035 0.1375773 0.16228424 0.04856891
000080 14 6c 84 be df 29 ae be 7d 2c 92 be cc 5f 23 3e
       -0.25863707 -0.3401632 -0.28549567 0.15954512
000090 be eb 0d 3e 64 c0 78 3e 91 db 1a 3e 39 a1 95 3d
       0.1385946 0.24292141 0.1512282 0.073061414
0000a0 97 43 39 bb e1 ce 60 be c4 43 7d be ff 3e 8a be
       -0.0028269046 -0.21953918 -0.24732882 -0.27001187
0000b0 7c 04 f2 3d bc 21 11 be b7 f6 6d bd 0c 1f 2a be
       0.118172616 -0.14173025 -0.058096614 -0.16613406
0000c0 b3 ee b0 3e b7 e1 15 be ab b2 e3 be 92 46 77 bd
       0.34557113 -0.14636885 -0.4447225 -0.060370035
0000d0 e1 bd 09 3e 92 39 7b 3e 9d 9e 5e be bc 54 1f bf
       0.1345134 0.2453368 -0.21740194 -0.6223867
0000e0 3f 5f 4d be 04 5c e4 bd 86 5d 76 3e 3b d4 41 be
       -0.20055865 -0.11150363 0.24059114 -0.18928616
0000f0 b8 ab f5 bd 5b 48 83 be 90 2d a2 3e 94 61 99 3e
       -0.119956434 -0.2564114 0.31675386 0.2995726
000100 9d 3c 04 3f 86 54 3c bf 79 00 bb 3e e1 b2 69 be
       0.5165499 -0.7356647 0.36523798 -0.22822143
000110 c4 ec 58 3e 20 48 80 be fa fd a6 be 4a d3 7f be
       0.21184069 -0.25055027 -0.32615644 -0.24982944
000120 48 b7 0e be af f4 d4 be 22 fc a8 3e 8b 68 14 bf
       -0.13937104 -0.4159293 0.33004862 -0.5797202
000130 7b ad a4 3e 55 63 ae 3e 11 9b e4 3e 54 4c c3 be
       0.32163605 0.3406016 0.44649556 -0.3814417
000140 0e ea 8a be f3 43 6c 3d 82 11 25 3e c8 20 e9 be
       -0.27131695 0.05768199 0.1611996 -0.45532823
000150 3e 7c 1b be c0 6c 8a be ea 07 ab 3c 8d e6 e0 be
       -0.15184113 -0.27036095 0.020877797 -0.43925896
000160 52 fd 79 be ea c8 64 bc a1 9c ed bd 07 03 e1 3e
       -0.2441304 -0.013963917 -0.1160214 0.43947622
000170 7a 09 4d 3f 9d 4a b0 be 23 24 4e 3e d7 43 36 bd
       0.80092585 -0.34431925 0.20130973 -0.04449829
000180 6d 87 ab 3e 9a c6 27 bf 74 e8 eb be 4b 9c ea be
       0.3350176 -0.65537417 -0.46075785 -0.45822367
000190 50 27 ec bd 08 64 eb be c7 2c d1 be a1 ed f8 be
       -0.11530936 -0.45974755 -0.40854475 -0.48618796
0001a0 b8 54 88 bd fe f9 ba bd 4d 1c 68 3d 5b 7e 12 be
       -0.06656784 -0.091297135 0.056667615 -0.14306013
0001b0 ad 17 09 bf ad a7 e9 3e a2 8c a7 bd 08 58 2a 3d
       -0.5355175 0.4563574 -0.081811205 0.04158786
0001c0 60 c6 7d be 9b 3c b6 bb 36 46 97 3e a3 53 b5 3e
       -0.24782705 -0.005561424 0.29545754 0.35415372
0001d0 98 1d 34 bf b1 a5 f5 3e 00 74 f4 3e d6 38 fe bb
       -0.70357656 0.47977975 0.4774475 -0.00775824
0001e0 83 ff a6 bc a2 cd f2 3e d7 5d 22 3c d9 bb fb 3e
       -0.02038551 0.4742251 0.0099100685 0.49166754
0001f0 da a6 17 bf 32 da a3 be 8f 9b 84 3e b6 40 b4 3e
       -0.5923897 -0.32002407 0.25899932 0.3520562
000200 5c 18 a7 be 8b c1 31 be 9e 7b c0 be a5 2b 8f be
       -0.32635772 -0.17358987 -0.37594312 -0.27962986
000210 5c 19 64 be 31 34 92 bd f6 7e 47 3e 3d ea 45 3d
       -0.22275299 -0.07138861 0.19482026 0.04831909
000220 67 d6 60 be db 23 6d be 2b 0e 13 3e c8 e1 5b be
       -0.21956788 -0.23158209 0.14360873 -0.21472847
000230 6a 96 11 bd 7e cd 0d 3e 0d cf 08 be 24 ee 00 bd
       -0.035543837 0.1384792 -0.13360234 -0.03147711
000240 59 d8 cd bc a2 de 8b bd 62 e1 15 be 8e c1 83 be
       -0.025127577 -0.06829573 -0.14636758 -0.25733608
000250 f9 f3 6e be c5 48 1e be 9f c0 8e 3e e0 c7 0e be
       -0.23335256 -0.15457447 0.27881333 -0.13943434
000260 83 81 46 be 19 4e 8f 3d 52 f1 a2 3d c5 f6 21 3e
       -0.19385342 0.06997318 0.079561844 0.15816791
000270 5a 97 20 3f ea 4b f1 3d 14 2a ff be a0 d2 31 3e
       0.62730944 0.117820576 -0.4983679 0.17365503
000280 84 67 d4 3e a0 4d cd be b7 6a b7 be 52 6c 9b 3e
       0.41485226 -0.40098286 -0.35823604 0.3035608
000290 b2 00 c5 be 9d a9 aa be 5d 85 ef bd 66 17 e7 3e
       -0.38477093 -0.3333253 -0.11695359 0.4513504
0002a0 74 25 91 3d 49 bb 6d 3e 71 de 07 3c 43 bf c2 be
       0.07087222 0.23215975 0.00829278 -0.38036546
0002b0 3a 04 2f bf d7 5c 94 3d 09 06 88 3e 67 88 e3 3e
       -0.68365824 0.0724427 0.26567104 0.44440004
0002c0 c3 4e a7 be f6 9c dc 3d da 69 9e 3d 81 b0 6e be
       -0.32677278 0.107721254 0.07735033 -0.23309518
0002d0 df 41 6e bc 53 3a a5 3e c7 f0 a6 3e d7 f7 ff be
       -0.014542072 0.3227106 0.32605574 -0.49993774
0002e0 64 18 00 bd 0a 2b 41 bf ad e2 5e 3c 0b 62 db 3e
       -0.03127326 -0.754563 0.013603848 0.42848238
0002f0 f9 10 29 3e 0d 29 da 3e 6c b2 91 be 32 98 16 bf
       0.16510381 0.42609444 -0.28456438 -0.5882598
000300 6a 69 fa 3e 3a c5 01 be c1 eb 21 3c 34 2b 8a be
       0.4890855 -0.12672892 0.009882868 -0.26986086
000310 e9 f0 ef 3e 47 a5 82 3e 0f a2 a2 3d 05 22 17 bf
       0.46863487 0.25516722 0.079410665 -0.59036285
000320 42 22 c1 be 58 6c ba 3d 84 db fe 3c e5 6e 7a be
       -0.3772145 0.09102696 0.031110533 -0.24456365
000330 12 6b a5 bd 15 a4 47 3e a2 61 bc 3c e2 64 55 3c
       -0.08077063 0.19496186 0.022995774 0.013024541
000340 0c 7f 91 bd 01 d9 85 be bc f8 8a be 87 4d 0d be
       -0.071043104 -0.26142123 -0.27142894 -0.13799106
000350 f2 42 16 be 4c 31 b8 3d 4b 1b ac bd 0a 4b e7 bd
       -0.14673975 0.08993778 -0.08403643 -0.112936094
000360 2e 99 44 3f 7e 4d bc 3e c4 a8 8f 3e 35 68 9d be
       0.76796234 0.36777872 0.28058445 -0.30743566
000370 97 cb 13 be c0 bd 79 3e 99 98 ce be ca bc 03 bf
       -0.14433132 0.2438879 -0.40350798 -0.51459944
000380 5a 8f 78 be a7 bb e1 be 26 ca 37 be c1 c4 f2 3e
       -0.24273434 -0.4408848 -0.17948207 0.47415736
000390 39 0e 31 3f 09 a1 80 bc 8b 13 da bd 46 c1 0a bf
       0.6916233 -0.015701788 -0.10648259 -0.5420116
0003a0 e8 1d 77 be df 84 ac 3b 0a eb 9e bd 7e c9 8d bd
       -0.24132502 0.005264863 -0.07759674 -0.06923197
0003b0 df 34 c0 be 7d e3 03 3f 78 11 0a be 53 24 82 3e
       -0.37540337 0.51518995 -0.13483226 0.25418338
0003c0 14 f5 3a be 2a 2a 0c 3e 5e 7d 5e 3e a4 5b 0f 3e
       -0.18257552 0.1368796 0.21727511 0.13999802
0003d0 7f 9f 41 be 88 9a ef 3e 92 68 8a 3e 96 a1 c0 3e
       -0.18908499 0.46797585 0.27032906 0.3762328
0003e0 52 50 ae 3e 88 0c 72 be 67 c3 fb bd 51 9b 09 3f
       0.34045655 -0.23637593 -0.122931294 0.5375262
0003f0 8e a3 67 3e 06 b5 61 be 13 cf b6 bc 49 c0 91 be
       0.22620985 -0.22041711 -0.022315538 -0.28467014

mlr.0.bias f4 [64]
000000 2d 91 a2 bd a6 83 17 3e aa 3e e3 3c c2 2d 4e bd
       -0.07937846 0.14796314 0.027739841 -0.050336607
000010 a6 4d fb 3d 18 9e da bd fb 37 d6 3d c5 33 a0 3d
       0.1227067 -0.10674685 0.10459896 0.07822374
000020 b5 35 5e 3e a9 be 4e 3d 93 f6 db 3d 79 b4 2a bd
       0.21700175 0.050474796 0.1074039 -0.04167602
000030 a7 2a e6 bd bc f7 d3 3d 1c 2d 22 3e 81 4c c4 3d
       -0.11238604 0.10349986 0.1583752 0.095849045
000040 16 5a d2 3c ea 89 c9 bd 1d 8c be 3d aa 24 26 3e
       0.025677722 -0.09840758 0.09304068 0.16224924
000050 d4 91 ae bd 4e 7c 12 bd 9e 0a 35 bc 14 6c de 3d
       -0.08523908 -0.035763077 -0.011049895 0.10860458
000060 d8 e4 21 3c ae 52 ed bb ab d5 c5 bc b2 e7 30 bd
       0.009881221 -0.007242522 -0.024149736 -0.043189712
000070 b8 b0 8e bd 88 d9 bf bd dc f5 18 3d 0d c8 14 be
       -0.069673 -0.09367663 0.037343845 -0.14529438
000080 1d c9 81 bd c7 10 df 3c e0 ec d1 3c f3 08 8b be
       -0.063371874 0.02722968 0.025625646 -0.27155265
000090 0f b3 e8 3d b8 45 06 be 3b bd 22 be bc c5 a1 3c
       0.11362278 -0.13112533 -0.15892498 0.019747607
0000a0 a0 43 1a be 7f 20 77 bc 01 35 c7 bd 4a bd 2b bb
       -0.1506486 -0.015083431 -0.097269066 -0.0026205354
0000b0 f9 e8 f6 bd e4 17 00 bd 53 d5 d5 bb 20 35 6f be
       -0.12056155 -0.031272784 -0.0065256744 -0.2336011
0000c0 41 ec 32 be e4 6e c0 bc c1 a0 43 bc e7 e0 80 3d
       -0.17472936 -0.023490377 -0.011940182 0.06292897
0000d0 e1 69 1c bd 92 83 5a 3e ef 10 fa 3d ad 53 05 3d
       -0.03818691 0.21339253 0.12210261 0.032550503
0000e0 b3 53 eb bd 16 98 cc bd e4 21 c3 bc 75 e5 0d bc
       -0.11490574 -0.099899456 -0.023819871 -0.008660664
0000f0 12 a1 f3 3d 8d 8e 30 bd 7b df 21 3e 62 85 2d be
       0.11895956 -0.043104697 0.15807907 -0.16945413

mlr.2.weight f4 [208, 64]
000000 60 9b 9b 3c af 68 1b 3f 1a e5 3b 3d 24 f0 5f bd
       0.018994987 0.6070661 0.045872785 -0.054672375
000010 6a 88 0b be b3 d7 60 3f f1 25 b0 be c6 c3 00 bf
       -0.13626257 0.8782913 -0.34403947 -0.50298727
000020 80 4a 95 be cc 81 a7 3e 2c 46 45 3f 60 8f 60 bc
       -0.291584 0.32716215 0.770602 -0.013706058
000030 58 19 ce bd a2 61 da bd 45 61 48 3e c8 8d 38 3f
       -0.10063428 -0.10663153 0.19568355 0.7209134
000040 14 91 0e bf 18 93 6f bd a9 f7 44 bf 32 56 a9 be
       -0.5569012 -0.05848989 -0.769404 -0.33073574
000050 ca 51 5c 3e 80 c1 76 bd ed 2b 38 3e f4 70 21 be
       0.21515575 -0.06024313 0.17985506 -0.15765744
000060 cc 33 fe be 64 2b c4 3e 00 03 fc 3d 2d e9 7e 3d
       -0.49648893 0.38314354 0.1230526 0.062234093
000070 6e 0b 8e bc ff b6 ab 3e 67 96 7b 3d 4a 9c d7 bd
       -0.017339434 0.33538052 0.06142273 -0.10527857
000080 20 6c 35 bd 88 d5 95 3d a0 43 c7 be 08 4d f4 3d
       -0.04429257 0.073161185 -0.3891878 0.11928755
000090 91 8d f5 3d 04 76 8a 3d f4 32 8d bd c6 5c 07 3e
       0.11989892 0.06760791 -0.06894484 0.13218984
0000a0 c8 b7 b8 3d 0e 34 d6 3e 48 55 b8 3d 18 6d 0c 3f
       0.090194285 0.4183659 0.09000641 0.54853964
0000b0 40 72 1f 3b 31 b3 d9 3e 6c 2b d6 3e 50 f1 5e 3d
       0.0024329573 0.42519525 0.41830003 0.054429352
0000c0 cc 8e 24 bd ac 5d f8 bc 6c 73 e1 bd 0b 86 c0 be
       -0.040175244 -0.030318104 -0.11008343 -0.37602267
0000d0 db d2 45 bd ba 3e 00 3d 17 55 6e 3d e2 63 cb 3f
       -0.04829679 0.03130982 0.058186617 1.5889857
0000e0 b7 e9 89 3e 35 b4 2f 3f d1 e3 d7 3e 88 a5 26 3e
       0.26936123 0.6863435 0.42165998 0.16274083
0000f0 f3 c6 3b bf be 2f fd bd c3 fc 20 3f bc 70 8f 3d
       -0.7335045 -0.12362622 0.62885684 0.07003924
000100 72 c7 db bd 89 69 cd 3e d3 52 c9 3d 20 1f f8 3b
       -0.107314005 0.4011958 0.098302506 0.0075720698
000110 86 3f f8 be 08 3c 5d 3f 84 9a dd bd 12 89 3f 3f
       -0.48485965 0.86419725 -0.10820487 0.7481853
000120 46 bc 28 bf ea 71 4b 3e c1 e2 23 3f 80 4f fd 3d
       -0.6591228 0.19867674 0.64017874 0.12368679
000130 2c ef 58 bd fd 3a 0e bf 6a e5 b0 3e 33 4e 14 3f
       -0.052962467 -0.5555876 0.3455003 0.5793182
000140 0a 02 33 bf e8 4b 52 3d 7c ba 8c bf 0a 31 49 be
       -0.69924986 0.05134192 -1.099441 -0.19647613
000150 8a 73 ab 3e fc 95 c8 3d cf 88 10 bd 04 0b fa bd
       0.33486587 0.09794232 -0.03528672 -0.12209132
000160 85 43 77 3f e2 dd 02 3f a8 36 99 3d 98 c4 0c 3e
       0.965874 0.51119816 0.07481128 0.1374687
000170 9b bf 7a bd 6f 60 20 3e 03 db 2f 3c 34 2f 96 bd
       -0.061217885 0.15661786 0.010733369 -0.07333222
000180 84 0f 58 3e 82 02 f6 bd b7 be c1 3e c2 35 ff 3d
       0.21099669 -0.12012197 0.37840816 0.12461425
000190 72 fb 9a 3e c4 94 2e 3d 24 d7 e4 bd bb 13 96 bd
       0.30269963 0.042622343 -0.11173847 -0.07327982
0001a0 18 27 af bc a2 bb 81 3f b4 b6 fc 3d 1e d5 70 3e
       -0.021380946 1.0135386 0.12339535 0.23518798
0001b0 20 e4 10 bc 54 bd 09 3f 87 79 a6 3e 10 1e b5 bd
       -0.008843452 0.53804517 0.32514593 -0.088436246
0001c0 28 85 a6 3c 64 cc e1 3b 59 fc f3 3c 60 2d 24 3f
       0.020327166 0.0068908203 0.029783415 0.64131737
0001d0 a3 20 1b be 36 ef bd bd 55 d3 b8 3e 85 31 7d 3d
       -0.15149169 -0.092741415 0.36098734 0.061814804
0001e0 fa 5d ac 3e 10 53 18 3e 5b 4d 46 3e 89 13 c8 3d
       0.33665448 0.14875436 0.19365446 0.09769351
0001f0 15 29 bf bd 48 04 be 3c 2a 9c f0 3e 80 6c 9a 3c
       -0.09334008 0.0231954 0.46994144 0.018850565
000200 92 aa f6 3d b9 a4 49 3f cf 7f df bd a6 ae e9 3d
       0.120442525 0.7876697 -0.109130494 0.11410265
000210 2c f1 06 be 06 b9 58 3f cb 3b 2a be 40 5a 45 3e
       -0.13177937 0.84657323 -0.16624372 0.19272709
000220 a4 da ea be d7 23 7f 3e 6e e2 8f 3f d0 87 19 3c
       -0.45869935 0.24916016 1.1240976 0.009370759
000230 2c e2 b2 bd 4b 52 1a bf 56 5d 08 3f cd 4e 72 3f
       -0.08734545 -0.6028182 0.5326742 0.9465149
000240 ab 5c 45 bf e0 86 21 3c e8 53 ea be e2 4e af be
       -0.77094525 0.009858817 -0.4576714 -0.3423987
000250 16 8a df 3e 3c ed 4c 3d 68 f2 2c 3e 55 52 fa 3c
       0.4366004 0.05003093 0.16889346 0.030556837
000260 f3 45 ab 3e 95 bb 62 3f f2 43 df bd 3d 0b 06 bc
       0.33451805 0.8856748 -0.109016314 -0.00818139
000270 3a 5a 8e 3c 45 f9 d8 3e f5 0c c4 3e 40 f7 ea bc
       0.017377008 0.42377678 0.38291135 -0.028682351
000280 42 a8 70 3d be 8e a6 3d 60 f9 0d bf 34 05 cd 3d
       0.058754213 0.08132695 -0.5545864 0.10010758
000290 83 26 3a 3e c2 7a c4 bd 78 46 b4 bd 4c 83 85 be
       0.18178754 -0.09593727 -0.08802503 -0.26076734
0002a0 0e 4b 8c bd 33 d9 3c 3f e0 26 1a bc 2c ee 98 3e
       -0.06850253 0.7376892 -0.009408683 0.2986921
0002b0 f8 57 81 bd 6b f3 c0 3e 5e 64 77 3e 52 25 fb 3d
       -0.06315607 0.37685713 0.24159381 0.12262978
0002c0 10 c3 3d bd 4b 3e 6b bd 17 fd 53 3d 48 46 01 bf
       -0.046328604 -0.057432454 0.051755037 -0.50497866
0002d0 5c 9d cc 3d a3 6e db 3b 87 b8 8a 3c e7 a8 62 3f
       0.099909514 0.0066965385 0.016933693 0.88538975
0002e0 72 1b 9e 3e ff ec 15 3f 5b ca c2 3e 1c 36 d6 3d
       0.30880314 0.5856475 0.3804501 0.10459539
0002f0 dd 62 39 be 80 6c b3 3a 15 ce 2c 3f 98 01 33 bd
       -0.1810412 0.0013688952 0.67501956 -0.04370269
000300 70 47 df bd 4e 1e 7a be d0 29 43 3d a4 4f a7 bd
       -0.109022975 -0.24425623 0.047647297 -0.08169487
000310 25 7d e2 be 5b d6 44 3f 72 e2 44 be 7a 23 fd 3e
       -0.44236103 0.7688958 -0.19227007 0.4944113
000320 39 c4 4b bf df 4b 1d be 7a 1e df 3e 78 81 ae 3c
       -0.79596287 -0.15360974 0.4357794 0.02130197
000330 f0 38 0b 3d c7 1a d7 bd 29 01 60 bc 76 8f a0 bd
       0.033989847 -0.10503154 -0.013672152 -0.07839863
000340 31 56 d2 be 1c a0 0b 3d 01 d3 6d bf 6e 3e 96 be
       -0.41081384 0.03408824 -0.9290009 -0.29344505
000350 a6 26 9b 3e a0 29 95 bb 3c 73 29 bd a3 c5 e4 3b
       0.30302924 -0.004552081 -0.04136966 0.006981568
000360 84 c0 8e 3f 80 aa 60 3e 56 9a ec bd 04 45 89 3d
       1.1152501 0.2194004 -0.11552875 0.06702617
000370 48 ed 66 bd 6f 5c 5d 3e a4 c2 18 3f 66 ef fd bd
       -0.056378633 0.21617292 0.59672 -0.12399177
000380 e5 06 88 3d f0 27 44 bc 07 e8 d1 3e 32 35 eb 3d
       0.0664194 -0.0119724125 0.40997335 0.114847556
000390 1b 0c 9e 3e 74 75 a4 3d 61 e1 20 3d 9d ee ad be
       0.3086861 0.08030215 0.039277438 -0.3397111
0003a0 30 a0 f0 3c 2e c6 80 3f 24 73 a7 bd 2d f6 42 3d
       0.029373258 1.006048 -0.08176258 0.047598053
0003b0 da 95 fa 3d 0e a0 0b 3f 0c 14 da 3e f6 0b 9a 3d
       0.12235613 0.545411 0.4259342 0.075218126
0003c0 a0 00 83 bc 2d cf b3 bd e1 a9 ec 3b 51 a8 2b 3f
       -0.015991509 -0.0877975 0.0072223996 0.67053705
0003d0 1b 94 d7 bd 3c 54 82 bd f3 42 57 3e 02 e1 f3 be
       -0.10526296 -0.06363723 0.21021633 -0.47632605
0003e0 59 0f e0 3e 05 5f 4f bd 8d 1b 2e 3e a5 2c c5 3d
       0.4376171 -0.050627727 0.17002697 0.09627656
0003f0 b8 a3 6a be d0 de ff bc a7 db a2 3e e0 75 8e bd
       -0.22914016 -0.031234175 0.31808206 -0.069560766

mlr.2.bias f4 [208]
000000 f7 e3 d2 3d 30 7c c6 3d 5c ec 56 3b d9 ee 2d 3e
       0.10297387 0.09691656 0.003279469 0.16985644
000010 da 74 19 3e 1f 65 fb 3d c5 e1 46 3e ed b1 a3 3d
       0.14985982 0.12275147 0.19422062 0.07992921
000020 02 2c 8c 3d 03 10 46 3e 4c 62 17 3e 25 b6 be 3d
       0.06844331 0.19342045 0.14783591 0.09312085
000030 9b ce e7 3d bd a1 e9 3c 06 fe 9c 3d c7 e6 9a 3d
       0.11318704 0.028519506 0.076656386 0.075635485
000040 b2 d7 33 3e 98 ab f1 3d d3 8e 5a 3d ed b6 dc 3c
       0.1756275 0.11800307 0.053358864 0.026942695
000050 c6 af 74 3d a6 ea 08 3d 5d 04 f5 3d 5b f6 9f 3d
       0.059737943 0.033426903 0.11963723 0.078106605
000060 30 92 af 3d 6e e2 98 3d 12 51 d8 3d b1 74 12 3e
       0.08572805 0.07465063 0.10562338 0.14302327
000070 f8 10 a7 3d fe 33 3e 3e 58 e5 dc 3d ee 06 ee 3d
       0.081575334 0.18574521 0.10785931 0.116224155
000080 88 da 2b 3e 35 16 50 3d a6 04 b9 3d da 4c d2 3d
       0.16782582 0.05080243 0.0903409 0.102685645
000090 2b 91 f2 3d 57 8d ca 3d c4 c0 10 3e a0 02 19 3d
       0.11844095 0.0989024 0.14136034 0.03735602
0000a0 c1 1e 81 3d 6b 64 c0 3d 30 25 02 3e 67 ea 1e 3e
       0.06304694 0.09394153 0.12709498 0.15519105
0000b0 9f ba 6b 3d b4 34 01 3e 8c d2 e9 3c 73 b4 58 3d
       0.057551023 0.12617761 0.02854278 0.052906465
0000c0 04 34 ab 3d c7 92 0d 3e ee a5 e0 3d b3 d0 60 3d
       0.083595306 0.13825522 0.109691486 0.05488653
0000d0 15 fc 4d 3e 4d b7 4a 3e 3a 73 ac 3d 1d ff 50 3e
       0.20115693 0.19796486 0.08420415 0.20409818
0000e0 c8 e5 28 3e 19 34 1d 3e 58 e5 23 3e b4 85 29 3e
       0.16493905 0.15351905 0.16005456 0.1655491
0000f0 a7 10 fe 3d 3a ef 36 3e 68 e1 13 3e 16 9a 33 3e
       0.1240552 0.17864695 0.14441454 0.17539248
000100 45 58 e7 3d c1 3b 91 3d 6c c7 d3 3d 1d 85 b9 3c
       0.11296133 0.07091475 0.10340771 0.022646481
000110 44 aa b5 3d 0a 34 ba 3d f8 8c 1a 3e 18 9a 19 3e
       0.08870366 0.09091957 0.15092838 0.15000188
000120 bc 30 fe 3d 65 fb b7 3d f8 98 06 3d 86 5e 1a 3e
       0.12411639 0.089834966 0.032860726 0.1507512
000130 06 12 bc 3d f6 d6 de 3d e5 b1 67 3e e6 20 67 3e
       0.09183125 0.10880844 0.22626455 0.22571144
000140 9c 2e 3e 3e 01 10 7e 3e 64 cb 6a 3e 4a e4 5b 3e
       0.18572468 0.24810793 0.2292915 0.21473804
000150 87 08 49 3e 2e 71 0e 3e 63 1b 32 3e 71 6c 14 3e
       0.19632159 0.13910362 0.1739326 0.14494492
000160 f4 1f 5f 3e a6 dc 2e 3e 06 3e 26 3e 98 d3 42 3e
       0.21789533 0.17076358 0.16234598 0.19026029
000170 c6 c7 33 3e db 0c b7 3d c7 0e 7f 3e b8 1e 61 3e
       0.17556676 0.08937999 0.24907981 0.21984375
000180 77 c6 00 3e ec a0 49 3e f6 85 1e 3e 2a 81 03 3e
       0.12575708 0.19690293 0.1548079 0.12842241
000190 e0 2b 89 3d 8f 3e f5 3d f4 9a 2d 3e d1 a9 db 3d
       0.066978216 0.11974823 0.16953641 0.10725749
0001a0 12 b0 7e 3e 45 b9 3e 3e 5f b8 10 3e 0d ab 9f 3e
       0.24871853 0.18625362 0.14132832 0.3118519
0001b0 89 a2 2c 3e 5a cf 4d 3e e3 5d 95 3e 53 45 65 3e
       0.16858877 0.2009863 0.29173192 0.22389726
0001c0 47 13 95 3e 6e 58 54 3e c5 d0 5f 3e 58 90 7b 3e
       0.2911627 0.20736858 0.21856983 0.24566782
0001d0 66 20 5b 3e 92 b8 64 3e 78 6e 05 3e b4 e7 2a 3e
       0.21399078 0.22336033 0.13030422 0.1668995
0001e0 a5 06 4e 3e 1a f7 50 3e f6 55 19 3e fd 42 41 3e
       0.20119722 0.20406762 0.14974198 0.1887321
0001f0 22 f1 50 3e 46 00 5c 3e 4b 46 9c 3d c3 0f 28 3e
       0.20404485 0.2148448 0.07630595 0.16412263
000200 91 fa 37 3e 1c a6 b2 3d 81 73 1f 3e 28 0f 46 3e
       0.17966677 0.08723089 0.15571405 0.19341719
000210 be 6e 54 3e 89 12 55 3e 1b e9 26 3e 97 0b 1b 3e
       0.2074537 0.20807852 0.1629986 0.1514114
000220 ce 89 1c 3e ed 94 4d 3e 1b b8 c5 3d 7d 0f 00 3e
       0.15286943 0.20076342 0.09654256 0.12505908
000230 ca a5 66 3e 4c af 2a 3e 65 8b 30 3e f3 6d 1f 3e
       0.22524181 0.16668433 0.17240675 0.15569286
000240 94 ca f1 3d 10 8e cc 3d 90 43 f6 3d c2 ce 75 3d
       0.11806217 0.09988034 0.12024605 0.060011633
000250 7b e8 00 3e c5 98 85 3d a5 d8 b2 3d ed 9f 08 3e
       0.12588684 0.06523279 0.08732728 0.13342257
000260 02 66 b1 3d ed 64 7e 3e 4f 2d 39 3e 14 5d 9d 3d
       0.086620346 0.24843188 0.1808369 0.07683769
000270 b6 61 22 3e 29 7b f1 3d 37 de 46 3e 7e f3 47 3e
       0.15857586 0.11791069 0.19420706 0.19526479
000280 7f f3 01 3e c7 9d 2a 3e da 16 a3 3d 7e 26 14 3e
       0.12690543 0.1666175 0.07963343 0.14467809
000290 bb 26 38 3e 9f 79 0e 3e 43 9b 14 3e 38 43 2a 3e
       0.17983525 0.13913582 0.14512353 0.16627204
0002a0 d9 0e 92 3d a5 88 d3 3d d3 b9 b4 3d 51 f2 9d 3d
       0.07131738 0.10328797 0.08824506 0.07712234
0002b0 3a bd 46 3e 5d cc b7 3d 40 2c b1 3d ee 3f d5 3d
       0.19408122 0.08974526 0.08651018 0.10412584
0002c0 27 70 02 3e ac 2e fb 3d 80 da 88 3d bb f3 e8 3d
       0.12738095 0.12264761 0.066823006 0.11374613
0002d0 98 86 ff 3d 33 3b cb 3d 30 24 23 3e 3c f1 86 3d
       0.124768436 0.09923401 0.15931773 0.065889806
0002e0 f9 51 04 3e 7a 40 40 3e b5 12 9f 3d c9 f1 1f 3e
       0.12921895 0.18774596 0.0776724 0.15619577
0002f0 cc cb aa 3d ce fb 56 3e 45 11 c5 3d 16 69 a5 3d
       0.083396524 0.20994493 0.096224345 0.08076684
000300 e7 54 d8 3d 3d 1a 00 3e 72 e2 e0 3d f2 4e 2e 3e
       0.10563069 0.12510009 0.10980691 0.17022303
000310 32 07 84 3d 74 18 7a 3d 1a b4 af 3d cf 97 8d 3d
       0.06446685 0.061058477 0.085792735 0.06913721
000320 06 5f 55 3d 21 bd 1b 3d 18 06 dc 3d b7 43 d6 3d
       0.052092575 0.038022164 0.1074335 0.10462134
000330 6b 89 9e bb b3 da 13 3e a3 be 19 3e cd 0c d6 3d
       -0.004838159 0.14438896 0.15014128 0.1045166
