pqc_reup_v1_output/model_params_epoch_120.pth (torch, 61385 bytes, 6 tensors)

reupload_weights f4 [12, 3, 4]
0.28658545 0.1608429 0.14768378 -0.18724297 0.25315824 -0.2656113 0.15684819 0.7070074
0.4093459 0.29239914 -0.17636439 -0.72963524 -0.15700436 -0.14381944 0.07841691 0.055337198
0.118635625 -0.93094075 -0.6601711 0.08842769 -0.115739696 0.062163163 -0.063877665 0.28719956
0.20621172 0.15075295 0.0994721 -0.013739007 0.81071687 -0.20076865 0.24670301 -0.8625258
0.22363941 0.15774183 0.66171473 -0.042599626 -0.11371181 -0.057858095 0.023073882 -0.10250915
0.4510112 0.94314295 0.12357262 -0.61363095 0.7106346 1.1459535 0.15316708 -0.3547117
-0.07979251 -0.054636244 0.18319246 0.067136556 1.0368629 0.9488483 -1.0055094 -0.652644
0.4784682 0.55180395 -1.0885026 -0.47048542 -0.041414797 0.09086601 -0.12164277 -0.09712763
0.3300201 0.19129226 -0.08984961 0.0869698 -0.2859944 -0.2765587 -0.8418616 -0.1505378
0.003974891 -0.11953522 -0.21552862 0.09467191 -0.17674045 -0.1272747 -0.13110276 0.12026375
0.28907654 0.35928872 0.44018835 0.35701236 0.1485834 0.13560177 0.08680064 -0.07778758
-0.37430355 -0.57248366 -0.06127643 0.39915162 -0.33192337 -0.3177921 0.54975015 0.5371856
-0.22498162 0.20597355 0.13599333 0.082346745 -0.13031152 0.62814724 0.74604124 0.28497878
-0.11762869 0.54955125 0.2799243 -0.1275373 -0.02690843 0.14051224 0.13792789 0.0720159
0.17342338 0.37751707 0.07997799 -0.654459 0.5400018 0.4814543 0.23067182 0.47184205
0.14378096 -0.57592964 -0.19571644 0.19445474 0.22189689 0.17047064 0.77347493 0.5768069
-0.754225 -0.98327345 -0.49750608 -0.68636566 -0.014631764 0.1320772 0.09081625 0.22313553
-1.4348885 0.038266607 0.08985198 -0.39167228 -1.2328391 0.39751482 0.39878854 0.111104816
00000000: 54bb 923e 00b4 243e 6b3a 173e 9fbc 3fbe
00000010: f59d 813e 34fe 87be d09c 203e 70fe 343f
00000020: c995 d13e 57b5 953e de98 34be 60c9 3abf
00000030: c0c5 20be 6745 13be 0b99 a03d 42a9 623d
00000040: 3cf7 f23d 2252 6ebf f900 29bf 9419 b53d
00000050: ef08 edbd cd9e 7e3d 4bd2 82bd d20b 933e
00000060: 2a29 533e fb5e 1a3e 07b8 cb3d 9219 61bc
00000070: 248b 4f3f 4c96 4dbe b79f 7c3e 7ece 5cbf
00000080: bb01 653e 1387 213e 2366 293f f27c 2ebd
00000090: bde1 e8bd 9cfc 6cbd 7005 bd3c 51f0 d1bd
000000a0: f1ea e63e d171 713f a413 fd3d eb16 1dbf
000000b0: 26ec 353f 9bae 923f d5d7 1c3e c69c b5be
000000c0: 416a a3bd 41ca 5fbd ce96 3b3e e47e 893d
000000d0: ecb7 843f b9e7 723f 88b4 80bf ad13 27bf
000000e0: c9f9 f43e 0643 0d3f 0e54 8bbf 77e3 f0be
000000f0: 90a2 29bd f517 ba3d d81f f9bd daea c6bd
00000100: 65f8 a83e 1ee2 433e 1303 b8bd 391d b23d
00000110: dc6d 92be 1a99 8dbe 3e84 57bf 9526 1abe
00000120: cd3f 823b e2ce f4bd 89b3 5cbe 59e3 c13d
00000130: 73fb 34be 4d54 02be cd3f 06be d74c f63d
00000140: d701 943e b1f4 b73e 5e60 e13e 53ca b63e
00000150: 3f26 183e 31db 0a3e 89c4 b13d 184f 9fbd
00000160: b7a4 bfbe 4a8e 12bf fefc 7abd 9a5d cc3e
00000170: dcf1 a9be a5b5 a2be 6dbc 0c3f ff84 093f
00000180: 9561 66be bbea 523e d641 0b3e 69a5 a83d
00000190: 6270 05be 42ce 203f 8ffc 3e3f bde8 913e
000001a0: 50e7 f0bd 64af 0c3f 3d52 8f3e 2399 02be
000001b0: 116f dcbc 71e2 0f3e f83c 0d3e 127d 933d
000001c0: e695 313e eb49 c13e 80cb a33d a08a 27bf
000001d0: 8f3d 0a3f 2e81 f63e 3c35 6c3e 4895 f13e
000001e0: 513b 133e 2070 13bf e469 48be 251f 473e
000001f0: f038 633e db8f 2e3e 7402 463f 9ea9 133f
00000200: e414 41bf cfb7 7bbf 1eb9 febe a9b5 2fbf
00000210: 11ba 6fbc 3f3f 073e dffd b93d a47d 643e
00000220: 6daa b7bf 72bd 1c3d 5104 b83d 4589 c8be
00000230: accd 9dbf 1087 cb3e 032e cc3e ec8a e33d

reupload_bias f4 [12, 3]
-0.54534787 0.21105485 -0.25918257 0.4963778 -0.2938609 0.3977589 -0.57011694 1.037779
0.033872355 0.54762614 0.7911729 1.6094309 -0.41534084 -0.27912945 0.28845802 0.4648801
0.19762233 -0.21915692 -0.113071084 -0.11514774 0.09736171 -0.7025527 -0.6157265 -0.12958027
0.4679879 0.6685564 -0.7372437 -0.54947895 -0.90604 0.6792338 0.19381705 0.13948482
-1.6810884 -0.5317732 -0.47141048 0.7634505
00000000: eb9b 0bbf c31e 583e 94b3 84be 3b25 fe3e
00000010: f074 96be 0ea7 cb3e 2ff3 11bf f1d5 843f
00000020: bdbd 0a3d 3a31 0c3f 4f8a 4a3f d501 ce3f
00000030: 8ea7 d4be 0eea 8ebe c5b0 933e c404 ee3e
00000040: 825d 4a3e ac6a 60be d091 e7bd 94d2 ebbd
00000050: 9465 c73d 7eda 33bf 40a0 1dbf b1b0 04be
00000060: 1c9c ef3e 8326 2b3f 01bc 3cbf a7aa 0cbf
00000070: 3df2 67bf 44e2 2d3f fa77 463e 1cd5 0e3e
00000080: e82d d7bf 4a22 08bf b75c f1be 7e71 433f

mlr.0.weight f4 [64, 12]
0.004212431 -0.017236283 0.06940076 0.080896474 -0.26219115 -0.10653202 0.24310184 0.11245483
-0.014358 -0.1740439 -0.17661291 -0.2585856 -0.23168296 -0.103427194 0.19022067 -0.047360092
-0.3842817 -0.56402427 -0.092647724 0.51699317 0.0409571 -0.20300134 0.26660535 -0.030954404
-0.24187844 0.15294129 -0.18539886 -0.11606978 -0.34642035 0.1375773 0.16228424 0.04856891
-0.25863707 -0.3401632 -0.28549567 0.15954512 0.1385946 0.24292141 0.1512282 0.073061414
-0.0028269046 -0.21953918 -0.24732882 -0.27001187 0.118172616 -0.14173025 -0.058096614 -0.16613406
0.0023089317 -0.22922346 -0.2815992 0.044025604 -0.033173233 0.17486969 -0.12270164 -0.38182575
-0.03113427 -0.17964573 -0.06704013 -0.42293411 0.022657696 -0.28241393 0.27464357 0.048144124
0.22992204 -0.54801995 0.31166068 -0.1773852 0.007695691 0.17115355 -0.03930856 -0.18798183
-0.03786033 -0.39552376 0.24293618 -0.40154842 0.28191197 0.17486385 0.4382352 -0.3238444
-0.23929794 0.06953141 0.1959582 -0.4774337 0.022336561 -0.323311 0.013199655 -0.27825487
-0.11564974 -0.2022257 -0.23967674 0.315807 0.43944937 -0.13851784 0.16302638 -0.0062479717
-0.23068729 -0.33549055 0.035786416 -0.24216153 -0.1406899 -0.0693608 -0.09305212 -0.31544563
0.017188864 -0.11999783 -0.016891588 -0.34982142 -0.47132316 0.39797533 -0.09661881 0.1028306
-0.20302343 0.06340018 0.30444556 0.21611136 -0.48008934 0.47052824 0.29899633 -0.11949037
-0.1374051 0.45491728 -0.096873134 0.2434625 -0.2741321 -0.057730127 0.14037693 0.19119385
-0.3738574 -0.23698941 -0.42558494 -0.3327224 -0.22275299 -0.07138861 0.19482026 0.04831909
-0.21956788 -0.23158209 0.14360873 -0.21472847 -0.035543837 0.1384792 -0.13360234 -0.03147711
-0.025127577 -0.06829573 -0.14636758 -0.25733608 -0.23335256 -0.15457447 0.27881333 -0.13943434
-0.19385342 0.06997318 0.079561844 0.15816791 0.45751855 0.11519531 -0.3255145 -0.0030685007
0.16855606 -0.099990025 -0.25130782 0.32786918 -0.06685938 -0.40746808 -0.28906366 0.24979271
0.06452448 0.14526863 -0.06452025 -0.28854364 -0.44677198 -0.028773474 0.17056446 0.3198461
-0.28449604 0.2381362 -0.14827657 -0.23138034 -0.03952368 0.097243726 0.21555114 -0.5175127
0.0014721696 -0.5810445 0.0037790644 0.37749133 -0.13882233 0.35096514 -0.15569943 -0.24649963
0.36283383 -0.106921785 -0.0038284971 -0.21591677 0.30850518 0.2228189 0.18445267 -0.51501274
-0.23155466 -0.0065671876 0.04401731 -0.29671308 -0.08077063 0.19496186 0.022995774 0.013024541
-0.071043104 -0.26142123 -0.27142894 -0.13799106 -0.14673975 0.08993778 -0.08403643 -0.112936094
0.6629535 0.22079009 0.18732657 -0.27783474 -0.12835485 0.23162612 -0.2979162 -0.39996985
0.030616315 -0.3183029 -0.24978967 0.25095364 0.511875 0.061706483 -0.19229768 -0.51890177
-0.2802594 0.055237554 -0.019142814 -0.05940749 -0.17498389 0.38155454 -0.17877544 0.14416888
-0.029029988 0.14131579 0.15647185 0.18603466 0.037519574 0.4436262 0.16463707 0.3399142
0.39598343 -0.11614889 -0.12758319 0.42153314 0.22620985 -0.22041711 -0.022315538 -0.28467014
00000000: 6f08 8a3b 1b33 8dbc fc21 8e3d 0dad a53d
00000010: eb3d 86be 762d dabd b0ef 783e b84e e63d
00000020: d13d 6bbc 9038 32be 04da 34be 5565 84be
00000030: 4c3e 6dbe a3d1 d3bd 35c9 423e a8fc 41bd
00000040: 92c0 c4be e563 10bf 17be bdbd aa59 043f
00000050: a2c2 273d 95df 4fbe 7f80 883e 1794 fdbc
00000060: fbae 77be a49c 1c3e 33d9 3dbe feb5 edbd
00000070: 025e b1be 10e1 0c3e d72d 263e 32f0 463d
00000080: 146c 84be df29 aebe 7d2c 92be cc5f 233e
00000090: beeb 0d3e 64c0 783e 91db 1a3e 39a1 953d
000000a0: 9743 39bb e1ce 60be c443 7dbe ff3e 8abe
000000b0: 7c04 f23d bc21 11be b7f6 6dbd 0c1f 2abe
000000c0: 7251 173b 8eb9 6abe c52d 90be 3154 343d
000000d0: a8e0 07bd 0a11 333e ff4a fbbd aa7e c3be
000000e0: 4c0d ffbc 0df5 37be 564c 89bd d28a d8be
000000f0: a29c b93c 8f98 90be 159e 8c3e c632 453d
00000100: af70 6b3e 094b 0cbf fd91 9f3e 77a4 35be
00000110: 232c fc3b e042 2f3e 0302 21bd 4f7e 40be
00000120: 6f13 1bbd 1782 cabe 43c4 783e c197 cdbe
00000130: c456 903e 820f 333e 5d60 e03e efce a5be
00000140: 850a 75be 7c66 8e3d 44a9 483e 3172 f4be
00000150: 2afb b63c 0589 a5be 5e43 583c 6c77 8ebe
00000160: c5d9 ecbd 4114 4fbe d26d 75be 75b1 a13e
00000170: 82ff e03e 9fd7 0dbe 63f0 263e c9bb ccbb
00000180: 4a39 6cbe 6bc5 abbe c794 123d 31f9 77be
00000190: 0311 10be 090d 8ebd 1c92 bebd 1782 a1be
000001a0: a9cf 8c3c 6cc1 f5bd 3a60 8abc cb1b b3be
000001b0: 4551 f1be 6cc3 cb3e 15e0 c5bd da98 d23d
000001c0: 60e5 4fbe f4d7 813d 4ae0 9b3e 4c4c 5d3e
000001d0: 45ce f5be 14e9 f03e 0c16 993e 5eb7 f4bd
000001e0: ecb3 0cbe ebea e83e 6c65 c6bd 3c4e 793e
000001f0: 0b5b 8cbe 6d76 6cbd f8be 0f3e 52c8 433e
00000200: 3d6a bfbe 5aad 72be 45e6 d9be 975a aabe
00000210: 5c19 64be 3134 92bd f67e 473e 3dea 453d
00000220: 67d6 60be db23 6dbe 2b0e 133e c8e1 5bbe
00000230: 6a96 11bd 7ecd 0d3e 0dcf 08be 24ee 00bd
00000240: 59d8 cdbc a2de 8bbd 62e1 15be 8ec1 83be
00000250: f9f3 6ebe c548 1ebe 9fc0 8e3e e0c7 0ebe
00000260: 8381 46be 194e 8f3d 52f1 a23d c5f6 213e
00000270: df3f ea3e 85eb eb3d d6a9 a6be e618 49bb
00000280: f699 2c3e 92c7 ccbd 6bab 80be 78de a73e
00000290: 92ed 88bd a89f d0be 2700 94be a9c9 7f3e
000002a0: 6925 843d 4dc1 143e 3123 84bd febb 93be
000002b0: 4cbf e4be 59b6 ebbc 73a8 2e3e dec2 a33e
000002c0: 77a9 91be fad9 733e d0d5 17be f8ee 6cbe
000002d0: 95e3 21bd b827 c73d 70b9 5c3e b67b 04bf
000002e0: d1f5 c03a 55bf 14bf 2eaa 773b 8b46 c13e
000002f0: 7127 0ebe b4b1 b33e ac6f 1fbe 666a 7cbe
00000300: 5bc5 b93e cff9 dabd 86e7 7abb 4919 5dbe
00000310: 64f4 9d3e a32a 643e 29e1 3c3e e0d7 03bf
00000320: aa1c 6dbe 9031 d7bb 7f4b 343d c7ea 97be
00000330: 126b a5bd 15a4 473e a261 bc3c e264 553c
00000340: 0c7f 91bd 01d9 85be bcf8 8abe 874d 0dbe
00000350: f242 16be 4c31 b83d 4b1b acbd 0a4b e7bd
00000360: 52b7 293f cc16 623e 89d2 3f3e 5b40 8ebe
00000370: 746f 03be 662f 6d3e 7988 98be d9c8 ccbe
00000380: 11cf fa3c 99f8 a2be ddc8 7fbe ff7c 803e
00000390: 3d0a 033f f0bf 7c3d afe9 44be bfd6 04bf
000003a0: 297e 8fbe c640 623d 64d1 9cbc 4555 73bd
000003b0: fa2e 33be 1e5b c33e e910 37be 02a1 133e
000003c0: 4cd0 edbc 16b5 103e 283a 203e df7f 3e3e
000003d0: 20ae 193d f922 e33e 9f96 283e 3c09 ae3e
000003e0: 57be ca3e 78df edbd 2ba5 02be 31d3 d73e
000003f0: 8ea3 673e 06b5 61be 13cf b6bc 49c0 91be

mlr.0.bias f4 [64]
-0.07937846 0.19339244 0.027739841 -0.050336607 0.14035124 -0.07573316 0.12777174 0.09815464
0.16241336 -0.0027606904 0.13918467 -0.04167602 -0.11238604 0.12538089 0.19781737 0.14870441
0.07714107 -0.09840758 0.07286615 0.14417611 -0.1334857 -0.035763077 -0.059593476 0.17457221
0.016116375 -0.028035976 -0.024149736 -0.007038464 -0.069673 -0.11413992 0.06632091 -0.14529438
-0.063371874 0.02722968 -0.008457665 -0.27155265 0.19556817 -0.13112533 -0.15892498 0.022415562
-0.1506486 -0.068887495 -0.097269066 -0.024615962 -0.12056155 -0.04893398 0.006001373 -0.2336011
-0.17472936 0.0042121904 -0.011940182 0.06397753 -0.094798595 0.20681068 0.047064178 0.047062688
-0.14215507 -0.19405584 -0.07407603 -0.056058988 0.095008746 -0.043104697 0.14018661 -0.16945413
00000000: 2d91 a2bd ab08 463e aa3e e33c c22d 4ebd
00000010: 3cb8 0f3e fd19 9bbd 98d6 023e 4d05 c93d
00000020: b04f 263e b3ec 34bb 6d86 0e3e 79b4 2abd
00000030: a72a e6bd d963 003e a390 4a3e f845 183e
00000040: 23fc 9d3d ea89 c9bd d93a 953d e7a2 133e
00000050: 7ab0 08be 4e7c 12bd 4a18 74bd 0fc3 323e
00000060: 7d06 843c b4ab e5bc abd5 c5bc eaa2 e6bb
00000070: b8b0 8ebd 31c2 e9bd 42d3 873d 0dc8 14be
00000080: 1dc9 81bd c710 df3c 0592 0abc f308 8bbe
00000090: 0643 483e b845 06be 3bbd 22be d7a0 b73c
000000a0: a043 1abe e314 8dbd 0135 c7bd 6aa7 c9bc
000000b0: f9e8 f6bd ff6e 48bd 2aa7 c43b 2035 6fbe
000000c0: 41ec 32be 6a06 8a3b c1a0 43bc a706 833d
000000d0: c425 c2bd 2ec6 533e 5ec6 403d cec4 403d
000000e0: 1991 11be 93b6 46be 2cb5 97bd 1c9e 65bd
000000f0: f293 c23d 8d8e 30bd 148d 0f3e 6285 2dbe

mlr.2.weight f4 [208, 64]
0.018994987 0.40548423 0.045872785 -0.054672375 -0.21452162 0.4497781 -0.14048757 -0.11391861
-0.21656822 0.48815945 0.5044299 -0.013706058 -0.10063428 -0.06111357 0.1985839 0.48556075
-0.2982087 -0.05848989 -0.5722091 -0.2269801 0.1558898 -0.06024313 0.15073335 -0.066944726
-0.061820384 0.07529206 0.1230526 0.06274175 -0.017339434 0.10685564 0.03820724 -0.10527857
-0.04429257 0.073161185 0.031202381 0.11928755 0.16282839 0.06760791 -0.06894484 0.16411117
0.090194285 0.28191355 0.09000641 0.24680339 0.0024329573 0.45042697 1.0147685 0.054429352
-0.040175244 -0.002098918 -0.11008343 -0.6002377 -0.053675253 -0.23380291 -0.07220105 0.7948247
0.19948308 0.11076987 0.24863316 0.12593773 -0.40874964 -0.12362622 -0.036283486 0.07003924
-0.107314005 0.22371118 0.098302506 0.0075720698 -0.28459314 0.3944576 -0.0786537 0.08216094
-0.40562737 0.52933913 0.12109635 0.12368679 -0.052962467 -0.10573636 0.16299386 0.23431681
-0.27705655 0.05134192 -0.6709221 -0.1928352 0.18211758 0.09794232 0.012469524 0.04347296
0.48747984 0.12063999 0.07481128 0.13891533 -0.061217885 0.011945207 0.09756775 -0.07333222
0.21099669 -0.12012197 0.49808684 0.12461425 0.22145733 0.042622343 -0.11173847 0.23664506
-0.021380946 0.45139515 0.12339535 0.10763937 -0.008843452 0.5163389 0.68564713 -0.088436246
0.020327166 -0.016731739 0.029783415 0.07112397 -0.019882478 -0.18874487 -0.051653147 0.16791195
0.28171065 -0.096949294 0.0382204 0.18525544 -0.072896026 0.0231954 -0.13762812 0.018850565
0.120442525 0.54303944 -0.109130494 0.11410265 -0.17445038 0.55822414 -0.06158923 -0.07247048
-0.34247893 0.58893144 0.47098276 0.009370759 -0.08734545 -0.17740557 0.30852887 0.48816565
-0.34168923 0.009858817 -0.44921282 -0.23657764 0.2730931 0.05003093 0.1652407 -0.0629654
0.29501182 0.18050277 -0.109016314 -0.007069843 0.017377008 0.13604483 0.2520741 -0.028682351
0.058754213 0.08132695 -0.026083782 0.10010758 0.19314419 -0.09593727 -0.08802503 0.064252734
-0.06850253 0.32631612 -0.009408683 0.1563936 -0.06315607 0.4218418 0.88073677 0.12262978
-0.046328604 -0.089500114 0.051755037 -0.54670465 0.10174101 -0.20154095 0.12804675 0.57181895
0.24236152 0.16977365 0.10391856 0.1880054 -0.15642136 0.0013688952 -0.01928751 -0.04370269
-0.109022975 -0.23331302 0.047647297 -0.08169487 -0.19514993 0.27158198 -0.18730985 0.17338926
-0.29341042 -0.035306554 0.10817777 0.02130197 0.033989847 0.038184218 -0.11861984 -0.24738541
-0.17788246 0.03408824 -0.29508188 -0.1403374 0.1685206 -0.004552081 0.002096817 -0.0065910965
0.730392 -0.070759974 -0.11552875 0.06832308 -0.056378633 0.11182378 0.57098895 -0.12399177
0.0664194 -0.0119724125 0.3839239 0.114847556 0.22629613 0.08030215 0.039277438 0.0068805683
0.029373258 0.61837685 -0.08176258 0.046457317 0.12235613 0.43900028 0.5289042 0.075218126
-0.015991509 -0.12324117 0.0072223996 0.35740477 -0.06508778 -0.11905302 -0.10871454 -0.20439543
0.3645432 0.036536142 0.095316745 0.047782082 -0.09513991 -0.031234175 -0.094277576 -0.069560766
00000000: 609b 9b3c a19b cf3e 1ae5 3b3d 24f0 5fbd
00000010: 8eab 5bbe 5149 e63e f9db 0fbe 294e e9bd
00000020: 0fc4 5dbe 09f0 f93e 5122 013f 608f 60bc
00000030: 5819 cebd 3952 7abd 9459 4b3e 6b9b f83e
00000040: d0ae 98be 1893 6fbd 4c7c 12bf 796d 68be
00000050: 93a1 1f3e 80c1 76bd d859 1a3e 511a 89bd
00000060: 5f37 7dbd b932 9a3d 0003 fc3d bf7e 803d
00000070: 6e0b 8ebc 21d7 da3d 327f 1c3d 4a9c d7bd
00000080: 206c 35bd 88d5 953d 239c ff3c 084d f43d
00000090: 7cbc 263e 0476 8a3d f432 8dbd c20c 283e
000000a0: c8b7 b83d f956 903e 4855 b83d 07ba 7c3e
000000b0: 4072 1f3b 5d9e e63e efe3 813f 50f1 5e3d
000000c0: cc8e 24bd 008e 09bb 6c73 e1bd 2ea9 19bf
000000d0: 95da 5bbd 086a 6fbe 25de 93bd a279 4b3f
000000e0: 4b45 4c3e 50db e23d b199 7e3e d2f5 003e
000000f0: a247 d1be be2f fdbd fe9d 14bd bc70 8f3d
00000100: 72c7 dbbd 8b14 653e d352 c93d 201f f83b
00000110: 31b6 91be 59f6 c93e 3115 a1bd ff43 a83d
00000120: 64ae cfbe c582 073f 5d01 f83d 804f fd3d
00000130: 2cef 58bd 4e8c d8bd dde7 263e bff0 6f3e
00000140: 5bda 8dbe e84b 523d 8dc1 2bbf 9776 45be
00000150: 087d 3a3e fc95 c83d f94c 4c3c b410 323d
00000160: f596 f93e 1912 f73d a836 993d d23f 0e3e
00000170: 9bbf 7abd d4b5 433c 9ad1 c73d 342f 96bd
00000180: 840f 583e 8202 f6bd 3d05 ff3e c235 ff3d
00000190: b6c5 623e c494 2e3d 24d7 e4bd 1553 723e
000001a0: 1827 afbc 441d e73e b4b6 fc3d 0872 dc3d
000001b0: 20e4 10bc c92e 043f 9286 2f3f 101e b5bd
000001c0: 2885 a63c 0011 89bc 59fc f33c 72a9 913d
000001d0: 94e0 a2bc 5646 41be 4092 53bd 1cf1 2b3e
000001e0: 613c 903e 5a8d c6bd ff8c 1c3d 9ab3 3d3e
000001f0: 834a 95bd 4804 be3c 63ee 0cbe 806c 9a3c
00000200: 92aa f63d a204 0b3f cf7f dfbd a6ae e93d
00000210: 1fa3 32be c7e7 0e3f fd44 7cbd 676b 94bd
00000220: 6659 afbe 36c4 163f a724 f13e d087 193c
00000230: 2ce2 b2bd cea9 35be 7ff7 9d3e d9f0 f93e
00000240: e4f1 aebe e086 213c 39ff e5be 6941 72be
00000250: dcd2 8b3e 3ced 4c3d dc34 293e 01f4 80bd
00000260: ca0b 973e b8d5 383e f243 dfbd 24aa e7bb
00000270: 3a5a 8e3c 564f 0b3e db0f 813e 40f7 eabc
00000280: 42a8 703d be8e a63d a8ad d5bc 3405 cd3d
00000290: 97c7 453e c27a c4bd 7846 b4bd f096 833d
000002a0: 0e4b 8cbd e812 a73e e026 1abc a525 203e
000002b0: f857 81bd a6fb d73e f777 613f 5225 fb3d
000002c0: 10c3 3dbd d64b b7bd 17fd 533d d6f4 0bbf
000002d0: 975d d03d c060 4ebe b01e 033e ba62 123f
000002e0: 9e2d 783e 25d9 2d3e 41d3 d43d 7d84 403e
000002f0: ec2c 20be 806c b33a d700 9ebc 9801 33bd
00000300: 7047 dfbd 9ce9 6ebe d029 433d a44f a7bd
00000310: 62d5 47be cb0c 8b3e 27ce 3fbe f48c 313e
00000320: e439 96be 9b9d 10bd 4f8c dd3d 7881 ae3c
00000330: f038 0b3d 0e67 1c3d f5ee f2bd 9a52 7dbe
00000340: d226 36be 1ca0 0b3d f914 97be 9bb4 0fbe
00000350: aa90 2c3e a029 95bb c06a 093b 20fa d7bb
00000360: f8fa 3a3f 9bea 90bd 569a ecbd f9ec 8b3d
00000370: 48ed 66bd de03 e53d 552c 123f 66ef fdbd
00000380: e506 883d f027 44bc ac91 c43e 3235 eb3d
00000390: 2cba 673e 7475 a43d 61e1 203d 6476 e13b
000003a0: 30a0 f03c f24d 1e3f 2473 a7bd 074a 3e3d
000003b0: da95 fa3d a5c4 e03e 4466 073f f60b 9a3d
000003c0: a000 83bc de65 fcbd e1a9 ec3b c2fd b63e
000003d0: be4c 85bd 12d2 f3bd bba5 debd 094d 51be
000003e0: 68a5 ba3e eca6 153d 6d35 c33d 25b7 433d
000003f0: b7d8 c2bd d0de ffbc 9a14 c1bd e075 8ebd

mlr.2.bias f4 [208]
0.103458405 0.10425583 0.0066393963 0.13171083 0.14948992 0.12914412 0.14196992 0.031820003
0.07932403 0.13152127 0.095990226 0.052433666 0.09072068 -0.030078517 0.0055437856 0.049100246
0.10503532 0.06105419 -0.029096255 0.05041783 0.08773594 0.058363315 0.124874055 0.06720497
0.114193775 0.08981727 0.082449175 0.13468446 0.08159078 0.1247473 0.07146812 0.09660874
0.10867314 -0.0072726607 0.057794873 0.024506867 0.049006805 0.057009973 0.08591897 -0.022667464
0.025141772 0.07890891 0.039009344 0.060972385 -0.027100086 0.14542128 0.028174005 0.07526473
0.053812813 0.1453989 0.11400661 0.04926884 0.15695365 0.1836796 0.070585996 0.11657095
0.10695172 0.12623292 0.13042049 0.14418955 0.113057025 0.13399652 0.07935174 0.15756537
0.06868881 0.031004915 0.095846534 0.0075838994 0.014688649 -0.012575886 0.09625738 0.12452018
0.11259057 0.07842736 0.024452798 0.11846269 0.0718838 0.10292563 0.16413939 0.17766753
0.17182784 0.1393852 0.15077682 0.12650923 0.14661199 0.10210024 0.13435481 0.14124767
0.15738423 0.105013564 0.13006592 0.13877213 0.15034895 0.059466887 0.18824245 0.1616304
0.06913458 0.16186711 0.12855238 0.09782184 0.055737205 0.06792914 0.14549993 0.071815394
0.19782507 0.13820034 0.10289941 0.21659262 0.066125594 0.10787771 0.23978826 0.17368494
0.24351636 0.18357201 0.11725958 0.18285729 0.13908674 0.19221169 0.06372561 0.1396724
0.1347528 0.12471413 0.09990913 0.17147861 0.17253691 0.19036937 0.069702856 0.0937796
0.16089547 0.044770658 0.11252786 0.15116154 0.1902562 0.11727425 0.08267743 0.08251483
0.0930223 0.1662739 0.06365643 0.14206149 0.17063308 0.12576166 0.1428762 0.12046447
0.107928164 0.0891124 0.045163963 0.006508993 0.10378585 0.043517396 0.056081075 0.12556528
0.080026835 0.20397125 0.16583906 0.026033303 0.15648532 0.084354565 0.20986883 0.15866508
0.09605136 0.1583982 0.053301744 0.07099592 0.13474914 0.11628714 0.0722276 0.1055575
0.014854051 0.016561104 0.033022366 0.00041928526 0.11024327 0.01247843 0.0260885 0.051550895
0.13753277 0.16083266 0.12924531 0.086596355 0.12948157 0.08193072 0.17658862 0.05401309
0.14848535 0.16930051 0.051809892 0.15699263 0.08328403 0.12370546 0.045283724 0.060060482
0.03253233 0.055501208 0.072577715 0.10623624 0.008258642 -0.001869127 0.06364145 -0.014618646
-0.0014065148 -0.024188103 0.14311005 0.15022735 0.07420664 0.14481635 0.16376582 0.13339937
00000000: 00e2 d33d 1584 d53d 4b8f d93b 34df 063e
00000010: e313 193e 5b3e 043e 9060 113e b155 023d
00000020: a374 a23d 83ad 063e 8696 c43d afc4 563d
00000030: c4cb b93d 3967 f6bc a5a8 b53b 571d 493d
00000040: c21c d73d f513 7a3d 455b eebc ed82 4e3d
00000050: e7ae b33d 5f0e 6f3d f8bd ff3d c2a2 893d
00000060: 6dde e93d 1ef2 b73d 1ddb a83d b9ea 093e
00000070: 1119 a73d 837b ff3d e15d 923d ceda c53d
00000080: 0690 de3d 804f eebb 51ba 6c3d a0c2 c83c
00000090: 5cbb 483d 4a83 693d 49f6 af3d 1eb1 b9bc
000000a0: 1ef6 cd3c ff9a a13d 43c8 1f3d 2ebe 793d
000000b0: 0001 debc 51e9 143e 2ccd e63c 6524 9a3d
000000c0: d36a 5c3d 73e3 143e 4c7c e93d 20ce 493d
000000d0: 75b8 203e 8116 3c3e 648f 903d c0bc ee3d
000000e0: 8109 db3d 3443 013e f38c 053e 6da6 133e
000000f0: 718a e73d 6236 093e 2a83 a23d d158 213e
00000100: b8ac 8c3d 05fe fd3c 304b c43d 5c82 f83b
00000110: a9a8 703c 170b 4ebc 9722 c53d 7004 ff3d
00000120: e295 e63d 869e a03d 3c51 c83c 919c f23d
00000130: d037 933d acca d23d 2814 283e 7aee 353e
00000140: a3f3 2f3e feba 0e3e 3d65 1a3e a38b 013e
00000150: 7421 163e ee19 d13d 4f94 093e 3ba3 103e
00000160: 5529 213e 5a11 d73d 0030 053e 481a 0e3e
00000170: 13f5 193e 8d93 733d a1c2 403e 7182 253e
00000180: 6e96 8d3d 7ec0 253e 3ca3 033e d156 c83d
00000190: b24c 643d 6f1e 8b3d effd 143e f313 933d
000001a0: a892 4a3e 6484 0d3e edbc d23d 75ca 5d3e
000001b0: db6c 873d fdee dc3d 0e8b 753e 77da 313e
000001c0: 5a5c 793e 4dfa 3b3e ca25 f03d f13e 3b3e
000001d0: c16c 0e3e 24d3 443e 9382 823d 4806 0f3e
000001e0: a3fc 093e 1f6a ff3d 289d cc3d 1798 2f3e
000001f0: 84ad 303e 30f0 423e 5fc0 8e3d 850f c03d
00000200: c8c1 243e 7061 373d 0275 e63d 17ca 1a3e
00000210: 85d2 423e 7b2d f03d c952 a93d 89fd a83d
00000220: 7a82 be3d b543 2a3e 4d5e 823d 9178 113e
00000230: 70ba 2e3e aac7 003e 234e 123e 13b6 f63d
00000240: 7109 dd3d 9080 b63d d9fd 383d 6449 d53b
00000250: ad8d d43d 4c3f 323d 45b5 653d 2f94 003e
00000260: 1ce5 a33d d7dd 503e b7d1 293e cb43 d53c
00000270: b03d 203e 16c2 ac3d dbe7 563e 1979 223e
00000280: 93b6 c43d 2333 223e ee52 5a3d 4f66 913d
00000290: aefb 093e f427 ee3d 10ec 933d 882e d83d
000002a0: 685e 733c 27ab 873c 7642 073d 84d3 db39
000002b0: 39c7 e13d 5472 4c3c 8db7 d53c 0827 533d
000002c0: 64d5 0c3e 51b1 243e e258 043e 6e59 b13d
000002d0: d196 043e 4bcb a73d a6d3 343e d43c 5d3d
000002e0: 8b0c 183e 1d5d 2d3e 9c36 543d adc2 203e
000002f0: d190 aa3d 4a59 fd3d 6d7b 393d fb01 763d
00000300: 9f40 053d 3c55 633d a0a3 943d 6392 d93d
00000310: 414f 073c 7ffd f4ba 7356 823d 0c83 6fbc
00000320: ce5a b8ba 2126 c6bc 718b 123e 33d5 193e
00000330: a7f9 973d bd4a 143e 3ab2 273e d899 083e
