pqc_reup_v1_output/model_params_epoch_150.pth (torch, 61385 bytes, 6 tensors)

reupload_weights f4 [12, 3, 4]
0.2942793 0.12614317 0.16223149 -0.20717046 0.22062376 -0.43840834 0.24165843 0.6863305
0.5149864 0.14664006 -0.011605479 -0.7895696 -0.22047414 -0.10664164 0.09381498 -0.004189214
0.31193155 -0.9209614 -0.6329338 0.11550484 -0.28493088 0.11441243 0.17482917 0.27856177
0.26626742 0.1462297 0.090834334 -0.034664083 0.8445233 -0.28035387 0.15214694 -0.8851084
0.10012802 0.13147111 0.7202535 -0.062218074 -0.112101875 -0.061715145 0.007611692 -0.08367999
0.352583 0.93261474 0.115989506 -0.67296046 0.596598 1.1089123 0.04143963 -0.3933705
-0.05504217 -0.043100137 0.17303017 0.07751126 1.0684792 0.9903805 -1.1055622 -0.603405
0.41983607 0.5208922 -1.2158358 -0.5144283 -0.047656626 0.060523834 -0.09950539 -0.14510326
0.42057684 0.19511722 -0.19803794 0.124927305 -0.28964147 -0.32736963 -0.96387434 -0.054707576
-0.013435896 -0.061404265 -0.21871963 0.08075518 -0.17029962 -0.073077865 -0.12989038 0.27734455
0.33191964 0.382971 0.47088996 0.495517 0.1375351 0.10668756 0.10656826 -0.07476974
-0.35247132 -0.52831846 -0.19414896 0.38551942 -0.32205614 -0.20896368 0.59549654 0.46258968
-0.24962804 0.20338465 0.1412998 0.10348882 -0.17176944 0.56123936 0.757291 0.24122015
-0.05388304 0.63843745 0.120987125 -0.209664 -0.08377624 0.15700082 0.19513807 0.11313629
0.12053574 0.47217554 0.12920134 -0.62715155 0.42734748 0.48924685 0.2180579 0.56643945
0.16834329 -0.6180652 -0.21128187 0.24903654 0.29020768 0.25859076 0.76811504 0.5463355
-0.81890273 -1.0011957 -0.6158699 -0.6924542 -0.018654974 0.08176999 0.10012853 0.2741108
-1.4662563 0.030519256 0.10792986 -0.50501114 -1.2714726 0.3970902 0.4050165 0.019249866
00000000: c7ab 963e ad2b 013e 0320 263e 7e24 54be
00000010: 32eb 613e 0f77 e0be 4f75 773e 5bb3 2f3f
00000020: 26d6 033f d028 163e e824 3ebc 3c21 4abf
00000030: f9c3 61be ef66 dabd 1122 c03d ad45 89bb
00000040: 7eb5 9f3e 20c4 6bbf f307 22bf cd8d ec3d
00000050: 76e2 91be 1051 ea3d 6b06 333e a69f 8e3e
00000060: 3454 883e 3dbd 153e 5a07 ba3d edfb 0dbd
00000070: ae32 583f 8b8a 8fbe 68cc 1b3e 7796 62bf
00000080: eb0f cd3d 5da0 063e 8962 383f 61d8 7ebd
00000090: ab95 e5bd 05c9 7cbd 806b f93b 6a60 abbd
000000a0: c285 b43e d7bf 6e3f e88b ed3d 2347 2cbf
000000b0: a6ba 183f d7f0 8d3f 9abc 293d dc67 c9be
000000c0: e673 61bd c589 30bd d22e 313e 39be 9e3d
000000d0: edc3 883f 9489 7d3f 1083 8dbf c078 1abf
000000e0: c1f4 d63e 3159 053f 82a0 9bbf 93b1 03bf
000000f0: 9833 43bd d7e7 773d 7bc9 cbbd f395 14be
00000100: d955 d73e cfcc 473e 75ca 4abe e3d9 ff3d
00000110: e34b 94be fe9c a7be 78c0 76bf 0d15 60bd
00000120: 3b22 5cbc 0a83 7bbd 0af8 5fbe f962 a53d
00000130: 0663 2ebe d9a9 95bd fc01 05be 1b00 8e3e
00000140: 5ff1 a93e c614 c43e 7d18 f13e 67b4 fd3e
00000150: 00d6 0c3e 027f da3d 7640 da3d e120 99bd
00000160: 1f77 b4be e13f 07bf fcce 46be cd62 c53e
00000170: 8be4 a4be 93fa 55be 7672 183f 8ed8 ec3e
00000180: 7e9e 7fbe 1144 503e e5b0 103e f2f1 d33d
00000190: 54e4 2fbe 62ad 0f3f d3dd 413f 6a02 773e
000001a0: 76b4 5cbd a370 233f 19c8 f73d 29b2 56be
000001b0: e192 abbd d3c4 203e 46d2 473e 00b4 e73d
000001c0: 71db f63d fec0 f13e 5b4d 043e 018d 20bf
000001d0: 4acd da3e 907e fa3e 924a 5f3e 2d02 113f
000001e0: 2f62 2c3e 8539 1ebf 465a 58be 6f03 7f3e
000001f0: 1a96 943e 0266 843e 30a3 443f a5dc 0b3f
00000200: 9ca3 51bf 2e27 80bf a6a9 1dbf ae44 31bf
00000210: 51d2 98bc 0677 a73d 3010 cd3d 4058 8c3e
00000220: 49ae bbbf 8503 fa3c 550a dd3d 6948 01bf
00000230: 9dbf a2bf 684f cb3e 535e cf3e e5b1 9d3c

reupload_bias f4 [12, 3]
-0.54764664 0.20038119 -0.3284986 0.54263055 -0.3299661 0.41116554 -0.566908 1.0391691
0.027976166 0.5616462 0.87447536 1.7436475 -0.4443503 -0.31864053 0.3457236 0.5059263
0.22457363 -0.34423703 -0.12948608 -0.047532078 0.14477424 -0.72462004 -0.65360993 -0.18342246
0.4524127 0.7109096 -0.7108407 -0.59176004 -0.8431073 0.64669037 0.16303848 0.18678458
-1.7766519 -0.5673005 -0.45155224 0.9083039
00000000: 9232 0cbf ba30 4d3e f830 a8be d6e9 0a3f
00000010: 51f1 a8be 4a84 d23e e220 11bf 7e03 853f
00000020: 462e e53c 0cc8 0f3f 9edd 5f3f d72f df3f
00000030: e281 e3be da24 a3be af02 b13e 6384 013f
00000040: a1f6 653e d63f b0be 0098 04be ffb0 42bd
00000050: b33f 143e b380 39bf fb52 27bf 19d3 3bbe
00000060: a3a2 e73e 2cfe 353f a8f9 35bf 967d 17bf
00000070: e1d5 57bf 808d 253f 8ff3 263e 7544 3f3e
00000080: 5469 e3bf 9b3a 11bf db31 e7be 9b86 683f

mlr.0.weight f4 [64, 12]
0.004212431 -0.017236283 0.06940076 0.080896474 -0.26219115 -0.10653202 0.24310184 0.11245483
-0.014358 -0.1740439 -0.17661291 -0.2585856 -0.27628502 -0.10843004 0.20026527 -0.06554533
-0.4329029 -0.586397 -0.069052875 0.5411864 0.065853 -0.2443196 0.30584067 0.00065641414
-0.24187844 0.15294129 -0.18539886 -0.11606978 -0.34642035 0.1375773 0.16228424 0.04856891
-0.25863707 -0.3401632 -0.28549567 0.15954512 0.1385946 0.24292141 0.1512282 0.073061414
-0.0028269046 -0.21953918 -0.24732882 -0.27001187 0.118172616 -0.14173025 -0.058096614 -0.16613406
0.10547399 -0.21775219 -0.4344023 0.0018611744 -0.01848856 0.107954204 -0.19440638 -0.44500956
-0.042497233 -0.18978487 -0.04150384 -0.44134223 -0.038273986 -0.3443595 0.31745458 0.106854856
0.30049905 -0.7285039 0.3553927 -0.23652099 0.0486584 0.004484514 -0.07568095 -0.21981752
-0.028292183 -0.43938762 0.27034444 -0.43529758 0.3027016 0.21549377 0.43617925 -0.33741388
-0.23085915 0.104902685 0.16703963 -0.48227957 -0.032729015 -0.37628642 0.018867271 -0.32577237
-0.15555911 -0.17658965 -0.21202953 0.37312528 0.52204615 -0.18184099 0.20089921 0.0508706
-0.19365495 -0.41375303 -0.09737863 -0.24971187 -0.14327458 -0.2344425 -0.09103221 -0.39982334
0.016310757 -0.2182781 0.061552644 -0.40241608 -0.47982457 0.42720804 -0.07074769 0.10418523
-0.21352594 0.04353854 0.30706292 0.24096859 -0.504747 0.48450074 0.31700078 -0.12582512
-0.2038617 0.5005239 -0.087614834 0.27026984 -0.28191078 -0.12235704 0.15669078 0.17971739
-0.38229162 -0.27362758 -0.38518378 -0.3625152 -0.22275299 -0.07138861 0.19482026 0.04831909
-0.21956788 -0.23158209 0.14360873 -0.21472847 -0.035543837 0.1384792 -0.13360234 -0.03147711
-0.025127577 -0.06829573 -0.14636758 -0.25733608 -0.23335256 -0.15457447 0.27881333 -0.13943434
-0.19385342 0.06997318 0.079561844 0.15816791 0.53517693 0.11782664 -0.36389118 0.060951598
0.1976901 -0.16949332 -0.24940768 0.29837474 -0.13510507 -0.41303822 -0.29160494 0.26476505
0.06703669 0.18457197 -0.04733288 -0.30996135 -0.4763128 -0.05049641 0.17381023 0.3394653
-0.27869633 0.22338642 -0.09239701 -0.24618651 -0.03753481 0.20183119 0.25160336 -0.515965
-0.004336489 -0.64494073 -0.016171077 0.3647916 -0.09249654 0.37310544 -0.15892951 -0.3033396
0.40993044 -0.10513657 0.0055888724 -0.21220738 0.34192365 0.22443502 0.16066343 -0.55457973
-0.25816151 0.021824058 0.0010472417 -0.32226104 -0.08077063 0.19496186 0.022995774 0.013024541
-0.071043104 -0.26142123 -0.27142894 -0.13799106 -0.14673975 0.08993778 -0.08403643 -0.112936094
0.70846546 0.2884771 0.20198646 -0.28580254 -0.13398765 0.22933118 -0.32502759 -0.45524642
-0.004151979 -0.33904266 -0.26889944 0.2348673 0.5647796 0.07024321 -0.17919645 -0.52355003
-0.26811868 0.06063721 -0.025705574 -0.073015705 -0.18993068 0.41490033 -0.17964701 0.1437968
-0.07231071 0.11944356 0.17042583 0.17240247 -0.014428345 0.4427573 0.18897927 0.35713467
0.38840902 -0.14919266 -0.10911075 0.46224815 0.22620985 -0.22041711 -0.022315538 -0.28467014
00000000: 6f08 8a3b 1b33 8dbc fc21 8e3d 0dad a53d
00000010: eb3d 86be 762d dabd b0ef 783e b84e e63d
00000020: d13d 6bbc 9038 32be 04da 34be 5565 84be
00000030: 3b75 8dbe 9210 debd 5712 4d3e a13c 86bd
00000040: 73a5 ddbe 1d1e 16bf 986b 8dbd 318b 0a3f
00000050: f0dd 863d eb2e 7abe 2697 9c3e 3513 2c3a
00000060: fbae 77be a49c 1c3e 33d9 3dbe feb5 edbd
00000070: 025e b1be 10e1 0c3e d72d 263e 32f0 463d
00000080: 146c 84be df29 aebe 7d2c 92be cc5f 233e
00000090: beeb 0d3e 64c0 783e 91db 1a3e 39a1 953d
000000a0: 9743 39bb e1ce 60be c443 7dbe ff3e 8abe
000000b0: 7c04 f23d bc21 11be b7f6 6dbd 0c1f 2abe
000000c0: bf02 d83d 6efa 5ebe fa69 debe a6f2 f33a
000000d0: 5275 97bc 1817 dd3d 7712 47be 4bd8 e3be
000000e0: 9411 2ebd f756 42be eeff 29bd 9cf7 e1be
000000f0: 2fc5 1cbd e34f b0be 6889 a23e b8d6 da3d
00000100: 03db 993e 3b7f 3abf 08f6 b53e 8f32 72be
00000110: 084e 473d d4f2 923b 9dfe 9abd d817 61be
00000120: 02c5 e7bc 6af7 e0be 966a 8a3e 53df debe
00000130: b4fb 9a3e 66aa 5c3e e352 df3e 83c1 acbe
00000140: 5766 6cbe 38d7 d63d 700c 2b3e 59ed f6be
00000150: dc0e 06bd 9da8 c0be 898f 9a3c a3cb a6be
00000160: e34a 1fbe ebd3 34be 451e 59be 470a bf3e
00000170: d1a4 053f 8634 3abe 86b8 4d3e b15d 503d
00000180: 7c4d 46be 70d7 d3be 726e c7bd 78b4 7fbe
00000190: 92b6 12be b211 70be 186f babd a5b5 ccbe
000001a0: 239e 853c 4b84 5fbe a01e 7c3d 7b09 cebe
000001b0: 91ab f5be 03bb da3e 2ae4 90bd 115f d53d
000001c0: 8ba6 5abe 7855 323d 5a37 9d3e 78c0 763e
000001d0: 1937 01bf 7b10 f83e ed4d a23e 4dd8 00be
000001e0: 1fc1 50be 5622 003f 686f b3bd cf60 8a3e
000001f0: 9c56 90be 5496 fabd 8c73 203e d607 383e
00000200: babb c3be ea18 8cbe cf36 c5be 989b b9be
00000210: 5c19 64be 3134 92bd f67e 473e 3dea 453d
00000220: 67d6 60be db23 6dbe 2b0e 133e c8e1 5bbe
00000230: 6a96 11bd 7ecd 0d3e 0dcf 08be 24ee 00bd
00000240: 59d8 cdbc a2de 8bbd 62e1 15be 8ec1 83be
00000250: f9f3 6ebe c548 1ebe 9fc0 8e3e e0c7 0ebe
00000260: 8381 46be 194e 8f3d 52f1 a23d c5f6 213e
00000270: 5b01 093f 184f f13d f24f babe 62a8 793d
00000280: 466f 4a3e a88f 2dbe ba64 7fbe 93c4 983e
00000290: fc58 0abe bf79 d3be 3e4d 95be 498f 873e
000002a0: 884a 893d 6f00 3d3e 1fe0 41bd 41b3 9ebe
000002b0: 45df f3be 53d5 4ebd 4ffb 313e 65ce ad3e
000002c0: 49b1 8ebe 69bf 643e a53a bdbd 5118 7cbe
000002d0: 1abe 19bd d6ac 4e3e 28d2 803e 4816 04bf
000002e0: 1b19 8ebb d61a 25bf 3579 84bc f7c5 ba3e
000002f0: d36e bdbd ad07 bf3e 6bbe 22be 544f 9bbe
00000300: 67e2 d13e d851 d7bd dc22 b73b e44c 59be
00000310: 9e10 af3e 4bd2 653e f484 243e f0f8 0dbf
00000320: bf2d 84be 5ec8 b23c 9a43 893a 66ff a4be
00000330: 126b a5bd 15a4 473e a261 bc3c e264 553c
00000340: 0c7f 91bd 01d9 85be bcf8 8abe 874d 0dbe
00000350: f242 16be 4c31 b83d 4b1b acbd 0a4b e7bd
00000360: fe5d 353f 45b3 933e 8ad5 4e3e b654 92be
00000370: 0f34 09be cbd5 6a3e 046a a6be 0f16 e9be
00000380: 530d 88bb 0097 adbe 30ad 89be 0e81 703e
00000390: 6595 103f acdb 8f3d 467f 37be 6007 06bf
000003a0: da46 89be b95e 783d 7f94 d2bc 4289 95bd
000003b0: 307d 42be d16d d43e 63f5 37be 783f 133e
000003c0: a317 94bd d39e f43d 1c84 2e3e 468a 303e
000003d0: dd64 6cbc 16b1 e23e c883 413e 5bda b63e
000003e0: 8cdd c63e f6c5 18be 7575 dfbd caab ec3e
000003f0: 8ea3 673e 06b5 61be 13cf b6bc 49c0 91be

mlr.0.bias f4 [64]
-0.07937846 0.18149513 0.027739841 -0.050336607 0.1438115 -0.04460598 0.12463794 0.08777341
0.16798747 0.0076590334 0.12867221 -0.04167602 -0.11238604 0.122589946 0.17864704 0.14583851
0.078737326 -0.09840758 0.07219518 0.14623654 -0.12583002 -0.035763077 -0.04254078 0.14735343
0.014045762 -0.023284212 -0.024149736 -0.007038464 -0.069673 -0.090826556 0.061969522 -0.14529438
-0.063371874 0.02722968 0.0058634956 -0.27155265 0.1612861 -0.13112533 -0.15892498 0.02909155
-0.1506486 -0.058951315 -0.097269066 -0.014033997 -0.12056155 -0.044104 0.0013523672 -0.2336011
-0.17472936 0.0042121904 -0.011940182 0.062522575 -0.071595035 0.20096928 0.047064178 0.049292393
-0.12482759 -0.14970756 -0.04786896 -0.043057907 0.09218095 -0.043104697 0.18541072 -0.16945413
00000000: 2d91 a2bd dcd9 393e aa3e e33c c22d 4ebd
00000010: 5243 133e c3b4 36bd 2d42 ff3d 8cc2 b33d
00000020: e804 2c3e a1f8 fa3b a6c2 033e 79b4 2abd
00000030: a72a e6bd 7010 fb3d 40ef 363e b156 153e
00000040: 0941 a13d ea89 c9bd 11db 933d 08bf 153e
00000050: 96d9 00be 4e7c 12bd 3e3f 2ebd d1e3 163e
00000060: 3220 663c 88be bebc abd5 c5bc eaa2 e6bb
00000070: b8b0 8ebd 4603 babd c1d3 7d3d 0dc8 14be
00000080: 1dc9 81bd c710 df3c 9122 c03b f308 8bbe
00000090: 2f28 253e b845 06be 3bbd 22be 6751 ee3c
000000a0: a043 1abe ef76 71bd 0135 c7bd daee 65bc
000000b0: f9e8 f6bd 65a6 34bd ea41 b13a 2035 6fbe
000000c0: 41ec 32be 6a06 8a3b c1a0 43bc d60b 803d
000000d0: 6ba0 92bd e4ca 4d3e 5ec6 403d d2e6 493d
000000e0: 9ca5 ffbd f04c 19be 3e12 44bd 7d5d 30bd
000000f0: 5ec9 bc3d 8d8e 30bd 4fdc 3d3e 6285 2dbe

mlr.2.weight f4 [208, 64]
0.018994987 0.4849432 0.045872785 -0.054672375 -0.3141479 0.77850544 -0.20120071 -0.36291733
-0.29330623 0.51797587 0.4288513 -0.013706058 -0.10063428 -0.023690864 0.24082476 0.56400347
-0.3519006 -0.05848989 -0.58848035 -0.24409679 0.14889301 -0.06024313 0.15776065 0.02846108
-0.26776966 0.15365833 0.1230526 0.06274175 -0.017339434 0.1547537 0.031323742 -0.10527857
-0.04429257 0.073161185 -0.073115155 0.11928755 0.12644948 0.06760791 -0.06894484 0.14314151
0.090194285 0.26865506 0.09000641 0.2961864 0.0024329573 0.44938704 0.798488 0.054429352
-0.040175244 -0.002098918 -0.11008343 -0.6325719 -0.05288003 -0.25707474 -0.07220105 1.0280076
0.20789711 0.34921125 0.2722733 0.14380436 -0.49488074 -0.12362622 0.18384168 0.07003924
-0.107314005 0.32177526 0.098302506 0.0075720698 -0.589442 0.47683486 -0.068917565 0.21076538
-0.5754461 0.5717985 0.0929561 0.12368679 -0.052962467 -0.17855723 0.2403087 0.2275031
-0.37081325 0.05134192 -0.8281558 -0.17178163 0.2029763 0.09794232 -0.008224431 -0.10130232
0.63591295 0.04697092 0.07481128 0.13891533 -0.061217885 -0.024278888 -0.0037315707 -0.07333222
0.21099669 -0.12012197 0.56991965 0.12461425 0.27201003 0.042622343 -0.11173847 0.16836147
-0.021380946 0.57701 0.12339535 0.12931055 -0.008843452 0.57003665 0.65605336 -0.088436246
0.020327166 -0.016731739 0.029783415 0.24150687 -0.064169414 -0.19657178 -0.051653147 0.1535012
0.28898934 -0.15508148 0.034327596 0.17361061 -0.035382308 0.0231954 0.085546196 0.018850565
0.120442525 0.65431064 -0.109130494 0.11410265 -0.4070765 0.7383315 -0.08274508 -0.19518033
-0.53220755 0.64266086 0.49147904 0.009370759 -0.08734545 -0.2071288 0.38996348 0.57426757
-0.40873373 0.009858817 -0.4399781 -0.24237843 0.28545395 0.05003093 0.17970377 0.013535091
0.2217937 0.2612776 -0.109016314 -0.007069843 0.017377008 0.16348061 0.2529931 -0.028682351
0.058754213 0.08132695 -0.10233326 0.10010758 0.2207559 -0.09593727 -0.08802503 0.017324872
-0.06850253 0.37309626 -0.009408683 0.1810517 -0.06315607 0.43044356 0.79260755 0.12262978
-0.046328604 -0.089500114 0.051755037 -0.6222391 0.10349682 -0.23477261 0.12804675 0.7429005
0.2537926 0.25810763 0.1415021 0.18583822 -0.1610155 0.0013688952 0.17880934 -0.04370269
-0.109022975 -0.25144407 0.047647297 -0.08169487 -0.59322906 0.49705106 -0.17729217 0.18783471
-0.6317843 -0.019161275 0.061218023 0.02130197 0.033989847 0.047870293 -0.08303354 -0.26420167
-0.21104789 0.03408824 -0.45682847 -0.15732846 0.18835716 -0.004552081 -0.016675914 -0.10174069
0.8803795 -0.10635127 -0.11552875 0.06832308 -0.056378633 0.10606866 0.5587014 -0.12399177
0.0664194 -0.0119724125 0.4796415 0.114847556 0.37428242 0.08030215 0.039277438 -0.07903316
0.029373258 0.7334344 -0.08176258 0.048028555 0.12235613 0.4895087 0.49580613 0.075218126
-0.015991509 -0.12324117 0.0072223996 0.52908957 -0.0978013 -0.06229123 -0.10871454 -0.28106838
0.37819016 0.072664484 0.08290698 0.052263398 -0.104885735 -0.031234175 -0.05408831 -0.069560766
00000000: 609b 9b3c 7a4a f83e 1ae5 3b3d 24f0 5fbd
00000010: fed7 a0be 224c 473f 8f07 4ebe 4dd0 b9be
00000020: 3c2c 96be 119a 043f 6692 db3e 608f 60bc
00000030: 5819 cebd 5813 c2bc c49a 763e 8862 103f
00000040: 512c b4be 1893 6fbd a6a6 16bf 82f4 79be
00000050: 6977 183e 80c1 76bd 028c 213e 3627 e93c
00000060: 1b19 89be 9c58 1d3e 0003 fc3d bf7e 803d
00000070: 6e0b 8ebc c177 1e3e 534d 003d 4a9c d7bd
00000080: 206c 35bd 88d5 953d 66bd 95bd 084d f43d
00000090: f97b 013e 0476 8a3d f432 8dbd b093 123e
000000a0: c8b7 b83d 288d 893e 4855 b83d bea5 973e
000000b0: 4072 1f3b 0f16 e63e b669 4c3f 50f1 5e3d
000000c0: cc8e 24bd 008e 09bb 6c73 e1bd 3bf0 21bf
000000d0: bb98 58bd 4d9f 83be 25de 93bd c195 833f
000000e0: fbe2 543e d1cb b23e 6867 8b3e 7341 133e
000000f0: 0261 fdbe be2f fdbd fe40 3c3e bc70 8f3d
00000100: 72c7 dbbd babf a43e d352 c93d 201f f83b
00000110: ace5 16bf b323 f43e a724 8dbd e1d2 573e
00000120: 7050 13bf 6361 123f c55f be3d 804f fd3d
00000130: 2cef 58bd b5d7 36be 7c13 763e 93f6 683e
00000140: 3cdb bdbe e84b 523d 0502 54bf 86e7 2fbe
00000150: 05d9 4f3e fc95 c83d c4bf 06bc 9777 cfbd
00000160: 31cb 223f 9464 403d a836 993d d23f 0e3e
00000170: 9bbf 7abd 85e4 c6bc 5e8d 74bb 342f 96bd
00000180: 840f 583e 8202 f6bd 41e6 113f c235 ff3d
00000190: e644 8b3e c494 2e3d 24d7 e4bd f366 2c3e
000001a0: 1827 afbc edb6 133f b4b6 fc3d fc69 043e
000001b0: 20e4 10bc eced 113f 1df3 273f 101e b5bd
000001c0: 2885 a63c 0011 89bc 59fc f33c 944d 773e
000001d0: 416b 83bd 1d4a 49be 4092 53bd 6b2f 1d3e
000001e0: 69f6 933e aecd 1ebe 189b 0c3d fbc6 313e
000001f0: 0aed 10bd 4804 be3c d832 af3d 806c 9a3c
00000200: 92aa f63d e780 273f cf7f dfbd a6ae e93d
00000210: 556c d0be 4b03 3d3f 4176 a9bd 5add 47be
00000220: c13e 08bf 6c85 243f 24a3 fb3e d087 193c
00000230: 2ce2 b2bd 9219 54be 4ba9 c73e 3303 133f
00000240: 8c45 d1be e086 213c cf44 e1be 0d32 78be
00000250: 0527 923e 3ced 4c3d 4404 383e 49c2 5d3c
00000260: e31d 633e 2dc6 853e f243 dfbd 24aa e7bb
00000270: 3a5a 8e3c 7667 273e 5088 813e 40f7 eabc
00000280: 42a8 703d be8e a63d 1a94 d1bd 3405 cd3d
00000290: d60d 623e c27a c4bd 7846 b4bd e4ec 8d3c
000002a0: 0e4b 8cbd 7906 bf3e e026 1abc 9e65 393e
000002b0: f857 81bd 1963 dc3e 54e8 4a3f 5225 fb3d
000002c0: 10c3 3dbd d64b b7bd 17fd 533d 104b 1fbf
000002d0: 24f6 d33d 3b68 70be b01e 033e ba2e 3e3f
000002e0: 1bf1 813e af26 843e ede5 103e 604c 3e3e
000002f0: 3fe1 24be 806c b33a cc19 373e 9801 33bd
00000300: 7047 dfbd 47bd 80be d029 433d a44f a7bd
00000310: dcdd 17bf 7a7d fe3e 148c 35be be57 403e
00000320: 9ebc 21bf 1bf8 9cbc c0bf 7a3d 7881 ae3c
00000330: f038 0b3d a413 443d 7d0d aabd 7145 87be
00000340: f01c 58be 1ca0 0b3d 6ce5 e9be b61a 21be
00000350: b3e0 403e a029 95bb ed9b 88bc 6c5d d0bd
00000360: 8d60 613f b2ce d9bd 569a ecbd f9ec 8b3d
00000370: 48ed 66bd 873a d93d 0e07 0f3f 66ef fdbd
00000380: e506 883d f027 44bc 9293 f53e 3235 eb3d
00000390: f2a1 bf3e 7475 a43d 61e1 203d 23dc a1bd
000003a0: 30a0 f03c 5bc2 3b3f 2473 a7bd 97b9 443d
000003b0: da95 fa3d e2a0 fa3e 4dda fd3e f60b 9a3d
000003c0: a000 83bc de65 fcbd e1a9 ec3b 6a72 073f
000003d0: 0c4c c8bd 1725 7fbd bba5 debd 32e8 8fbe
000003e0: 24a2 c13e 1ed1 943d 22cb a93d 2512 563d
000003f0: 55ce d6bd d0de ffbc b48b 5dbd e075 8ebd

mlr.2.bias f4 [208]
0.108452275 0.10810307 0.024170967 0.14765549 0.17009397 0.15026154 0.16969688 0.045023352
0.07907591 0.1430689 0.09032756 0.059256792 0.0972218 -0.01930904 0.024065675 0.05796389
0.10462639 0.06998075 -0.0009638162 0.052103937 0.0873287 0.05727104 0.11408062 0.05185581
0.11800664 0.092268854 0.08082602 0.13736522 0.09470278 0.13713336 0.098537244 0.1180153
0.13006417 0.007521102 0.063677795 0.031782664 0.048660174 0.06327317 0.11084206 -0.015712427
0.021626862 0.07745169 0.058310535 0.088521935 -0.0037847476 0.14428346 0.03699311 0.07889741
0.05553936 0.13534355 0.12848808 0.061437726 0.16044046 0.18825501 0.07528587 0.13299753
0.10984102 0.14450768 0.14666787 0.15486212 0.113256864 0.14472906 0.08661461 0.16648617
0.093664765 0.04039365 0.098609954 0.014916112 0.0368541 0.02256113 0.13194875 0.13601552
0.11402999 0.08219745 0.027039768 0.099614725 0.08427971 0.10557019 0.16801657 0.1812892
0.17272091 0.15317826 0.15435234 0.15970083 0.14485064 0.1037466 0.14672656 0.14614809
0.1607359 0.12506972 0.14064798 0.16434993 0.16271871 0.07077158 0.19306365 0.16264181
0.08021076 0.17095596 0.14779307 0.10202229 0.06951819 0.05353422 0.15692541 0.07742233
0.19045018 0.13995232 0.11818358 0.23477395 0.08304985 0.15224063 0.26886433 0.19547275
0.27308202 0.21624 0.13358696 0.2101745 0.16827594 0.1958721 0.098333836 0.17062129
0.12138761 0.1390713 0.08869373 0.16942365 0.18448007 0.20004706 0.08177302 0.08222466
0.15431559 0.052334145 0.11203951 0.17749515 0.19428036 0.13205242 0.11263985 0.11797228
0.12572752 0.18931405 0.080050424 0.13818857 0.177812 0.1488831 0.1529548 0.12732503
0.12084664 0.0864145 0.05244021 0.01758986 0.112706825 0.05389948 0.07387191 0.13653171
0.08975792 0.20380946 0.18384933 0.059548117 0.16120528 0.10949314 0.20387505 0.15334213
0.10456112 0.16353142 0.0702565 0.10601576 0.15226707 0.12595472 0.083099455 0.1121047
0.02130698 0.033042714 0.05055721 0.018120693 0.12454302 0.024791636 0.02917163 0.075050645
0.13457508 0.15015335 0.11722524 0.071175076 0.10701332 0.098416284 0.16964707 0.071948424
0.14292806 0.15426335 0.05577768 0.15422751 0.087272495 0.17610906 0.070648015 0.0742112
0.033763446 0.07067703 0.07489174 0.10686353 0.017140493 0.009646419 0.07451058 -0.0030514526
0.0011973829 -0.011778471 0.12760285 0.12341616 0.058898784 0.120782964 0.14758676 0.11829894
00000000: 3a1c de3d 2465 dd3d 3102 c63c 0033 173e
00000010: 1d2d 2e3e 29de 193e 05c5 2d3e 686a 383d
00000020: 8df2 a13d a780 123e a8fd b83d 40b7 723d
00000030: 391c c73d fe2d 9ebc 6125 c53c 8b6b 6d3d
00000040: 5c46 d63d 1152 8f3d 9ca8 7cba f06a 553d
00000050: 64d9 b23d 0a95 6a3d 1aa3 e93d c266 543d
00000060: 77ad f13d 74f7 bc3d 1d88 a53d 78a9 0c3e
00000070: 88f3 c13d b06c 0c3e e5cd c93d 01b2 f13d
00000080: 8b2f 053e 9473 f63b 8169 823d 8a2e 023d
00000090: e44f 473d 5d95 813d 2901 e33d 59b7 80bc
000000a0: d12a b13c fe9e 9e3d 07d7 6e3d fd4a b53d
000000b0: 8709 78bb 0bbf 133e 1686 173d f794 a13d
000000c0: 3d7d 633d 8097 0a3e 6192 033e 20a6 7b3d
000000d0: 814a 243e ecc5 403e 7a2f 9a3d 8130 083e
000000e0: 54f4 e03d d2f9 133e 1a30 163e 2d94 1e3e
000000f0: 37f3 e73d db33 143e 0063 b13d 5a7b 2a3e
00000100: 50d3 bf3d d073 253d 04f4 c93d b562 743c
00000110: 53f4 163d 1ed2 b83c 931d 073e a747 0b3e
00000120: 8e88 e93d 2357 a83d 8182 dd3c ce02 cc3d
00000130: d79a ac3d 2f35 d83d 890c 2c3e e0a3 393e
00000140: c0dd 303e c3da 1c3e 8a0e 1e3e 9d88 233e
00000150: ba53 143e 1979 d43d 7d3f 163e d8a7 153e
00000160: f497 243e 4712 003e 0606 103e 594b 283e
00000170: bc9f 263e b1f0 903d 7ab2 453e 938b 263e
00000180: 8a45 a43d 140f 2f3e 1157 173e 10f1 d03d
00000190: 8e5f 8e3d b346 5b3d 0eb1 203e 998f 9e3d
000001a0: 5f05 433e a94f 0f3e 3c0a f23d 9568 703e
000001b0: 0a16 aa3d f8e4 1b3e 96a8 893e 022a 483e
000001c0: 68d1 8b3e 056e 5d3e 05cb 083e fc37 573e
000001d0: 8750 2c3e b292 483e 4063 c93d 59b7 2e3e
000001e0: 119a f83d b568 0e3e 0fa5 b53d 657d 2d3e
000001f0: 58e8 3c3e 23d9 4c3e 9d78 a73d 6765 a83d
00000200: e804 1e3e 545c 563d f874 e53d 4ac1 353e
00000210: 6ef1 463e c038 073e b9af e63d 739b f13d
00000220: b7be 003e 8bdb 413e 7af1 a33d 4e81 0d3e
00000230: 5914 363e d074 183e 2fa0 1c3e 7e61 023e
00000240: 717e f73d 16fa b03d 8ccb 563d 9c18 903c
00000250: d6d2 e63d b3c5 5c3d 284a 973d f8ce 0b3e
00000260: 00d3 b73d 6db3 503e 0043 3c3e bae8 733d
00000270: ff12 253e f03d e03d 9fc4 503e b805 1d3e
00000280: 2424 d63d c874 273e a4e2 8f3d ca1e d93d
00000290: e6eb 1b3e 46fa 003e 0c30 aa3d 2697 e53d
000002a0: fa8b ae3c cc57 073d 1415 4f3d d971 943c
000002b0: 6910 ff3d d417 cb3c 58f9 ee3c 27b4 993d
000002c0: 0dce 093e cdc1 193e c913 f03d 3dc4 913d
000002d0: cd29 db3d 7a8e c93d f6b7 2d3e b259 933d
000002e0: bc5b 123e 36f7 1d3e 2377 643d d1ed 1d3e
000002f0: ecbb b23d ef55 343e e8af 903d 0bfc 973d
00000300: 8a4b 0a3d 1ebf 903d d760 993d 44db da3d
00000310: 386a 8c3c 040c 1e3c 0199 983d e1fa 47bb
00000320: 81f1 9c3a 7dfa 40bc 52aa 023e 9dc1 fc3d
00000330: da3f 713d 0f5d f73d fc20 173e b746 f23d
