pqc_reup_v1_output/model_params_epoch_200.pth (torch, 61385 bytes, 6 tensors)

reupload_weights f4 [12, 3, 4]
0.21407785 0.08457001 0.17472564 -0.12766236 0.1743777 -0.7052425 0.44510627 0.69011384
0.6446313 0.03770609 0.2791956 -0.72807854 -0.24173623 -0.019902634 0.072664596 -0.07641028
0.57031024 -0.95892847 -0.60756975 0.15820564 -0.3335376 0.06745178 0.3473168 0.28703365
0.33632928 0.09526984 0.024317333 -0.022743821 0.7445115 -0.36866912 -0.03138844 -0.8813286
-0.13383108 0.24196438 0.77911365 -0.11339067 -0.16238466 -0.112892896 0.011499612 -0.08532396
0.23782687 0.8510495 0.14821762 -0.7365381 0.5411992 1.1184809 -0.16125645 -0.28190413
0.030372236 -0.06532556 0.13391578 0.04193734 0.99900836 0.9419656 -1.1234031 -0.50917715
0.37160182 0.40779763 -1.1435714 -0.37708905 -0.06593403 0.014497593 -0.09439808 -0.19662265
0.57973164 0.3078016 -0.29024875 0.13533369 -0.23658998 -0.3356675 -1.141027 0.0964069
-0.013706742 0.0082470095 -0.26765 0.048552748 -0.105823934 -0.003499698 -0.3267233 0.48194808
0.4159329 0.36410406 0.34770337 0.5573801 0.097360626 0.08699998 0.10303469 -0.026815085
-0.28951192 -0.6175063 -0.36806527 0.28261608 -0.32413667 0.07045139 0.79678804 0.22564752
-0.23125155 0.081322365 0.1721794 0.085112885 -0.15028839 0.38459557 0.69954294 0.13858801
0.12564819 0.7449505 -0.09062743 -0.25147235 -0.14530076 0.22356954 0.24183387 0.034389008
-0.1341771 0.6313928 0.2966105 -0.70863205 0.31487817 0.46685404 -0.0035176752 0.85988444
0.17666744 -0.6431336 -0.1616983 0.27000207 0.36128584 0.5893356 0.5666894 0.35975435
-0.984074 -0.92661315 -1.082806 -0.94678736 0.002895854 0.07591024 0.10736139 0.28329694
-1.3204185 0.28038234 0.0008301288 -0.7787206 -1.2864729 0.5916827 0.34908405 -0.18107018
00000000: 3937 5b3e 0b33 ad3d 47eb 323e ecb9 02be
00000010: 1190 323e c68a 34bf f8e4 e33e 4dab 303f
00000020: 8f06 253f b371 1a3d baf2 8e3e 5b63 3abf
00000030: b489 77be d90a a3bc 2dd1 943d fe7c 9cbd
00000040: daff 113f 567c 75bf b189 1bbf a900 223e
00000050: 71c5 aabe 2924 8a3d 82d3 b13e 13f6 923e
00000060: 5a33 ac3e d51c c33d 2535 c73c 4051 babc
00000070: 4e98 3e3f 33c2 bcbe 2a91 00bd c09e 61bf
00000080: 040b 09be 83c5 773e fe73 473f 5e39 e8bd
00000090: 2a48 26be 6434 e7bd de68 3c3c 54be aebd
000000a0: e388 733e 61de 593f 5cc6 173e c38d 3cbf
000000b0: 088c 0a3f 622a 8f3f 6920 25be bd55 90be
000000c0: 32cf f83c 68c9 85bd 3821 093e 7dc6 2b3d
000000d0: 03bf 7f3f a824 713f accb 8fbf 6f59 02bf
000000e0: 9842 be3e daca d03e 8c60 92bf d111 c1be
000000f0: 6c08 87bd 5087 6d3c c853 c1bd 7357 49be
00000100: 4b69 143f 2c98 9d3e 7c9b 94be ea94 0a3e
00000110: a544 72be 9cdc abbe 2c0d 92bf fb70 c53d
00000120: 3e92 60bc 771e 073c 6c09 89be 3fdf 463d
00000130: 38ba d8bd 305b 65bb 4748 a7be e6c1 f63e
00000140: 28f5 d43e d96b ba3e 2d06 b23e 76b0 0e3f
00000150: 0265 c73d 0c2d b23d da03 d33d 4fab dbbc
00000160: e83a 94be e514 1ebf 0d73 bcbe 0eb3 903e
00000170: 3ef5 a5be d248 903d 4dfa 4b3f 2510 673e
00000180: 35cd 6cbe 578c a63d cc4f 303e aa4f ae3d
00000190: 33e5 19be b6e9 c43e 3f15 333f 04ea 0d3e
000001a0: eba9 003e 13b5 3e3f e09a b9bd fcc0 80be
000001b0: b9c9 14be 6aef 643e 4ca3 773e 7ddb 0c3d
000001c0: b965 09be f5a2 213f 55dd 973e e968 35bf
000001d0: b637 a13e 7e07 ef3e cc88 66bb 6321 5c3f
000001e0: 4fe8 343e 67a4 24bf 3d94 25be b63d 8a3e
000001f0: 75fa b83e b3de 163f 8e12 113f b931 b83e
00000200: 46ec 7bbf 8536 6dbf 6399 8abf a860 72bf
00000210: 5ec8 3d3b d476 9b3d 4ae0 db3d 4c0c 913e
00000220: 7903 a9bf 468e 8f3e 009d 593a 3c5a 47bf
00000230: 25ab a4bf 8478 173f 25bb b23e 766a 39be

reupload_bias f4 [12, 3]
-0.550865 0.20547593 -0.4189942 0.5584558 -0.39302436 0.43899247 -0.5705346 0.9576963
0.12928402 0.54236054 0.9056938 1.9149805 -0.39556313 -0.38819697 0.47054064 0.55327934
0.23769134 -0.5212766 -0.115550816 0.00892422 0.20257069 -0.76021487 -0.70794433 -0.18870458
0.4851332 0.79294986 -0.59141606 -0.61111903 -0.7430559 0.7179182 0.21568988 0.37168035
-2.04082 -0.5844722 -0.686077 1.1126859
00000000: 7d05 0dbf 4868 523e 6886 d6be f6f6 0e3f
00000010: 7d3a c9be 9fc3 e03e 8e0e 12bf 962b 753f
00000020: 0863 043e 24d8 0a3f 8ddb 673f 151e f53f
00000030: 4087 cabe c1c1 c6be b4ea f03e b7a3 0d3f
00000040: 5c65 733e 6272 05bf e8a5 ecbd e436 123c
00000050: b16e 4f3e 719d 42bf d73b 35bf c63b 41be
00000060: 6163 f83e c3fe 4a3f 0b67 17bf 4c72 1cbf
00000070: e938 3ebf 7dc9 373f cfdd 5c3e e34c be3e
00000080: cb9c 02c0 f89f 15bf bea2 2fbf 7e6c 8e3f

mlr.0.weight f4 [64, 12]
0.004212431 -0.017236283 0.06940076 0.080896474 -0.26219115 -0.10653202 0.24310184 0.11245483
-0.014358 -0.1740439 -0.17661291 -0.2585856 -0.32376015 -0.053797964 0.24249798 -0.09289268
-0.5405467 -0.56420827 -0.01968139 0.56454885 0.09439937 -0.31916058 0.38624808 0.053652674
-0.24187844 0.15294129 -0.18539886 -0.11606978 -0.34642035 0.1375773 0.16228424 0.04856891
-0.25863707 -0.3401632 -0.28549567 0.15954512 0.1385946 0.24292141 0.1512282 0.073061414
-0.0028269046 -0.21953918 -0.24732882 -0.27001187 0.118172616 -0.14173025 -0.058096614 -0.16613406
0.13902421 -0.14253558 -0.5136246 -0.010526739 0.04342203 0.12676871 -0.24249804 -0.54616076
-0.13634284 -0.17429584 0.06786863 -0.38246056 -0.11739379 -0.31633982 0.3325382 0.2522582
0.38393128 -0.7921359 0.38050318 -0.22595936 0.09894917 -0.12566006 -0.16979973 -0.20042552
-0.058836993 -0.44081983 0.29962558 -0.48464447 0.29722026 0.2684576 0.4420976 -0.33856687
-0.24816339 0.11914712 0.15881993 -0.44073704 -0.15148333 -0.31035712 0.028230956 -0.42964345
-0.20964073 -0.043508064 -0.16473915 0.44541904 0.68353945 -0.28541544 0.21731776 0.019774588
-0.02740485 -0.54951847 -0.3408652 -0.32211694 -0.14049366 -0.43429515 -0.26110676 -0.4128702
0.02653242 -0.28689346 0.054891296 -0.37050873 -0.48251075 0.40967524 -0.056009263 0.08996787
-0.27055782 0.0025014076 0.30915254 0.2857101 -0.5762244 0.47124368 0.3725649 -0.059856486
-0.15231384 0.541277 -0.027697254 0.36720097 -0.3933233 -0.23147407 0.21653885 0.27590248
-0.38750777 -0.15983021 -0.2851994 -0.27526706 -0.22275299 -0.07138861 0.19482026 0.04831909
-0.21956788 -0.23158209 0.14360873 -0.21472847 -0.035543837 0.1384792 -0.13360234 -0.03147711
-0.025127577 -0.06829573 -0.14636758 -0.25733608 -0.23335256 -0.15457447 0.27881333 -0.13943434
-0.19385342 0.06997318 0.079561844 0.15816791 0.62986356 0.07741875 -0.4053651 0.16660872
0.2880457 -0.30267113 -0.2662653 0.24697186 -0.25811556 -0.3751514 -0.24454428 0.32764825
0.03542101 0.22297387 -0.008728389 -0.36849973 -0.58712816 0.02243393 0.21977915 0.40667233
-0.27858827 0.1685944 0.017273847 -0.20902139 -0.061152846 0.30513424 0.28822032 -0.49749956
-0.0063491673 -0.7006877 -0.020889917 0.38909054 0.065130144 0.40932104 -0.22406508 -0.47001886
0.46065012 -0.13014099 0.015099128 -0.20197716 0.40161583 0.19597356 0.13143139 -0.58934516
-0.33371273 0.074265964 -0.01367187 -0.27758136 -0.08077063 0.19496186 0.022995774 0.013024541
-0.071043104 -0.26142123 -0.27142894 -0.13799106 -0.14673975 0.08993778 -0.08403643 -0.112936094
0.73242503 0.33004516 0.23825432 -0.29499608 -0.13748576 0.22724445 -0.35471427 -0.5125815
-0.124581754 -0.39544806 -0.22902042 0.33908576 0.62481403 0.017937446 -0.13906305 -0.5127019
-0.27054635 0.023560505 -0.031356454 -0.08393479 -0.2900257 0.4539934 -0.15685102 0.219614
-0.16812855 0.105378166 0.17853002 0.12974921 -0.11774925 0.44946247 0.21246618 0.35392946
0.35223383 -0.21466418 -0.11160728 0.51308835 0.22620985 -0.22041711 -0.022315538 -0.28467014
00000000: 6f08 8a3b 1b33 8dbc fc21 8e3d 0dad a53d
00000010: eb3d 86be 762d dabd b0ef 783e b84e e63d
00000020: d13d 6bbc 9038 32be 04da 34be 5565 84be
00000030: e4c3 a5be 415b 5cbd 6451 783e 843e bebd
00000040: 4561 0abf f46f 10bf de3a a1bc 4686 103f
00000050: 7554 c13d 0469 a3be 4fc2 c53e e8c2 5b3d
00000060: fbae 77be a49c 1c3e 33d9 3dbe feb5 edbd
00000070: 025e b1be 10e1 0c3e d72d 263e 32f0 463d
00000080: 146c 84be df29 aebe 7d2c 92be cc5f 233e
00000090: beeb 0d3e 64c0 783e 91db 1a3e 39a1 953d
000000a0: 9743 39bb e1ce 60be c443 7dbe ff3e 8abe
000000b0: 7c04 f23d bc21 11be b7f6 6dbd 0c1f 2abe
000000c0: 5d5c 0e3e d9f4 11be e77c 03bf 5878 2cbc
000000d0: 4cdb 313d a8cf 013e 6851 78be 31d1 0bbf
000000e0: 759d 0bbe 9c7a 32be b5fe 8a3d dfd1 c3be
000000f0: 286c f0bd 4bf7 a1be 7242 aa3e fd27 813e
00000100: a492 c43e 6bc9 4abf 50d1 c23e e461 67be
00000110: dda5 ca3d 08ad 00be fbdf 2dbe 593c 4dbe
00000120: 0fff 70bd 23b3 e1be 8668 993e 5223 f8be
00000130: 412d 983e 4673 893e 9e5a e23e a358 adbe
00000140: 8b1e 7ebe 6803 f43d b1a1 223e 49a8 e1be
00000150: 721e 1bbe 21e7 9ebe 9b44 e73c 3afa dbbe
00000160: 0fac 56be 8335 32bd 61b1 28be f70d e43e
00000170: 71fc 2e3f f921 92be 8c88 5e3e 51fe a13c
00000180: 2380 e0bc 3ead 0cbf e285 aebe 83ec a4be
00000190: 92dd 0fbe ef5b debe c9af 85be b963 d3be
000001a0: 855a d93c b3e3 92be b2d5 603d 52b3 bdbe
000001b0: a60b f7be f4c0 d13e f869 65bd 1341 b83d
000001c0: 8e86 8abe a8ee 233b 3e49 9e3e 9848 923e
000001d0: 7183 13bf da46 f13e d4c0 be3e 132c 75bd
000001e0: 29f8 1bbe 2191 0a3f 5ae5 e2bc c401 bc3e
000001f0: ac61 c9be 8a07 6dbe 5cbc 5d3e 1743 8d3e
00000200: 6b67 c6be 88aa 23be a805 92be ceef 8cbe
00000210: 5c19 64be 3134 92bd f67e 473e 3dea 453d
00000220: 67d6 60be db23 6dbe 2b0e 133e c8e1 5bbe
00000230: 6a96 11bd 7ecd 0d3e 0dcf 08be 24ee 00bd
00000240: 59d8 cdbc a2de 8bbd 62e1 15be 8ec1 83be
00000250: f9f3 6ebe c548 1ebe 9fc0 8e3e e0c7 0ebe
00000260: 8381 46be 194e 8f3d 52f1 a23d c5f6 213e
00000270: bd3e 213f b98d 9e3d 048c cfbe 7a9b 2a3e
00000280: ba7a 933e b6f7 9abe ed53 88be 31e6 7c3e
00000290: b927 84be d813 c0be d169 7abe 83c1 a73e
000002a0: 9f15 113d 4353 643e 8401 0fbc ffab bcbe
000002b0: 084e 16bf 5cc7 b73c c90d 613e 5b37 d03e
000002c0: 1fa3 8ebe 03a4 2c3e e281 8d3c b409 56be
000002d0: 687b 7abd 8e3a 9c3e 9d91 933e 43b8 febe
000002e0: ad0c d0bb 4560 33bf 5521 abbc e036 c73e
000002f0: f462 853d 8792 d13e 5171 65be 50a6 f0be
00000300: 55da eb3e ae43 05be 5562 773c 1ad3 4ebe
00000310: 97a0 cd3e 4bad 483e f395 063e 53df 16bf
00000320: 65dc aabe c118 983d fbff 5fbc 251f 8ebe
00000330: 126b a5bd 15a4 473e a261 bc3c e264 553c
00000340: 0c7f 91bd 01d9 85be bcf8 8abe 874d 0dbe
00000350: f242 16be 4c31 b83d 4b1b acbd 0a4b e7bd
00000360: 3580 3b3f aefb a83e f1f8 733e ba09 97be
00000370: 11c9 0cbe c5b2 683e 1c9d b5be 8b38 03bf
00000380: b824 ffbd 2b78 cabe 5484 6abe a69c ad3e
00000390: d0f3 1f3f 8df1 923c 8b66 0ebe 6f40 03bf
000003a0: 0d85 8abe f601 c13c a06f 00bd 01e6 abbd
000003b0: 407e 94be d371 e83e 8e9d 20be 7ee2 603e
000003c0: e429 2cbe 82d0 d73d 93d0 363e fadc 043e
000003d0: 8526 f1bd f21f e63e bc90 593e 3e36 b53e
000003e0: fe57 b43e edd0 5bbe 5c92 e4bd c259 033f
000003f0: 8ea3 673e 06b5 61be 13cf b6bc 49c0 91be

mlr.0.bias f4 [64]
-0.07937846 0.16895618 0.027739841 -0.050336607 0.15554246 -0.078714594 0.113403484 0.082161784
0.20612259 0.026068307 0.091966234 -0.04167602 -0.11238604 0.11871341 0.16301137 0.12674254
0.05988755 -0.09840758 0.08897745 0.15575239 -0.106082976 -0.035763077 -0.01609485 0.124447145
0.009222506 -0.013011504 -0.024149736 -0.013945415 -0.069673 -0.087497346 0.055046577 -0.14529438
-0.063371874 0.02722968 0.026252097 -0.27155265 0.13282843 -0.13112533 -0.15892498 0.020282848
-0.1506486 -0.034748755 -0.097269066 0.0008874196 -0.12056155 -0.040640987 -0.004344641 -0.2336011
-0.17472936 -0.023490377 -0.011940182 0.07548083 -0.047237605 0.20237297 0.11145611 0.037058365
-0.11990591 -0.114125945 -0.0308687 -0.012892502 0.11489423 -0.043104697 0.18392473 -0.16945413
00000000: 2d91 a2bd d902 2d3e aa3e e33c c22d 4ebd
00000010: 8646 1f3e 1e35 a1bd 1640 e83d 7044 a83d
00000020: cd11 533e 348d d53c cb58 bc3d 79b4 2abd
00000030: a72a e6bd 0420 f33d 74ec 263e ccc8 013e
00000040: a64c 753d ea89 c9bd cf39 b63d 8e7d 1f3e
00000050: 0842 d9bd 4e7c 12bd 59d9 83bc 25de fe3d
00000060: fe19 173c 342e 55bc abd5 c5bc 4f7b 64bc
00000070: b8b0 8ebd cf31 b3bd 8578 613d 0dc8 14be
00000080: 1dc9 81bd c710 df3c a30e d73c f308 8bbe
00000090: 2d04 083e b845 06be 3bbd 22be 3728 a63c
000000a0: a043 1abe b654 0ebd 0135 c7bd b9a1 683a
000000b0: f9e8 f6bd 2a77 26bd 7e5d 8ebb 2035 6fbe
000000c0: 41ec 32be e46e c0bc c1a0 43bc b295 9a3d
000000d0: 387c 41bd dc3a 4f3e 1a43 e43d 83ca 173d
000000e0: 3b91 f5bd ddba e9bd 5be0 fcbc 133b 53bc
000000f0: ab4d eb3d 8d8e 30bd c456 3c3e 6285 2dbe

mlr.2.weight f4 [208, 64]
0.018994987 0.50799406 0.045872785 -0.054672375 -0.046302166 0.7753499 -0.28449342 -0.49400118
-0.25810382 0.40724558 0.52761143 -0.013706058 -0.10063428 -0.0062625282 0.15833622 0.6277003
-0.4198064 -0.05848989 -0.6121486 -0.31308955 0.16972017 -0.06024313 0.17714967 -0.1461524
-0.42641976 0.24711694 0.1230526 0.062180437 -0.017339434 0.24348012 0.06736481 -0.10527857
-0.04429257 0.073161185 -0.24785791 0.11928755 0.15690027 0.06760791 -0.06894484 0.27916723
0.090194285 0.30523598 0.09000641 0.4213336 0.0024329573 0.4312412 0.5661815 0.054429352
-0.040175244 -0.030318104 -0.11008343 -0.55210817 -0.04947459 -0.077737205 0.09128134 1.330215
0.23620656 0.32932392 0.3277468 0.15598807 -0.6630109 -0.12362622 0.30890477 0.07003924
-0.107314005 0.38133562 0.098302506 0.0075720698 -0.44672164 0.8190118 -0.094666004 0.42127076
-0.36535826 0.45693287 0.19510242 0.12368679 -0.052962467 -0.24736364 0.26251596 0.3441407
-0.4887819 0.05134192 -0.9267902 -0.17404167 0.23946434 0.09794232 -0.015089092 -0.01102246
0.7170777 0.1701726 0.07481128 0.13756987 -0.061217885 0.011852315 -0.02613065 -0.07333222
0.21099669 -0.12012197 0.48232204 0.12461425 0.3126352 0.042622343 -0.11173847 0.15007827
-0.021380946 0.67666423 0.12339535 0.16520199 -0.008843452 0.5645595 0.45342225 -0.088436246
0.020327166 0.0068908203 0.029783415 0.33842534 -0.092591204 -0.17711602 0.066002786 0.14614746
0.29901445 -0.3079237 0.06975111 0.17154045 -0.0727734 0.0231954 0.23279665 0.018850565
0.120442525 0.6730815 -0.109130494 0.11410265 -0.119084075 0.7934075 -0.1526462 -0.10871229
-0.3496508 0.48376665 0.57150865 0.009370759 -0.08734545 -0.26809382 0.35755575 0.7255242
-0.53361773 0.009858817 -0.39693898 -0.28102493 0.32645378 0.05003093 0.20089784 -0.103828914
0.13797818 0.5111124 -0.109016314 -0.008133769 0.017377008 0.2520349 0.26809844 -0.028682351
0.058754213 0.08132695 -0.32476518 0.10010758 0.20401695 -0.09593727 -0.08802503 0.021988926
-0.06850253 0.42761463 -0.009408683 0.22245133 -0.06315607 0.37307528 0.43729866 0.12262978
-0.046328604 -0.057432454 0.051755037 -0.6284055 0.11276103 -0.124401055 0.082982406 0.85261923
0.26803076 0.20619886 0.21292692 0.20575102 -0.23065902 0.0013688952 0.2638956 -0.04370269
-0.109022975 -0.26542628 0.047647297 -0.08169487 -0.4307394 0.76066023 -0.18012312 0.32207903
-0.46820423 -0.089411594 0.089144476 0.02130197 0.033989847 0.002617997 -0.0732858 -0.13100001
-0.2785427 0.03408824 -0.70014805 -0.20457663 0.19438845 -0.004552081 -0.02185003 0.002310513
0.9277545 0.044508196 -0.11552875 0.067149036 -0.056378633 0.13512924 0.54280335 -0.12399177
0.0664194 -0.0119724125 0.44124964 0.114847556 0.41450533 0.08030215 0.039277438 -0.045744617
0.029373258 0.78011215 -0.08176258 0.02017957 0.12235613 0.482592 0.5048196 0.075218126
-0.015991509 -0.0877975 0.0072223996 0.5414404 -0.12224177 -0.12006506 0.026444085 -0.33079714
0.37580445 -0.12007744 0.09746862 0.08196467 -0.24449727 -0.031234175 0.16179025 -0.069560766
00000000: 609b 9b3c e60b 023f 1ae5 3b3d 24f0 5fbd
00000010: 57a7 3dbd 557d 463f 1fa9 91be b9ed fcbe
00000020: 2f26 84be 7e82 d03e 8b11 073f 608f 60bc
00000030: 5819 cebd e535 cdbb e422 223e f8b0 203f
00000040: ddf0 d6be 1893 6fbd c5b5 1cbf 464d a0be
00000050: 20cb 2d3e 80c1 76bd b966 353e faa8 15be
00000060: b153 dabe 390c 7d3e 0003 fc3d eab0 7e3d
00000070: 6e0b 8ebc da52 793e 90f6 893d 4a9c d7bd
00000080: 206c 35bd 88d5 953d 77ce 7dbe 084d f43d
00000090: 77aa 203e 0476 8a3d f432 8dbd 02ef 8e3e
000000a0: c8b7 b83d e447 9c3e 4855 b83d 0ab9 d73e
000000b0: 4072 1f3b a6cb dc3e 45f1 103f 50f1 5e3d
000000c0: cc8e 24bd ac5d f8bc 6c73 e1bd f656 0dbf
000000d0: dea5 4abd af34 9fbd b6f1 ba3d 7c44 aa3f
000000e0: 22e0 713e 259d a83e 6ece a73e 56bb 1f3e
000000f0: 15bb 29bf be2f fdbd c428 9e3e bc70 8f3d
00000100: 72c7 dbbd 6c3e c33e d352 c93d 201f f83b
00000110: b3b8 e4be c2aa 513f 40e0 c1bd cdb0 d73e
00000120: 3d10 bbbe 1bf3 e93e eec8 473e 804f fd3d
00000130: 2cef 58bd e54c 7dbe 7e68 863e 3633 b03e
00000140: 9f41 fabe e84b 523d 1f42 6dbf fb37 32be
00000150: 2436 753e fc95 c83d 3d38 77bc 8c97 34bc
00000160: 6792 373f ba41 2e3e a836 993d 1edf 0c3e
00000170: 9bbf 7abd 3630 423c f20f d6bc 342f 96bd
00000180: 840f 583e 8202 f6bd eaf2 f63e c235 ff3d
00000190: b911 a03e c494 2e3d 24d7 e4bd 1eae 193e
000001a0: 1827 afbc de39 2d3f b4b6 fc3d b62a 293e
000001b0: 20e4 10bc f986 103f f626 e83e 101e b5bd
000001c0: 2885 a63c 64cc e13b 59fc f33c 1646 ad3e
000001d0: 75a0 bdbd e75d 35be 782c 873d aea7 153e
000001e0: 6c18 993e 2da8 9dbe acd9 8e3d 4da8 2f3e
000001f0: 380a 95bd 4804 be3c 3f62 6e3e 806c 9a3c
00000200: 92aa f63d 124f 2c3f cf7f dfbd a6ae e93d
00000210: 5ae2 f3bd c11c 4b3f 494f 1cbe 8da4 debd
00000220: 6e05 b3be 43b0 f73e 644e 123f d087 193c
00000230: 2ce2 b2bd 9843 89be 8c11 b73e f4bb 393f
00000240: 2c9b 08bf e086 213c 963b cbbe 80e2 8fbe
00000250: f324 a73e 3ced 4c3d 2ab8 4d3e 41a4 d4bd
00000260: 274a 0d3e 43d8 023f f243 dfbd 8043 05bc
00000270: 3a5a 8e3c b80a 813e 3344 893e 40f7 eabc
00000280: 42a8 703d be8e a63d 9f47 a6be 3405 cd3d
00000290: d2e9 503e c27a c4bd 7846 b4bd 1f22 b43c
000002a0: 0e4b 8cbd 4ef0 da3e e026 1abc 48ca 633e
000002b0: f857 81bd b903 bf3e 9ce5 df3e 5225 fb3d
000002c0: 10c3 3dbd 4b3e 6bbd 17fd 533d 2fdf 20bf
000002d0: 41ef e63d fbc5 febd aef2 a93d 4145 5a3f
000002e0: 543b 893e cb25 533e 8409 5a3e 65b0 523e
000002f0: e131 6cbe 806c b33a 531d 873e 9801 33bd
00000300: 7047 dfbd f4e5 87be d029 433d a44f a7bd
00000310: e089 dcbe a1ba 423f 3272 38be 8be7 a43e
00000320: 77b8 efbe 6d1d b7bd 6191 b63d 7881 ae3c
00000330: f038 0b3d b392 2b3b de16 96bd de24 06be
00000340: 269d 8ebe 1ca0 0b3d e73c 33bf 897c 51be
00000350: c40d 473e a029 95bb d6fe b2bc fa6b 173b
00000360: 5281 6d3f 3a4e 363d 569a ecbd 6f85 893d
00000370: 48ed 66bd 525f 0a3e 29f5 0a3f 66ef fdbd
00000380: e506 883d f027 44bc 79eb e13e 3235 eb3d
00000390: 0b3a d43e 7475 a43d 61e1 203d b55e 3bbd
000003a0: 30a0 f03c 6eb5 473f 2473 a7bd a04f a53c
000003b0: da95 fa3d 4c16 f73e db3b 013f f60b 9a3d
000003c0: a000 83bc 2dcf b3bd e1a9 ec3b d79b 0a3f
000003d0: e559 fabd ace4 f5bd 44a1 d83c 3e5e a9be
000003e0: 7169 c03e 29eb f5bd a19d c73d 18dd a73d
000003f0: 7e5d 7abe d0de ffbc 58ac 253e e075 8ebd

mlr.2.bias f4 [208]
0.10415645 0.107390925 0.009951306 0.1472416 0.14567398 0.13584423 0.1592797 0.052513845
0.08672069 0.16311808 0.123465575 0.07988936 0.10722686 -0.011320958 0.03202994 0.055666253
0.13684236 0.08691565 -0.0045301374 0.033667877 0.065110885 0.044250786 0.12178229 0.07777464
0.101504385 0.084709845 0.0925448 0.14440416 0.08416002 0.15099856 0.084208086 0.11207449
0.12921232 0.013240213 0.07777761 0.06468163 0.081895664 0.085788 0.10560414 0.0015899516
0.043016605 0.0789028 0.07458126 0.087055765 0.0003587306 0.12423944 0.022909844 0.062307328
0.070019 0.14725742 0.10868273 0.046482213 0.17625368 0.2003072 0.088432565 0.1622339
0.14321907 0.15084802 0.14601232 0.14599727 0.1272629 0.15890469 0.110697426 0.17301066
0.08039128 0.03964991 0.09618467 0.008270912 0.04113391 0.018964076 0.10096426 0.1292613
0.11423528 0.0824005 0.028970595 0.14516623 0.08966325 0.12097985 0.18944791 0.20263802
0.1828914 0.19027859 0.19200347 0.15940353 0.17355786 0.13175814 0.16048817 0.15787056
0.19398181 0.14662448 0.16096398 0.15355487 0.16005102 0.0668931 0.22188905 0.19500563
0.104478486 0.16337344 0.13418546 0.10180304 0.06053421 0.10195497 0.15883246 0.09285827
0.2256501 0.17810957 0.13301057 0.25969383 0.12049048 0.1376387 0.25730738 0.19839801
0.2681079 0.20111299 0.16456087 0.20816188 0.17442569 0.20394164 0.085979864 0.15145221
0.1824488 0.16044387 0.13545538 0.17460607 0.18888701 0.1966685 0.07831652 0.13563432
0.1765067 0.07307633 0.1396907 0.17589204 0.21108513 0.16364571 0.12586759 0.11388713
0.12655444 0.18635204 0.08712821 0.15175007 0.20968132 0.14684512 0.17020272 0.14014414
0.1159565 0.10341361 0.08439891 0.043769587 0.12119467 0.0649573 0.067703545 0.1292681
0.08784637 0.22482713 0.16923006 0.043947265 0.16972323 0.111548245 0.21940283 0.19234824
0.13233672 0.17135997 0.07860737 0.10080627 0.16374324 0.14060622 0.11994447 0.14888532
0.06345912 0.057314467 0.06764327 0.036586966 0.14753634 0.054318756 0.071646325 0.07825416
0.13228968 0.15414798 0.12032656 0.10680885 0.1394981 0.08850887 0.18149783 0.07510515
0.15518656 0.19869001 0.08267712 0.17047134 0.103152975 0.14517044 0.06809112 0.07426609
0.08158582 0.08709837 0.09705883 0.141685 0.027831972 0.02593262 0.067077555 0.01590543
0.032299932 0.004229582 0.12923115 0.14536296 0.06633058 0.15383255 0.1724531 0.119937815
00000000: fa4f d53d c6ef db3d cd0a 233c 81c6 163e
00000010: 8f2b 153e c01a 0b3e 381a 233e c218 573d
00000020: 9e9a b13d 6d08 273e 85db fc3d 089d a33d
00000030: c299 db3d 8a7b 39bc d431 033d 4c02 643d
00000040: 6720 0c3e d500 b23d 8c71 94bb 54e7 093d
00000050: db58 853d 5040 353d fe68 f93d 4f48 9f3d
00000060: 88e1 cf3d 5b7c ad3d 2188 bd3d afde 133e
00000070: 175c ac3d 5e9f 1a3e 4a75 ac3d 4f87 e53d
00000080: 3c50 043e 7aed 583c de49 9f3d cd77 843d
00000090: eab8 a73d 9eb1 af3d fc46 d83d ec65 d03a
000000a0: 2e32 303d cb97 a13d 0fbe 983d 4b4a b23d
000000b0: 0214 bc39 3f71 fe3d 6dad bb3c f835 7f3d
000000c0: 1f66 8f3d a6ca 163e 0d95 de3d 2264 3e3d
000000d0: d87b 343e 551d 4d3e 221c b53d a520 263e
000000e0: 05a8 123e e777 1a3e 4184 153e 4f80 153e
000000f0: 3551 023e e9b7 223e 55b5 e23d b529 313e
00000100: 2fa4 a43d f267 223d 78fc c43d b882 073c
00000110: 087c 283d 8d5a 9b3c 5ac6 ce3d 135d 043e
00000120: 30f4 e93d 98c1 a83d be53 ed3c 75a6 143e
00000130: 5ea1 b73d 49c4 f73d a2fe 413e 5780 4f3e
00000140: e247 3b3e 64d8 423e 8f9c 443e ae3a 233e
00000150: 27b9 313e 9beb 063e 0357 243e d2a8 213e
00000160: 2ba3 463e ba24 163e bed3 243e 7d3d 1d3e
00000170: 6ae4 233e 40ff 883d e236 633e 8eaf 473e
00000180: d1f8 d53d 5e4b 273e ea67 093e 1d7e d03d
00000190: b8f2 773d c4cd d03d faa4 223e 7a2c be3d
000001a0: d210 673e 5b62 363e ec33 083e 97f6 843e
000001b0: b6c3 f63d 29f1 0c3e cbbd 833e d928 4b3e
000001c0: 7045 893e 90f0 4d3e a582 283e 6328 553e
000001d0: a69c 323e 14d6 503e 3616 b03d 4a16 1b3e
000001e0: dcd3 3a3e 664b 243e d1b4 0a3e efcb 323e
000001f0: 996b 413e 7863 493e 6964 a03d b9e3 0a3e
00000200: 2cbe 343e 0ba9 953d 140b 0f3e 0b1d 343e
00000210: b326 583e be92 273e 6fe3 003e a83d e93d
00000220: 7d97 013e 12d3 3e3e 4670 b23d 5f64 1b3e
00000230: b3b6 563e 915e 163e 9f49 2e3e f281 0f3e
00000240: 9a7a ed3d 84ca d33d 56d9 ac3d bd47 333d
00000250: e934 f83d 5508 853d 28a8 8a3d db5e 043e
00000260: cce8 b33d 1539 663e a54a 2d3e 0c02 343d
00000270: edcb 2d3e 6873 e43d 23ab 603e f0f6 443e
00000280: 4783 073e fd78 2f3e e7fc a03d 8573 ce3d
00000290: 4fac 273e 14fb 0f3e 72a5 f53d 6575 183e
000002a0: dbf6 813d 93c2 6a3d 8e88 8a3d 37dc 153d
000002b0: c413 173e 587d 5e3d 4fbb 923d b843 a03d
000002c0: f276 073e f8d8 1d3e c66d f63d 99be da3d
000002d0: 97d8 0e3e 2344 b53d 91da 393e bbd0 993d
000002e0: 3ae9 1e3e 6575 4b3e 9f52 a93d 0a90 2e3e
000002f0: de41 d33d 8fa7 143e 5b73 8b3d d218 983d
00000300: 7716 a73d a160 b23d c8c6 c63d df15 113e
00000310: e0ff e33c a570 d43c f55f 893d 1b4c 823c
00000320: ef4c 043d 4e98 8a3b 2c55 043e 07da 143e
00000330: 54d8 873d 4886 1d3e 8c97 303e f5a1 f53d
