pqc_reup_v1_output/model_params_epoch_70.pth (torch, 61309 bytes, 6 tensors)

reupload_weights f4 [12, 3, 4]
000000 26 38 53 3e 46 82 15 3e aa 59 1f 3e ea 85 35 be
       0.20626888 0.14600477 0.15561548 -0.17726865
000010 89 06 b5 3e 1e 52 2f 3e 36 7e 2e 3e 69 5e 53 3f
       0.35356548 0.17121169 0.17040333 0.82565933
000020 43 a2 6b 3e e2 5f 07 3f 7b cb da bd 1f 76 c6 be
       0.23011117 0.5288068 -0.10683342 -0.38761994
000030 a9 53 06 be 49 35 3a be 70 1f de 3c 23 e6 a8 3d
       -0.13117851 -0.18184389 0.0271146 0.0824702
000040 25 01 89 be aa 63 21 bf ef d6 a4 be c5 c5 32 3e
       -0.26758686 -0.630427 -0.3219523 0.17458256
000050 07 06 95 3d c0 68 a7 39 7d 42 4c be 90 4a a3 3e
       0.0727654 0.00031930767 -0.19947238 0.31892824
000060 f4 1a f1 3d 46 50 1a 3e 28 f9 40 3e 0a 78 9c 3d
       0.11772719 0.15069684 0.18845046 0.07640083
000070 02 ba 09 3f 5e b8 82 bd 81 be 88 3d e2 f1 b1 be
       0.5379945 -0.063828215 0.06676961 -0.34754854
000080 24 6b 82 3e 68 b7 40 3e 4b b8 d9 3e a6 87 13 3e
       0.25472367 0.18819964 0.42523417 0.14407215
000090 98 7d 2f bd 8d a9 08 be 49 23 7a 3d f6 ca 4a be
       -0.042844385 -0.13345928 0.061068807 -0.19803986
0000a0 ef 7b d8 3e cf b5 5c 3f d3 29 6e 3d 23 e4 05 bf
       0.42282054 0.8621492 0.058145355 -0.52301234
0000b0 b8 15 5a 3f ea d7 9e 3f 0b ae b6 3e 70 12 ea bd
       0.8518939 1.2409642 0.3567966 -0.11429298
0000c0 5c 9d 2c bd 1b 3c d7 bc 1c 94 e0 3d 9b d4 25 3e
       -0.042142257 -0.026273778 0.109657496 0.16194384
0000d0 61 91 23 3f 33 2d 34 3f e0 40 2e bf f8 5a 4f bf
       0.63893706 0.7038147 -0.6806774 -0.8099818
0000e0 85 20 9e 3e 12 f3 0a 3f 6b 25 dd be 54 b6 ad be
       0.30884185 0.54277146 -0.4319261 -0.33928168
0000f0 f7 06 17 be cd 79 b0 3d 89 d2 3b be c3 1f 04 bd
       -0.1474875 0.08616982 -0.18342032 -0.032256853
000100 cb 26 ce 3e 69 ca d5 3d 79 de 2c 3b 05 af dc 3d
       0.40263972 0.10438997 0.0026377721 0.1077557
000110 a2 c6 de bc 39 63 53 be bb 2d 0d bf 06 fe 69 bb
       -0.027194325 -0.20643319 -0.55147904 -0.0035704388
000120 e5 ba 57 bd 13 36 f8 bd 23 01 6c be 31 82 72 3d
       -0.05266847 -0.12119689 -0.23047309 0.05920619
000130 b3 19 4b 3b 55 66 25 be 26 2f 1a be 31 35 51 3c
       0.003099066 -0.16152318 -0.15057048 0.0127690295
000140 43 be dc 3e 6c 38 a8 3e 58 a9 cc 3e b2 22 8a 3e
       0.43113908 0.32855546 0.3997295 0.26979595
000150 11 f4 1f 3e 7d fc 16 3e 24 77 ff bc 7f 2f b1 bd
       0.15620448 0.14744754 -0.03118474 -0.08651637
000160 e9 72 d7 be 76 c7 21 bf 97 f4 fc 3d 5c 66 d3 3e
       -0.42079857 -0.6319498 0.12351339 0.41289032
000170 cb 3a cb be 96 3a d1 be 97 c9 12 3f 6f a0 12 3f
       -0.39693293 -0.4086501 0.5733885 0.5727605
000180 08 de 69 be a4 47 66 3e c5 79 77 3d 1b 96 13 3d
       -0.22838604 0.22488266 0.060418863 0.036031824
000190 ee df 11 be 2c f8 2d 3f e1 aa 3f 3f 2e 73 bf 3e
       -0.14245579 0.67956805 0.74870116 0.37392563
0001a0 f6 71 d3 be 4e cf bc 3e 13 e3 d1 3e d8 71 a2 bd
       -0.41297883 0.3687691 0.40993556 -0.0793187
0001b0 53 1d 67 bd ae d3 a8 3d 42 41 b7 3d d2 cd 76 3d
       -0.05642445 0.082435 0.08947994 0.06025488
0001c0 a6 1a 83 3e 4b 37 b6 3e 5c 69 2d 3e c3 49 37 bf
       0.2560627 0.3558906 0.16934723 -0.71596926
0001d0 c2 26 2d 3f 1b 1c eb 3e e7 fa 64 3e 31 9a af 3e
       0.67637265 0.4591988 0.22361337 0.34297326
0001e0 7e 0d c1 bc e8 12 f2 be 98 71 77 bd bc f5 43 3e
       -0.023566004 -0.4728005 -0.060411066 0.19136709
0001f0 9b 89 a2 3d c6 76 c0 3d 4c 89 4c 3f 50 a4 05 3f
       0.079364024 0.09397654 0.79897 0.52203846
000200 4d dc 35 bf 01 93 55 bf 3b e7 99 be b1 26 29 bf
       -0.7103928 -0.83427435 -0.30059227 -0.66074663
000210 97 00 65 3c 30 eb 5b 3e c9 c0 a0 3d 2d 9f e7 3d
       0.013977191 0.21476436 0.07849271 0.11309657
000220 dd ef 83 bf 5c 2a be 3d 90 3a 40 be ca 82 02 be
       -1.0307575 0.09285423 -0.1877234 -0.12745205
000230 60 0d 8e bf 85 87 9c 3e 94 b9 b3 bc 18 2d cb 3d
       -1.1097832 0.30572143 -0.021939076 0.0992071

reupload_bias f4 [12, 3]
000000 ca 7b f9 be b1 1e e7 3e 29 46 57 bd a3 fe d4 3e
       -0.48727256 0.45140603 -0.052557144 0.41600522
000010 6f f8 71 be 3e a4 ae 3e 34 da 10 bf 66 3a 66 3f
       -0.23629926 0.34109682 -0.5658295 0.8993286
000020 3d 0f d9 3d d4 78 d3 3e 93 83 0d 3f b5 04 b3 3f
       0.105986096 0.41303122 0.5527889 1.3985811
000030 a4 6b c8 be dc aa d3 be 8d fc 05 3e f6 64 c2 3e
       -0.39144623 -0.41341293 0.13084622 0.37967652
000040 0c 10 26 bd 4e 54 77 be 08 8c 3a be 73 03 3e be
       -0.040542647 -0.24153253 -0.1821748 -0.18556003
000050 87 60 7c bc dc ba 35 bf a5 4f 1b bf 54 36 2e be
       -0.015403873 -0.7098825 -0.606684 -0.17012912
000060 98 ba f3 3e 12 d4 10 3f e3 4b 36 bf c5 06 04 bf
       0.47603297 0.56573594 -0.71209544 -0.5157283
000070 29 ac 50 bf 27 b4 f1 3e 7c 8d 48 3e 05 9e 09 3d
       -0.81512696 0.47207758 0.19585222 0.033597965
000080 3b 81 bd bf 97 5b e0 be 95 12 03 bf f4 b4 da 3d
       -1.4805063 -0.43819878 -0.5120023 0.10679045

mlr.0.weight f4 [64, 12]
000000 6f 08 8a 3b 1b 33 8d bc fc 21 8e 3d 0d ad a5 3d
       0.004212431 -0.017236283 0.06940076 0.080896474
000010 eb 3d 86 be 76 2d da bd b0 ef 78 3e b8 4e e6 3d
       -0.26219115 -0.10653202 0.24310184 0.11245483
000020 d1 3d 6b bc 90 38 32 be 04 da 34 be 55 65 84 be
       -0.014358 -0.1740439 -0.17661291 -0.2585856
000030 f1 7d df bd 84 ae 90 bd 53 3a e6 3d 14 69 e2 3b
       -0.10912693 -0.07064536 0.11241593 0.006909499
000040 0f d2 9a be db 0b d3 be 9f 25 1d be c0 dd d8 3e
       -0.30238387 -0.41219983 -0.15346383 0.42356682
000050 ba 7b 54 3d 1c 81 29 be aa ac 1f 3e a8 7d 26 bd
       0.051875807 -0.16553158 0.1559321 -0.04064718
000060 85 af 5f be 2c 07 38 3e 88 0a 27 be fb 71 b5 bd
       -0.21844299 0.17971486 -0.16312611 -0.08859631
000070 e8 61 a3 be 14 2e 26 3e 66 4c 3f 3e 85 28 99 3d
       -0.31910634 0.16228515 0.18681487 0.074784316
000080 26 3d 6e be b9 b0 a1 be ba 5c 88 be db 3f 3d 3e
       -0.23265514 -0.3158014 -0.26633245 0.1848139
000090 be eb 0d 3e 64 c0 78 3e 91 db 1a 3e 39 a1 95 3d
       0.1385946 0.24292141 0.1512282 0.073061414
0000a0 97 43 39 bb e1 ce 60 be c4 43 7d be ff 3e 8a be
       -0.0028269046 -0.21953918 -0.24732882 -0.27001187
0000b0 7c 04 f2 3d bc 21 11 be b7 f6 6d bd 0c 1f 2a be
       0.118172616 -0.14173025 -0.058096614 -0.16613406
0000c0 ac 76 57 bd 52 0e 50 be e0 26 41 be 12 1c c4 3d
       -0.05260341 -0.20317963 -0.18862486 0.095756665
0000d0 59 b4 af bd 1c 7d 36 3e 0e aa bd bd 4d d8 58 be
       -0.085793205 0.17821163 -0.09260951 -0.21176262
0000e0 ad 9f 50 bd ff 4a 0f be ec df b4 bd e0 b4 8c be
       -0.05093353 -0.13993452 -0.08831772 -0.27481747
0000f0 18 e1 e9 3d 50 3b 82 be c2 71 2c 3e 0d 13 49 3d
       0.11419886 -0.25435877 0.1684027 0.049090434
000100 7e 9d 41 3e de 4b 9a be 8f 19 7f 3e e1 51 50 be
       0.18907735 -0.30136007 0.24912094 -0.20343734
000110 f7 30 07 3d 3f 58 a3 3e 7a b6 16 bd de dc 11 be
       0.03300568 0.31903264 -0.036795117 -0.1424441
000120 ca 85 4b bc 83 32 99 be f3 0b 5b 3e 12 a5 c9 be
       -0.0124220345 -0.2992135 0.21391277 -0.3938375
000130 59 d7 79 3e f4 bf 41 3e 95 0f c8 3e 5f bd 78 be
       0.24398555 0.1892088 0.39074388 -0.2429099
000140 17 66 73 be 29 7f a7 3d 99 58 7e 3e 16 07 e5 be
       -0.23769413 0.08178551 0.24838485 -0.4473197
000150 ec b1 9d 3a e7 dd 60 be 2b d3 a5 3b 4a d3 3d be
       0.0012031174 -0.21959649 0.0050605736 -0.18537632
000160 f7 a0 98 bd 7b 03 1c be 3d 69 83 be c5 50 64 3e
       -0.074525766 -0.15235703 -0.25666228 0.22296436
000170 44 d2 96 3e 2d 29 e0 bd 15 b9 4b 3d 66 1c db bd
       0.29457295 -0.10945354 0.049737055 -0.10698776
000180 64 79 85 be 16 d5 8f be 19 ba db 3d c5 4c 22 be
       -0.26069176 -0.2809226 0.10728855 -0.15849598
000190 5d 09 3e be e7 82 b8 bc e0 e0 c4 bd 84 44 bf bd
       -0.1855826 -0.022523357 -0.09613204 -0.0933924
0001a0 2b f8 17 3c f8 cd 7a bd 4f 8f cb bd 60 89 0d be
       0.009275476 -0.061231583 -0.09939443 -0.13821936
0001b0 2a a9 b8 be e4 54 a5 3e 15 15 fa bd 5f 3c 01 3e
       -0.36066562 0.3229133 -0.12211052 0.12620686
0001c0 f9 60 25 be 09 2d ff 3d dd 5d a4 3e 3f 68 34 3e
       -0.16150273 0.12459762 0.32102862 0.17617892
0001d0 0e e5 b9 be fd 26 c6 3e b3 4a 91 3e 42 ec c4 ba
       -0.36307567 0.3870162 0.28377303 -0.0015024024
0001e0 2c 75 20 bc de 7f c5 3e 26 a4 aa bd 8a f3 70 3e
       -0.009793561 0.38574117 -0.0833209 0.23530403
0001f0 17 2c 68 be e1 ef 17 bd af 4e 19 3e 27 a5 56 3e
       -0.22673069 -0.037094 0.14971422 0.20961438
000200 89 e4 8d be 27 87 a6 be f2 a1 dc be 1f b2 59 be
       -0.2771342 -0.32524988 -0.43092304 -0.21259354
000210 5c 19 64 be 31 34 92 bd f6 7e 47 3e 3d ea 45 3d
       -0.22275299 -0.07138861 0.19482026 0.04831909
000220 67 d6 60 be db 23 6d be 2b 0e 13 3e c8 e1 5b be
       -0.21956788 -0.23158209 0.14360873 -0.21472847
000230 6a 96 11 bd 7e cd 0d 3e 0d cf 08 be 24 ee 00 bd
       -0.035543837 0.1384792 -0.13360234 -0.03147711
000240 59 d8 cd bc a2 de 8b bd 62 e1 15 be 8e c1 83 be
       -0.025127577 -0.06829573 -0.14636758 -0.25733608
000250 f9 f3 6e be c5 48 1e be 9f c0 8e 3e e0 c7 0e be
       -0.23335256 -0.15457447 0.27881333 -0.13943434
000260 83 81 46 be 19 4e 8f 3d 52 f1 a2 3d c5 f6 21 3e
       -0.19385342 0.06997318 0.079561844 0.15816791
000270 8e 08 97 3e 8c c9 dd 3d f7 62 9c be df c0 32 3c
       0.29498714 0.10829458 -0.30544254 0.010910242
000280 71 bb 35 3e a8 15 d8 bd 11 70 80 be cf 3f c0 3e
       0.17747284 -0.105510056 -0.250855 0.37548682
000290 27 52 76 bd 3b 4d a6 be 38 e3 8e be 8c 9e 24 3e
       -0.06013694 -0.32480797 -0.2790773 0.16076106
0002a0 c1 58 00 3d bf e6 60 3d fd ec 59 bd 94 79 66 be
       0.031334642 0.054907557 -0.053204525 -0.22507316
0002b0 fb 88 c9 be e9 eb 44 3c fe 86 54 3e e9 52 85 3e
       -0.3936232 0.012019136 0.2075462 0.26039818
0002c0 8a fe 7d be b8 bd 1d 3e d3 ff 77 be ef 02 35 be
       -0.2480413 0.15404403 -0.24218683 -0.176769
0002d0 b6 76 21 3c ce 97 40 ba a4 d2 08 3e d9 02 dd be
       0.009854963 -0.00073468394 0.13361603 -0.43166235
0002e0 a9 d3 8a 3d d8 01 da be 22 20 c5 bb 72 56 9c 3e
       0.06778652 -0.42579532 -0.0060157934 0.30534703
0002f0 61 56 ac bd 82 10 8f 3e 99 58 78 be e6 b7 21 be
       -0.08414913 0.27942282 -0.24252547 -0.15792808
000300 16 18 86 3e 02 cd b4 bd 6e 4a c3 b9 22 61 52 be
       0.2619025 -0.08828165 -0.00037248753 -0.20544866
000310 5b 5b 83 3e c5 4a 33 3e b6 96 3c 3e c7 28 c7 be
       0.25655636 0.17508991 0.18416867 -0.38898298
000320 bb 81 68 be 92 b9 c0 3b 88 97 05 3e 13 41 90 be
       -0.22705738 0.0058814967 0.13046086 -0.28174648
000330 12 6b a5 bd 15 a4 47 3e a2 61 bc 3c e2 64 55 3c
       -0.08077063 0.19496186 0.022995774 0.013024541
000340 0c 7f 91 bd 01 d9 85 be bc f8 8a be 87 4d 0d be
       -0.071043104 -0.26142123 -0.27142894 -0.13799106
000350 f2 42 16 be 4c 31 b8 3d 4b 1b ac bd 0a 4b e7 bd
       -0.14673975 0.08993778 -0.08403643 -0.112936094
000360 f6 a8 e1 3e e6 a2 aa 3d 69 61 4f 3e 8c 7a 55 be
       0.4407422 0.08331852 0.20252003 -0.20847529
000370 d5 43 04 be 13 53 05 3e 77 d3 71 be d2 7d 90 be
       -0.12916501 0.13019972 -0.23615824 -0.28220993
000380 92 d4 e7 3c 7c 2a 80 be 47 08 55 be fd 07 54 3e
       0.028299604 -0.25032413 -0.20803939 0.20706172
000390 c8 17 ba 3e 4f 23 90 bc d6 84 21 be d0 07 db be
       0.3634627 -0.017594961 -0.15773329 -0.42779398
0003a0 f7 83 80 be cc 14 8d 3c 64 47 52 3d a4 8f 9c bc
       -0.2510068 0.01722183 0.051337615 -0.019111462
0003b0 e2 ba 10 be c1 6f 9d 3e 47 9d 27 be ff 23 27 3e
       -0.1413379 0.30749324 -0.1636859 0.16322325
0003c0 5d 00 39 bc 2d 43 1d 3e 72 d6 c3 3d 1e a7 56 3e
       -0.0112915905 0.15357657 0.095623866 0.20962188
0003d0 31 35 8a 3d 8c 61 cb 3e 1b e0 eb 3d 11 32 b4 3e
       0.06748427 0.3972286 0.11517354 0.35194448
0003e0 7e b9 cc 3e 76 0e bd bd 84 83 0d be ef 75 cb 3e
       0.3998527 -0.09231274 -0.138197 0.39738414
0003f0 8e a3 67 3e 06 b5 61 be 13 cf b6 bc 49 c0 91 be
       0.22620985 -0.22041711 -0.022315538 -0.28467014

mlr.0.bias f4 [64]
000000 2d 91 a2 bd 92 92 54 3e 15 92 6d 3d c2 2d 4e bd
       -0.07937846 0.20759037 0.058000643 -0.050336607
000010 5c be 47 3d 83 e3 c0 bd c6 1f d1 3d f3 26 33 3e
       0.048765525 -0.094183944 0.102111384 0.17495327
000020 29 c4 9e 3d 99 af 92 bd 6f 36 30 3e 79 b4 2a bd
       0.07752258 -0.07162399 0.17208265 -0.04167602
000030 a7 2a e6 bd aa 87 30 3e 34 fd 7d 3e 26 77 2b 3e
       -0.11238604 0.17239252 0.2480362 0.1674467
000040 fc f8 91 3d ea 89 c9 bd f3 e3 d3 3d af f8 2e 3e
       0.07127568 -0.09840758 0.10346212 0.17087053
000050 38 fd 34 be 4e 7c 12 bd 85 62 c7 bd 15 a4 2f 3e
       -0.1767472 -0.035763077 -0.09735588 0.17152436
000060 4d ce fd ba f4 45 51 bd ab d5 c5 bc ea a2 e6 bb
       -0.0019363851 -0.051092103 -0.024149736 -0.007038464
000070 b8 b0 8e bd 1e c3 31 be 21 a3 a3 3d 0d c8 14 be
       -0.069673 -0.17359588 0.07990099 -0.14529438
000080 1d c9 81 bd c7 10 df 3c 7b 99 7c bd f3 08 8b be
       -0.063371874 0.02722968 -0.061669808 -0.27155265
000090 8f 3e 66 3e b8 45 06 be 3b bd 22 be fd 87 1c 3c
       0.22484802 -0.13112533 -0.15892498 0.0095539065
0000a0 a0 43 1a be 60 ce 23 be 01 35 c7 bd af 16 8a bd
       -0.1506486 -0.15996695 -0.097269066 -0.06742608
0000b0 f9 e8 f6 bd 84 ed a7 bd ba e1 0e bd 20 35 6f be
       -0.12056155 -0.081995994 -0.03488324 -0.2336011
0000c0 41 ec 32 be 6a 06 8a 3b 41 a0 93 3c fa b1 70 3d
       -0.17472936 0.0042121904 0.018020751 0.05876348
0000d0 0d 7d ff bd a3 60 b9 3d ba f4 7e 3d b2 a5 91 3c
       -0.124750234 0.09051635 0.06224511 0.017779205
0000e0 62 67 2e be 2a 1d 4b be 59 b9 0c be b9 bc a7 bd
       -0.17031625 -0.19835344 -0.1374258 -0.08190293
0000f0 65 85 0c 3e 8d 8e 30 bd 99 17 fb 3d 62 85 2d be
       0.13722761 -0.043104697 0.1226036 -0.16945413

mlr.2.weight f4 [208, 64]
000000 60 9b 9b 3c a4 ef 59 3d 2f 0d 3e 3d 24 f0 5f bd
       0.018994987 0.053207055 0.04639929 -0.054672375
000010 80 63 00 bd 83 7c e2 3d b7 d7 58 be eb 7d bd bd
       -0.03134489 0.11058905 -0.21176039 -0.092525326
000020 7c 83 78 3d b2 0d 78 3e 18 01 fa 3e 60 8f 60 bc
       0.06067227 0.24223974 0.4882896 -0.013706058
000030 58 19 ce bd 0b 73 da 3d 6a 8b c1 bc b7 be 3f 3e
       -0.10063428 0.10666474 -0.023626048 0.18725096
000040 a1 15 67 be 18 93 6f bd 5f 3d 7b be 09 92 0b be
       -0.22566845 -0.05848989 -0.2453513 -0.13629927
000050 b8 ec 23 3e 80 c1 76 bd 08 ce 18 3e 96 be 47 3e
       0.1600827 -0.06024313 0.14922345 0.19506297
000060 92 b2 d9 bc 0e a1 39 3d 00 03 fc 3d bf 7e 80 3d
       -0.026574407 0.04531961 0.1230526 0.06274175
000070 6e 0b 8e bc 94 30 b9 3d 44 54 04 3e 4a 9c d7 bd
       -0.017339434 0.09042469 0.1292277 -0.10527857
000080 20 6c 35 bd 88 d5 95 3d 09 cb 16 3e 08 4d f4 3d
       -0.04429257 0.073161185 0.1472589 0.11928755
000090 7c 2d 46 3d 04 76 8a 3d f4 32 8d bd 25 48 23 3e
       0.04838322 0.06760791 -0.06894484 0.1594549
0000a0 c8 b7 b8 3d 35 ca 9f 3e 48 55 b8 3d b2 69 48 3e
       0.090194285 0.3120896 0.09000641 0.1957157
0000b0 40 72 1f 3b f9 06 95 3e 47 7a 9b 3e 50 f1 5e 3d
       0.0024329573 0.29106882 0.30366728 0.054429352
0000c0 cc 8e 24 bd 00 8e 09 bb 92 92 dd bd 17 95 8a be
       -0.040175244 -0.002098918 -0.10818972 -0.27066872
0000d0 10 a2 2a bd b9 9f 44 bd 71 97 87 bd b2 fd 87 3e
       -0.04165846 -0.048003886 -0.06620682 0.26560742
0000e0 d0 11 3e 3e 74 2f 86 3e 14 98 53 3e f6 9d 0e 3e
       0.18561482 0.2620808 0.20663482 0.13927445
0000f0 0c 7c 5e be be 2f fd bd 6c 35 42 3d bc 70 8f 3d
       -0.21727008 -0.12362622 0.04741423 0.07003924
000100 72 c7 db bd 9f 09 1f 3d 4a 51 c9 3d 20 1f f8 3b
       -0.107314005 0.038827535 0.09829958 0.0075720698
000110 be 3a 9a bd 77 ca 7f 3e 16 92 4b be f4 62 f3 bd
       -0.075307354 0.24979578 -0.19879946 -0.11884108
000120 0c 21 ad bd fa 91 eb 3e 0b 89 51 3e 80 4f fd 3d
       -0.08453569 0.4600981 0.20462434 0.12368679
000130 2c ef 58 bd bc 55 f3 3d 6b 4c 5d 3d f6 98 ee 3d
       -0.052962467 0.11881587 0.054027956 0.11650269
000140 d1 4f 50 be e8 4b 52 3d b4 3f 87 be 0f 88 dd bd
       -0.20342948 0.05134192 -0.2641579 -0.10816967
000150 04 48 20 3e fc 95 c8 3d 37 17 0a 3d 8e 02 5d 3c
       0.15652472 0.09794232 0.033713546 0.013489379
000160 f0 d4 bd 3d 6c 8d 7b 3e a8 36 99 3d d2 3f 0e 3e
       0.0926913 0.24565667 0.07481128 0.13891533
000170 9b bf 7a bd 14 ab 41 3d ff ad 23 3e 34 2f 96 bd
       -0.061217885 0.047282293 0.15984343 -0.07333222
000180 84 0f 58 3e 82 02 f6 bd 0d fc c2 3e c2 35 ff 3d
       0.21099669 -0.12012197 0.38082924 0.12461425
000190 f5 03 6a 3e c4 94 2e 3d 24 d7 e4 bd d0 df 2f 3e
       0.22853072 0.042622343 -0.11173847 0.17175221
0001a0 18 27 af bc e2 2a 83 3e b4 b6 fc 3d 21 b8 0a 3d
       -0.021380946 0.25618654 0.12339535 0.033867005
0001b0 20 e4 10 bc 1b 86 a8 3e e2 8b ae 3e 10 1e b5 bd
       -0.008843452 0.32914814 0.34091097 -0.088436246
0001c0 28 85 a6 3c 00 11 89 bc ef f6 f3 3c ad 68 4b bc
       0.020327166 -0.016731739 0.029780833 -0.012415093
0001d0 ff 7c 94 3d 49 c5 91 bd 38 f6 43 bd 15 49 4e 3d
       0.072504036 -0.07117707 -0.047842234 0.050362665
0001e0 22 37 85 3e d0 23 86 3e 7f 10 95 3c 91 6a 70 3e
       0.26018625 0.26199198 0.018196343 0.23478152
0001f0 10 bc d3 3c 48 04 be 3c 92 4e 96 bd 80 6c 9a 3c
       0.025846511 0.0231954 -0.07339205 0.018850565
000200 92 aa f6 3d a3 04 4e 3e 0a ae de bd a6 ae e9 3d
       0.120442525 0.20118956 -0.10873039 0.11410265
000210 70 bd 1e 3c 80 56 78 3e 5e bd 06 be 17 00 c9 bd
       0.00968872 0.24251747 -0.13158175 -0.0981447
000220 98 8f c7 bd 2b 72 c9 3e e4 ee f8 3e d0 87 19 3c
       -0.09744185 0.39344916 0.4861976 0.009370759
000230 2c e2 b2 bd a4 26 59 3d 85 63 e9 3d 80 9f 2e 3e
       -0.08734545 0.053015366 0.11395935 0.17053032
000240 85 b7 5e be e0 86 21 3c 0e ff 91 bd f2 c0 cb bd
       -0.21749695 0.009858817 -0.07128726 -0.09948911
000250 6d 34 87 3e 3c ed 4c 3d 70 62 24 3e f1 ad ee 3c
       0.26407185 0.05003093 0.16053176 0.029135676
000260 4c 47 2e 3e f0 8f 2a 3e f2 43 df bd 24 aa e7 bb
       0.17019385 0.1665647 -0.109016314 -0.007069843
000270 3a 5a 8e 3c 7c 83 05 3e 16 c9 ad 3e 40 f7 ea bc
       0.017377008 0.13038439 0.3394248 -0.028682351
000280 42 a8 70 3d be 8e a6 3d 2f c9 76 3d 34 05 cd 3d
       0.058754213 0.08132695 0.060250457 0.10010758
000290 54 9a 3d 3e c2 7a c4 bd 78 46 b4 bd 3f af cf 3c
       0.18515903 -0.09593727 -0.08802503 0.025352119
0002a0 0e 4b 8c bd 62 17 81 3e e0 26 1a bc b5 a4 d8 3d
       -0.06850253 0.25213152 -0.009408683 0.105782904
0002b0 f8 57 81 bd 1a 20 80 3e c5 92 a8 3e 52 25 fb 3d
       -0.06315607 0.25024492 0.32924476 0.12262978
0002c0 10 c3 3d bd d6 4b b7 bd 0c ed 59 3d 7a 8d 79 be
       -0.046328604 -0.089500114 0.05320458 -0.24370375
0002d0 38 8e 19 3e 23 69 88 3d c4 e9 08 3e 76 d9 22 3e
       0.14995658 0.06660678 0.13370425 0.15903267
0002e0 7a 0d 6d 3e 8a 71 a7 3e 7c d6 62 3d c5 16 5e 3e
       0.23149672 0.3270381 0.05538033 0.21688373
0002f0 19 b7 b2 3c 80 6c b3 3a b0 dc 76 3d 98 01 33 bd
       0.021815823 0.0013688952 0.060269058 -0.04370269
000300 70 47 df bd 98 60 1d be b3 f2 44 3d a4 4f a7 bd
       -0.109022975 -0.15368879 0.04808302 -0.08169487
000310 e0 51 78 3d 23 e5 45 bc 5c f2 93 be b4 b2 9e bd
       0.060624957 -0.012078556 -0.28895843 -0.07748929
000320 74 65 0b 3d 96 38 57 3d 89 9a aa 3e 78 81 ae 3c
       0.0340323 0.0525442 0.33321026 0.02130197
000330 f0 38 0b 3d 6f 0f 05 3e dc e1 ef bd 89 d1 58 be
       0.033989847 0.12994169 -0.11713001 -0.21173681
000340 d2 e3 41 be 1c a0 0b 3d 06 54 c0 bc 38 32 80 bd
       -0.18934563 0.03408824 -0.023477565 -0.062595785
000350 44 a3 1d 3e a0 29 95 bb 19 99 25 3d 08 14 6d 3c
       0.15394312 -0.004552081 0.04042921 0.014470108
000360 ae 71 8b 3e 1e a8 8c 3d 56 9a ec bd f9 ec 8b 3d
       0.27235168 0.06868003 -0.11552875 0.06832308
000370 48 ed 66 bd 69 09 15 3e fd 6e 07 3f 66 ef fd bd
       -0.056378633 0.14554371 0.5290373 -0.12399177
000380 e5 06 88 3d f0 27 44 bc 55 12 1e 3e 32 35 eb 3d
       0.0664194 -0.0119724125 0.1543668 0.114847556
000390 cb 58 67 3e 74 75 a4 3d 61 e1 20 3d 28 98 11 bd
       0.22592466 0.08030215 0.039277438 -0.035545498
0003a0 30 a0 f0 3c 6a e2 e1 3e 24 73 a7 bd 1a df b8 3b
       0.029373258 0.44118053 -0.08176258 0.00564183
0003b0 da 95 fa 3d 7a 92 a0 3e 23 cd 88 3e f6 0b 9a 3d
       0.12235613 0.31361753 0.26719007 0.075218126
0003c0 a0 00 83 bc de 65 fc bd c2 54 0f 3c 8b cd ae 3d
       -0.015991509 -0.12324117 0.008748235 0.08535298
0003d0 26 0a ff 3c d0 f0 d0 3c df 3c d9 bd 1b 47 95 3b
       0.031132769 0.025505453 -0.10607313 0.0045555956
0003e0 33 ea b0 3e 1c 94 a7 3e 6f f2 ea 3d 55 3e bd 3d
       0.3455368 0.32730186 0.11472022 0.092404045
0003f0 0f bf 89 bd d0 de ff bc 80 84 43 bc e0 75 8e bd
       -0.06725895 -0.031234175 -0.011933446 -0.069560766

mlr.2.bias f4 [208]
000000 37 75 9d 3d fe 35 8c 3d b5 a9 94 bc 10 61 ce 3d
       0.076883726 0.06846236 -0.018147329 0.10077107
000010 e3 6b 07 3e 52 1b f2 3d a2 b3 22 3e 2a e5 0d 3d
       0.1322475 0.11821617 0.15888837 0.034642376
000020 48 3c ab 3d 9c c9 03 3e b3 27 bc 3d 8c 5f 3a 3d
       0.08361107 0.12869877 0.091872595 0.045501277
000030 01 08 be 3d 25 80 21 bd 20 e8 68 3a 9b 47 4f 3d
       0.092788704 -0.03942885 0.0008884687 0.050605398
000040 88 d9 bc 3d bb da 5d 3d 30 3d 8a bc f1 cf 99 3c
       0.09221178 0.054163676 -0.01687488 0.018775912
000050 ec 85 94 3d 81 36 0c 3d b6 3c b4 3d 96 d1 d2 3c
       0.07252106 0.034231666 0.08800642 0.025734704
000060 88 2d ba 3d e3 9d 94 3d 20 3a 34 3d 05 37 bd 3d
       0.09090716 0.07256677 0.044000745 0.0923901
000070 d4 f8 5f 3d d7 2a a6 3d 8a da 1c 3d df 4b 9e 3d
       0.05468066 0.0811364 0.038294353 0.07729315
000080 36 cb f4 3d f6 e2 38 bc 6a c5 64 3d b0 d4 68 3c
       0.11952822 -0.01128458 0.05585233 0.014210865
000090 6b 3b 28 3d 6b 85 46 3d c6 ea da 3d b2 1e 2c bd
       0.04107229 0.04846708 0.10689311 -0.04202146
0000a0 f5 78 90 3b 44 92 9f 3d 6e 5e f8 3c a5 d1 a3 3d
       0.0044089505 0.0779157 0.030318465 0.07998971
0000b0 82 e7 bd bc 53 64 f5 3d 90 2e 16 3b 7a c1 37 3d
       -0.02318168 0.11982026 0.0022915937 0.044862248
0000c0 dd 36 a0 3b ed 84 ee 3d 7f 74 b4 3d ce 03 07 3d
       0.0048893527 0.11646447 0.08811282 0.032962613
0000d0 b3 2a da 3d d8 56 09 3e 70 bf cf 3c 78 93 86 3d
       0.106526755 0.13412035 0.02535984 0.06571096
0000e0 a2 34 86 3d c5 4c d7 3d d8 0c ee 3d 70 23 10 3e
       0.06553008 0.105126895 0.116235435 0.14076018
0000f0 23 6b b4 3d a2 9e ef 3d 06 4f 7e 3d 5f 47 17 3e
       0.08809497 0.11700179 0.06208708 0.1477332
000100 ca 15 95 3d 0a cb e6 3b c3 97 a4 3d 49 f4 43 bc
       0.072795466 0.007043247 0.08036759 -0.011960098
000110 62 1e 08 bc db 08 7f bc 2d 65 e2 3d 1b 5b b8 3d
       -0.008308025 -0.015566076 0.11054454 0.09001752
000120 55 d8 a0 3d 69 c8 16 3d 87 f3 63 bc 97 66 75 3d
       0.07853762 0.03681222 -0.013913042 0.05991229
000130 0c 31 e1 3c e3 ef 83 3d 2a f7 f8 3d 39 cf 0b 3e
       0.027489208 0.06442239 0.12156518 0.13653268
000140 2d 54 20 3e b1 3e be 3d 7b 17 f8 3d 07 ae d6 3d
       0.1565711 0.09289301 0.121138535 0.10482412
000150 16 9f c0 3d 58 06 5f 3d 29 bc c9 3d 67 8e ec 3d
       0.09405343 0.05444941 0.09850342 0.115505986
000160 66 8b fd 3d 3e 59 80 3d 0e 32 cb 3d 6d 90 e0 3d
       0.12380104 0.062670216 0.099216565 0.10965047
000170 3a 4e ef 3d ce 68 23 3d 77 f9 14 3e ef fe fe 3d
       0.116848424 0.03989487 0.14548288 0.124509685
000180 d8 c6 83 3c c1 91 0e 3e e5 75 ff 3d f1 e8 97 3d
       0.016086027 0.13922788 0.124736585 0.07417477
000190 7f 84 24 3d 70 08 b5 3c f9 0e ff 3d 9f a5 4e 3d
       0.04016542 0.02209875 0.12454028 0.050450917
0001a0 93 4d 1a 3e 87 7d de 3d af 00 ae 3d c8 9a 43 3e
       0.15068655 0.10863786 0.08496224 0.19102013
0001b0 91 00 49 3d 4e 87 e0 3d 78 c4 77 3e e5 6c 31 3e
       0.049072806 0.10963307 0.2419604 0.17326696
0001c0 c8 e2 75 3e c2 4c 4c 3e f9 f8 c6 3d f6 2a 3f 3e
       0.24012291 0.19951156 0.097154565 0.18668732
0001d0 58 ef 13 3e a0 05 2a 3e 36 af 85 3d c2 ee 12 3e
       0.14446771 0.16603708 0.065275595 0.14348891
0001e0 0b 94 a3 3d 91 3e e7 3d 42 50 4e 3d 89 f7 11 3e
       0.07987221 0.112912305 0.05036951 0.14254583
0001f0 26 fa 21 3e 7c dc 2e 3e 57 b2 58 3d 75 0d 3e 3d
       0.1581808 0.17076296 0.052904453 0.046399552
000200 71 b8 09 3e dc f2 a0 3c df 09 76 3d e7 0f 0f 3e
       0.13449265 0.019647054 0.060068008 0.1397091
000210 8d 80 2a 3e 13 95 a7 3d cb 27 a8 3d 46 7a 9d 3d
       0.166506 0.081827305 0.08210715 0.076893374
000220 78 21 bd 3d e1 de 27 3e c1 a7 44 3d 38 b3 09 3e
       0.09234899 0.16393615 0.048011545 0.13447273
000230 e5 bc 14 3e 12 c0 f8 3d 75 0b 09 3e d9 56 c1 3d
       0.14525183 0.121460095 0.13383277 0.09440393
000240 17 1f c0 3d 2b cd 70 3d bf c9 40 3c b2 d1 ea bc
       0.0938093 0.058789413 0.01176685 -0.028664444
000250 43 f8 aa 3d 09 06 c6 3c 02 93 37 3d 76 2f cd 3d
       0.083481334 0.0241728 0.044817932 0.10018818
000260 d6 b3 85 3d e2 3d 3d 3e ce c2 2a 3e 9e 15 db 3c
       0.065284416 0.18480638 0.16675875 0.026743706
000270 fa 37 ff 3d c1 14 99 3d 12 ad 32 3e fd 0c ea 3d
       0.124618486 0.074746616 0.17448834 0.114282586
000280 91 7d 94 3d eb d4 0d 3e 20 78 27 3d 93 7b 8f 3d
       0.072505124 0.13850753 0.040886045 0.07005992
000290 14 e9 04 3e 5b c3 e3 3d a7 b0 59 3d 31 c2 c3 3d
       0.12979537 0.111212455 0.053146984 0.095585234
0002a0 ac 04 20 bc d3 2d fa bb 16 f0 64 3c bb ff e6 bc
       -0.009766739 -0.007634857 0.013973257 -0.028198114
0002b0 fc 52 c9 3d f5 6f 18 bc 7d 46 48 bc 5b 69 55 3d
       0.09830281 -0.009304036 -0.012223837 0.052102428
0002c0 93 66 e1 3d f6 19 0c 3e 1a 33 d1 3d 9b 8e 40 3d
       0.110058926 0.13681778 0.10214825 0.047011
0002d0 c4 4c bd 3d 25 16 a8 3d 08 8d 15 3e 91 4a 0f 3d
       0.092431575 0.08207349 0.1460458 0.03498322
0002e0 5b ab ea 3d 53 e4 f9 3d 32 bf 98 3c 4f 81 04 3e
       0.11458465 0.122017525 0.018645857 0.12939952
0002f0 b0 29 87 3d 6c c3 1d 3e e3 22 52 3d 13 45 86 3d
       0.06599748 0.15406579 0.0513028 0.065561436
000300 80 0f a9 3b 53 b2 5f 3d 1e f1 86 3d 14 b3 9e 3d
       0.0051593184 0.054613423 0.06588958 0.07749
000310 b4 9d 6c bb 71 7d b6 bc 25 6a 84 3d 4f 4a c3 bc
       -0.003610474 -0.022276612 0.06465558 -0.023839144
000320 5d 56 12 bd e9 f5 1a bd c0 4f e5 3d df 3a e2 3d
       -0.035726894 -0.037832174 0.11196852 0.11046385
000330 ea 6f 28 3d 55 dd db 3d 6e 21 09 3e 41 76 e8 3d
       0.041122355 0.10735575 0.13391659 0.1135068
