pqc_reup_v1_output/model_params_epoch_40.pth (torch, 61309 bytes, 6 tensors)

reupload_weights f4 [12, 3, 4]
0	0x3e146c50	0.14494443
1	0x3df6e536	0.12055437
2	0x3e4ba9d2	0.19889
3	0xbe326d84	-0.1742459
4	0x3ebb8f7a	0.366329
5	0x3e69db95	0.2283767
6	0x3eb1c4cd	0.3472046
7	0x3f6a24c2	0.9146234
8	0x3c969e21	0.018385949
9	0x3ea21325	0.3165523
10	0x3d96a52d	0.073557235
11	0xbe7c2a28	-0.24625456
12	0xbe239f2d	-0.1597869
13	0xbe40ce1a	-0.18828622
14	0x3bbc9885	0.0057554864
15	0x3d8746bb	0.06605288
16	0xbe827907	-0.25482962
17	0xbf096674	-0.53671956
18	0xbe00f0be	-0.12591836
19	0x3d5ddb76	0.054164372
20	0xbc9e8aab	-0.019353231
21	0x3dafb34e	0.085791215
22	0x3d8917b0	0.06693971
23	0x3e6d3bdf	0.2316737
24	0x3d5bc202	0.053651817
25	0x3daa5f72	0.08318986
26	0x3e2a3e1c	0.16625255
27	0x3d7fe59f	0.062474843
28	0x3f23c88f	0.63977903
29	0x3e1b70dc	0.15179771
30	0x3e597dc6	0.21239385
31	0xbc634de2	-0.013873549
32	0xbe0dea9c	-0.13859028
33	0xbc561dc1	-0.013068617
34	0x3e8ade41	0.2712269
35	0x3e415ed3	0.18883829
36	0x3af59ccf	0.0018738749
37	0xbe3e580d	-0.18588276
38	0x3d620aa8	0.055185944
39	0xbe550593	-0.20802908
40	0x3ee96a24	0.4558879
41	0x3f5d0251	0.8633166
42	0x3ec83721	0.3910456
43	0xbeafecc4	-0.34360325
44	0x3f2fcbc1	0.6867028
45	0x3f825aac	1.0183921
46	0x3f150dad	0.5822399
47	0xbe146537	-0.14491735
48	0xbd6df600	-0.058095932
49	0xbac666aa	-0.0015136797
50	0x3e0a9d5c	0.1353659
51	0x3e4b0c1e	0.19828841
52	0x3ea26fb9	0.31725863
53	0x3f0e33bc	0.5554769
54	0xbef79060	-0.48352337
55	0xbf0b8fd6	-0.5451635
56	0x3e1e7bb7	0.15476881
57	0x3ec1163b	0.37712273
58	0xbea6f1b7	-0.3260629
59	0xbe86e5bb	-0.26347145
60	0xbdbe83f6	-0.09302513
61	0x3de6918c	0.112582296
62	0xbe3c486f	-0.18387006
63	0xbcd8b681	-0.026454212
64	0x3ece2b7f	0.4026756
65	0x3d4a912b	0.04945485
66	0x3daa9595	0.08329312
67	0x3dda8fb1	0.10671938
68	0x3da0e5cd	0.07856331
69	0xbe4eaa8a	-0.20182243
70	0xbec4cb1c	-0.3843621
71	0x3d83a91c	0.064287394
72	0xbdbd93c5	-0.092567004
73	0xbd9e70fb	-0.07736393
74	0xbe006df0	-0.12541938
75	0x3d21162f	0.039327797
76	0x3dcf0e48	0.10110146
77	0xbdd9690b	-0.106157385
78	0xbe3edac4	-0.1863814
79	0xbb751f0d	-0.003740254
80	0x3ee72d85	0.45151916
81	0x3e9aa251	0.30201963
82	0x3e8f4893	0.27985057
83	0x3e702594	0.23451835
84	0x3dec493b	0.11537405
85	0x3dd5e20a	0.10443504
86	0x3ca0085d	0.019535238
87	0xbd6e7a5f	-0.05822217
88	0xbea52934	-0.32257998
89	0xbef1cfd0	-0.4722886
90	0x3e845163	0.25843343
91	0x3eaadb74	0.33370554
92	0xbeeab112	-0.4583822
93	0xbec832f1	-0.39101365
94	0x3f12d6f8	0.57359266
95	0x3ed37d5a	0.41306573
96	0xbe8b7a5e	-0.27241796
97	0x3e28a238	0.16468132
98	0x3cc08a78	0.023503527
99	0x3d464010	0.04840094
100	0xbe6e7784	-0.23287779
101	0x3f179774	0.59215474
102	0x3f3ca1c8	0.7368436
103	0x3ecd8098	0.40137172
104	0xbf19c5a9	-0.6006723
105	0x3e1e752e	0.15474388
106	0x3ea7c9da	0.32771188
107	0xbd7ae16a	-0.061250128
108	0xbd80008a	-0.06250103
109	0x3d586148	0.05282715
110	0x3d31ca6c	0.043405935
111	0x3de9568c	0.11393461
112	0x3e1ba3dd	0.15199228
113	0x3dcc40fe	0.09973334
114	0x3cc06f33	0.023490524
115	0xbf741c90	-0.9535608
116	0x3f08f7ff	0.5350341
117	0x3ea4df83	0.32201776
118	0x3e3af429	0.18257202
119	0x3e6716d8	0.22567308
120	0xbd838532	-0.06421889
121	0xbe31cb56	-0.17362723
122	0x3d6633dd	0.056201804
123	0x3d3ecd33	0.046582412
124	0x3b91d157	0.004450004
125	0xbd88b460	-0.06675029
126	0x3f273bfd	0.6532591
127	0x3eddbc28	0.43307614
128	0xbf1179ed	-0.5682667
129	0xbf406053	-0.7514698
130	0xbe6a5d84	-0.22887236
131	0xbeebff82	-0.46093374
132	0xbd4df88d	-0.050285865
133	0x3e710bf1	0.23539712
134	0x3da89390	0.0823127
135	0x3db29fba	0.08721872
136	0xbf5d266d	-0.8638676
137	0x3c1fdc9a	0.009757185
138	0xbedc241c	-0.429963
139	0xbe151cd0	-0.14561772
140	0xbf7c789b	-0.9862153
141	0x3e56ffad	0.2099597
142	0xbe3db14f	-0.18524669
143	0xbc9409e5	-0.018071124

reupload_bias f4 [12, 3]
0	0xbedf6d85	-0.43638244
1	0x3f3a418e	0.7275628
2	0x3da570ea	0.08078177
3	0x3ed1d0a2	0.40979487
4	0xbe9f9351	-0.3116708
5	0x3e46af4a	0.19402805
6	0xbece510b	-0.40296206
7	0x3f77cead	0.9679974
8	0x3d969c75	0.073540606
9	0x3eb396b5	0.35075918
10	0x3eaf5629	0.34245422
11	0x3f8015f9	1.0006706
12	0xbecca45b	-0.39969143
13	0xbe33ef25	-0.17571695
14	0xbde3d08e	-0.11123763
15	0x3e91b9ff	0.28462216
16	0xbe4b8d89	-0.1987821
17	0xbe8ae964	-0.27131188
18	0xbe308c91	-0.17241122
19	0xbe5b7207	-0.21430217
20	0xbd197cf2	-0.037472673
21	0xbf1df6c2	-0.6170465
22	0xbee1b5aa	-0.4408391
23	0xbde9b87f	-0.11412143
24	0x3ef79c9d	0.48361674
25	0x3f1aa66e	0.604102
26	0xbf18f062	-0.59741795
27	0xbed65ad6	-0.41866177
28	0xbf441724	-0.7659781
29	0x3ed7f533	0.4217926
30	0x3e7ffdef	0.24999212
31	0x3d6281fa	0.055299737
32	0xbf911d77	-1.1337117
33	0xbed9829c	-0.4248246
34	0xbf034767	-0.51280826
35	0xbe1a32d1	-0.15058447

mlr.0.weight f4 [64, 12]
0	0x3b8a086f	0.004212431
1	0xbc8d331b	-0.017236283
2	0x3d8e21fc	0.06940076
3	0x3da5ad0d	0.080896474
4	0xbe863deb	-0.26219115
5	0xbdda2d76	-0.10653202
6	0x3e78efb0	0.24310184
7	0x3de64eb8	0.11245483
8	0xbc6b3dd1	-0.014358
9	0xbe323890	-0.1740439
10	0xbe34da04	-0.17661291
11	0xbe846555	-0.2585856
12	0xbe1c322d	-0.15253516
13	0x3c0dcda1	0.008654983
14	0x3de0ed37	0.10982745
15	0x3da1bd08	0.07897383
16	0xbe9bbe2f	-0.30418536
17	0xbe8ceeed	-0.27526036
18	0xbe01ea4a	-0.1268703
19	0x3eb233e7	0.34805223
20	0x3c9c0032	0.019043062
21	0xbdea2427	-0.11432677
22	0x3dda11e3	0.10647943
23	0xbda6d4af	-0.08146035
24	0xbe5faf85	-0.21844299
25	0x3e38072c	0.17971486
26	0xbe270a88	-0.16312611
27	0xbdb571fb	-0.08859631
28	0xbea361e8	-0.31910634
29	0x3e262e14	0.16228515
30	0x3e3f4c66	0.18681487
31	0x3d992885	0.074784316
32	0xbe6e3d26	-0.23265514
33	0xbea1b0b9	-0.3158014
34	0xbe885cba	-0.26633245
35	0x3e3d3fdb	0.1848139
36	0x3e0debbe	0.1385946
37	0x3e78c064	0.24292141
38	0x3e1adb91	0.1512282
39	0x3d95a139	0.073061414
40	0xbb394397	-0.0028269046
41	0xbe60cee1	-0.21953918
42	0xbe7d43c4	-0.24732882
43	0xbe8a3eff	-0.27001187
44	0x3df2047c	0.118172616
45	0xbe1121bc	-0.14173025
46	0xbd6df6b7	-0.058096614
47	0xbe2a1f0c	-0.16613406
48	0xbd5776ac	-0.05260341
49	0xbe500e52	-0.20317963
50	0xbe4126e0	-0.18862486
51	0x3dc41c12	0.095756665
52	0xbdafb459	-0.085793205
53	0x3e367d1c	0.17821163
54	0xbdbdaa0e	-0.09260951
55	0xbe58d84d	-0.21176262
56	0xbd509fad	-0.05093353
57	0xbe0f4aff	-0.13993452
58	0xbdb4dfec	-0.08831772
59	0xbe8cb4e0	-0.27481747
60	0x3e046756	0.12930045
61	0xbe668e53	-0.2251523
62	0x3e1ed0ef	0.1550939
63	0x3db1bfe9	0.08679182
64	0x3e475a66	0.19468078
65	0xbe6b24e5	-0.22963293
66	0x3e6f936d	0.23396082
67	0xbe69bf20	-0.22826815
68	0x3d66dc63	0.05636252
69	0x3e887f4f	0.2665963
70	0xbd4c8419	-0.049930666
71	0xbdc52489	-0.09626109
72	0xbcc05ec0	-0.02348268
73	0xbe90eccb	-0.2830566
74	0x3e697594	0.22798759
75	0xbec699d7	-0.38789245
76	0x3e70ba66	0.23508605
77	0x3e4e1fe2	0.2012935
78	0x3ec4aac9	0.3841155
79	0xbe5c8d35	-0.21538241
80	0xbe73a3f7	-0.23793016
81	0x3d68c806	0.056831382
82	0x3e8d039d	0.2754182
83	0xbed6883c	-0.41900814
84	0xbd8631bb	-0.06552454
85	0xbe313377	-0.17304789
86	0xbcced62a	-0.025248606
87	0xbe117ffd	-0.1420898
88	0xbdf1aa87	-0.11800104
89	0xbdbbaf0d	-0.09164248
90	0xbe8c74de	-0.27432913
91	0x3e728b75	0.23686011
92	0x3e77d042	0.24200538
93	0xbd397beb	-0.045284193
94	0xbd06a7da	-0.03287492
95	0xbdf14881	-0.11781407
96	0xbe857964	-0.26069176
97	0xbe8fd516	-0.2809226
98	0x3ddbba19	0.10728855
99	0xbe224cc5	-0.15849598
100	0xbe3e095d	-0.1855826
101	0xbcb882e7	-0.022523357
102	0xbdc4e0e0	-0.09613204
103	0xbdbf4484	-0.0933924
104	0x3c17f82b	0.009275476
105	0xbd7acdf8	-0.061231583
106	0xbdcb8f4f	-0.09939443
107	0xbe0d8960	-0.13821936
108	0xbe98261d	-0.29716578
109	0x3e8650b9	0.26233461
110	0xbe10deea	-0.14147535
111	0x3dd8526f	0.10562598
112	0xbe07c490	-0.13258576
113	0x3d54c072	0.051941343
114	0x3e82e900	0.2556839
115	0x3e1d8f9e	0.15386817
116	0xbe99866f	-0.29985377
117	0x3e28422f	0.16431497
118	0x3e6d6a63	0.23185115
119	0x3d8cb564	0.06870535
120	0x3df7f50c	0.12107286
121	0x3e9c9037	0.30578777
122	0xbdbb23e3	-0.09137704
123	0x3e01d5e9	0.12679256
124	0xbe69c10e	-0.22827551
125	0xbd5b0def	-0.053480085
126	0x3e1daadc	0.15397209
127	0x3e3f21cc	0.18665236
128	0xbe6183e8	-0.22022974
129	0xbe991d77	-0.29905292
130	0xbe9fd2db	-0.31215557
131	0xbe691c78	-0.22764766
132	0xbe64195c	-0.22275299
133	0xbd923431	-0.07138861
134	0x3e477ef6	0.19482026
135	0x3d45ea3d	0.04831909
136	0xbe60d667	-0.21956788
137	0xbe6d23db	-0.23158209
138	0x3e130e2b	0.14360873
139	0xbe5be1c8	-0.21472847
140	0xbd11966a	-0.035543837
141	0x3e0dcd7e	0.1384792
142	0xbe08cf0d	-0.13360234
143	0xbd00ee24	-0.03147711
144	0xbccdd859	-0.025127577
145	0xbd8bdea2	-0.06829573
146	0xbe15e162	-0.14636758
147	0xbe83c18e	-0.25733608
148	0xbe6ef3f9	-0.23335256
149	0xbe1e48c5	-0.15457447
150	0x3e8ec09f	0.27881333
151	0xbe0ec7e0	-0.13943434
152	0xbe468183	-0.19385342
153	0x3d8f4e19	0.06997318
154	0x3da2f152	0.079561844
155	0x3e21f6c5	0.15816791
156	0x3e7a23ec	0.24427766
157	0x3e3622b9	0.17786683
158	0xbe997000	-0.29968262
159	0x3d8cffe6	0.06884746
160	0x3e31ce0a	0.17363754
161	0xbcd0fc13	-0.025510823
162	0xbe4c7c49	-0.19969286
163	0x3ec415da	0.3829792
164	0xbda8c537	-0.08240741
165	0xbe1eb8fe	-0.15500256
166	0xbe8583e3	-0.26077184
167	0x3df0a92d	0.11751018
168	0x3c78de1c	0.015189674
169	0x3daf1789	0.08549411
170	0xbc15ee8d	-0.009151113
171	0xbe1f0797	-0.15530239
172	0xbea210c8	-0.31653428
173	0x3cb4402f	0.022003261
174	0x3e57ab6d	0.21061487
175	0x3e55e3c5	0.20887668
176	0xbe5f09b8	-0.21781051
177	0xbc1a5475	-0.00941955
178	0xbea49fb4	-0.32153094
179	0xbe154918	-0.14578664
180	0xbcc792a7	-0.024361921
181	0x3d7c9152	0.061662026
182	0x3e156554	0.14589435
183	0xbeafc677	-0.34331104
184	0x3dd9201d	0.10601828
185	0xbe9997ee	-0.29998726
186	0x3c646113	0.01393916
187	0x3e625b7a	0.22105208
188	0xbda019bc	-0.078174084
189	0x3e5150ef	0.2044103
190	0xbe9e148f	-0.3087506
191	0xbe208008	-0.1567384
192	0x3e5e394b	0.21701543
193	0xbdc248b0	-0.0948652
194	0x3cbf9477	0.023386223
195	0xbe55a79d	-0.2086472
196	0x3e81df51	0.2536569
197	0x3e09e044	0.13464457
198	0x3e419995	0.18906243
199	0xbea120e8	-0.31470418
200	0xbe6ba1f1	-0.23010994
201	0x3bd35e70	0.006450467
202	0x3e37a412	0.17933682
203	0xbe83f7d8	-0.25775027
204	0xbda56b12	-0.08077063
205	0x3e47a415	0.19496186
206	0x3cbc61a2	0.022995774
207	0x3c5564e2	0.013024541
208	0xbd917f0c	-0.071043104
209	0xbe85d901	-0.26142123
210	0xbe8af8bc	-0.27142894
211	0xbe0d4d87	-0.13799106
212	0xbe1642f2	-0.14673975
213	0x3db8314c	0.08993778
214	0xbdac1b4b	-0.08403643
215	0xbde74b0a	-0.112936094
216	0x3eabba07	0.33540365
217	0x3dc1b53b	0.09458395
218	0x3e5a9eab	0.2134959
219	0xbe307247	-0.17231093
220	0xbe052d66	-0.130056
221	0x3ddf798a	0.109118536
222	0xbe4212d2	-0.18952492
223	0xbe542996	-0.20718989
224	0xbbd975a5	-0.006636339
225	0xbdd6e52a	-0.10492928
226	0xbe38bc7d	-0.18040653
227	0x3e348cdb	0.17631857
228	0x3e86a10e	0.2629475
229	0x3bc95ae4	0.006144868
230	0xbdda083d	-0.106461026
231	0xbeabcbc5	-0.335539
232	0xbe310579	-0.17287244
233	0x3cef9847	0.029247416
234	0x3da2a4dc	0.07941601
235	0xbd1176d2	-0.035513707
236	0xbe089832	-0.13339308
237	0x3e318242	0.17334846
238	0xbe6aef37	-0.22942816
239	0x3e392bcf	0.18083118
240	0xbd126f73	-0.035750818
241	0x3dfada51	0.12248672
242	0x3d1bbdd9	0.03802285
243	0x3e2f917c	0.17145342
244	0x3c462f54	0.012096245
245	0x3eacec31	0.3377395
246	0x3da729d5	0.08162276
247	0x3eb4ae07	0.35289022
248	0x3eba995e	0.36445135
249	0xbd240631	-0.040044967
250	0xbe0fcc93	-0.14042883
251	0x3eba075a	0.36333734
252	0x3e67a38e	0.22620985
253	0xbe61b506	-0.22041711
254	0xbcb6cf13	-0.022315538
255	0xbe91c049	-0.28467014

mlr.0.bias f4 [64]
0	0xbda2912d	-0.07937846
1	0x3e3be8ec	0.18350571
2	0x3d6d9215	0.058000643
3	0xbd4e2dc2	-0.050336607
4	0x3d47be5c	0.048765525
5	0xbdbc25fc	-0.091869324
6	0x3dab9d5a	0.08379622
7	0x3de9dc28	0.114189446
8	0x3d9ec429	0.07752258
9	0xbddc3681	-0.10752583
10	0x3e381edd	0.17980523
11	0xbd2ab479	-0.04167602
12	0xbde62aa7	-0.11238604
13	0x3e35afc9	0.17742838
14	0x3e98fae6	0.2987892
15	0x3e223e19	0.15844001
16	0x3d7efa54	0.06225045
17	0xbdc989ea	-0.09840758
18	0x3dd0607f	0.10174655
19	0x3e29767e	0.16549107
20	0xbe62f22d	-0.22162695
21	0xbd127c4e	-0.035763077
22	0xbe26314c	-0.16229743
23	0x3d5c5ab1	0.053797428
24	0x3cb25b12	0.021771941
25	0xbd9ef89b	-0.077622615
26	0xbcc5d5ab	-0.024149736
27	0x3c2b8d4b	0.010470699
28	0xbd8eb0b8	-0.069673
29	0xbe750295	-0.23926766
30	0x3de0be17	0.10973757
31	0xbe14c80d	-0.14529438
32	0xbd4ab14e	-0.049485497
33	0x3cdf10c7	0.02722968
34	0xbd63be95	-0.055601675
35	0xbe8b08f3	-0.27155265
36	0x3e079f70	0.13244414
37	0xbe0645b8	-0.13112533
38	0xbe22bd3b	-0.15892498
39	0xbb133855	-0.0022463996
40	0xbe1a43a0	-0.1506486
41	0xbe37180b	-0.17880265
42	0xbdc73501	-0.097269066
43	0xbdfa2728	-0.122145
44	0xbdf6e8f9	-0.12056155
45	0xbdd50adf	-0.10402464
46	0xbd02714c	-0.03184633
47	0xbe6f3520	-0.2336011
48	0xbe32ec41	-0.17472936
49	0x3b8a066a	0.0042121904
50	0x3d246f9e	0.04014551
51	0x3d297bdf	0.0413779
52	0xbe336693	-0.17519598
53	0x3dbcb61c	0.09214422
54	0x3d7ef4ba	0.06224511
55	0x3c9bb897	0.019008918
56	0xbe6a8a77	-0.22904383
57	0xbe3ce576	-0.18446907
58	0xbe58dc0e	-0.21177694
59	0xbe0e92cc	-0.13923186
60	0x3dff743b	0.12473341
61	0xbd308e8d	-0.043104697
62	0x3dfb1799	0.1226036
63	0xbe2d8562	-0.16945413

mlr.2.weight f4 [208, 64]
0	0x3c9b9b60	0.018994987
1	0xbcb0c613	-0.021578824
2	0x3d3e0d2f	0.04639929
3	0xbd5ff024	-0.054672375
4	0xbd006380	-0.03134489
5	0xbd6f1aae	-0.058375053
6	0xbe696cb9	-0.2279538
7	0x3df31122	0.11868502
8	0x3d78837c	0.06067227
9	0x3ca28be0	0.019842088
10	0x3e56890c	0.20950717
11	0xbc608f60	-0.013706058
12	0xbdce1958	-0.10063428
13	0x3e2b4e50	0.16729093
14	0xbbd05d7f	-0.006358802
15	0x3dbd0ab9	0.09230561
16	0xbe386f33	-0.18011169
17	0xbd6f9318	-0.05848989
18	0x3ca985c1	0.020693662
19	0x3d5c043d	0.05371498
20	0x3e06e6f6	0.13174042
21	0xbd76c180	-0.06024313
22	0x3e0cc653	0.1374753
23	0xbc96bcc0	-0.01840055
24	0xbccec18a	-0.025238771
25	0x3be849b1	0.007088863
26	0x3dfc0300	0.1230526
27	0x3d82774a	0.06370409
28	0xbc8e0b6e	-0.017339434
29	0x3cc45fe3	0.023971504
30	0x3de33f73	0.11096086
31	0xbdd79c4a	-0.10527857
32	0xbd267e88	-0.040648013
33	0x3d95d588	0.073161185
34	0x3e1ae1c6	0.15125188
35	0x3df44d08	0.11928755
36	0xbdb8d136	-0.09024279
37	0x3d8a7604	0.06760791
38	0xbd8d32f4	-0.06894484
39	0x3e08a484	0.13344008
40	0x3db8b7c8	0.090194285
41	0x3e5430c5	0.20721729
42	0x3db85548	0.09000641
43	0x3e1023d3	0.14076166
44	0x3b1f7240	0.0024329573
45	0x3e1dd375	0.15412696
46	0x3c09415a	0.008377397
47	0x3d5ef150	0.054429352
48	0xbd248ecc	-0.040175244
49	0xbb098e00	-0.002098918
50	0xbdded126	-0.10879736
51	0xbc95b26d	-0.018273557
52	0xbd437cbf	-0.04772639
53	0xbd2cb550	-0.0421651
54	0xbd879771	-0.06620682
55	0xbd2f3f14	-0.042784765
56	0x3e25436d	0.16139002
57	0x3e1de262	0.1541839
58	0x3e23d9bc	0.16001028
59	0x3e0223cc	0.12708968
60	0xbd339b2a	-0.043849148
61	0xbdfd2fbe	-0.12362622
62	0x3d42356c	0.04741423
63	0x3d8f70bc	0.07003924
64	0xbddbc772	-0.107314005
65	0x3e2dbd6d	0.16966791
66	0x3dc9514a	0.09829958
67	0x3bf81f20	0.0075720698
68	0xbd9a3abe	-0.075307354
69	0x3e16b5bb	0.14717762
70	0xbe82b41d	-0.2552804
71	0x3da98604	0.082775146
72	0xbdad210c	-0.08453569
73	0x3e54640c	0.2074129
74	0x3d037d23	0.03210176
75	0x3dfd4f80	0.12368679
76	0xbd58ef2c	-0.052962467
77	0x3e526509	0.20546354
78	0x3d764bc0	0.060130835
79	0x3e1e8dac	0.15483731
80	0xbe68dcb9	-0.22740449
81	0x3d524be8	0.05134192
82	0xbbbaf213	-0.005705127
83	0xbcba503d	-0.022743339
84	0x3de6b11e	0.11264251
85	0x3dc895fc	0.09794232
86	0x3c6d3ecf	0.014480307
87	0x3d20ee58	0.039289802
88	0x3d4ad904	0.04952337
89	0x3e4bb2b1	0.19892384
90	0x3d9936a8	0.07481128
91	0x3e11b69d	0.14229818
92	0xbd7abf9b	-0.061217885
93	0xbbd600f6	-0.0065308763
94	0x3dd4f235	0.1039776
95	0xbd962f34	-0.07333222
96	0x3e388026	0.18017635
97	0xbdf60282	-0.12012197
98	0x3e279bda	0.16368046
99	0x3dff35c2	0.12461425
100	0x3d80364a	0.06260355
101	0x3d2e94c4	0.042622343
102	0xbde4d724	-0.11173847
103	0x3e588e21	0.21147968
104	0xbcaf2718	-0.021380946
105	0x3d8a13ac	0.06742033
106	0x3dfcb6b4	0.12339535
107	0x3cd14240	0.025544286
108	0xbc10e420	-0.008843452
109	0x3e7930b6	0.24334988
110	0xbae9be4f	-0.0017833206
111	0xbdb51e10	-0.088436246
112	0x3ca68528	0.020327166
113	0xbc891100	-0.016731739
114	0x3cebdeb8	0.028792724
115	0xbc923fc3	-0.01785267
116	0x3d3a3a22	0.045465596
117	0xbd63b78c	-0.055594966
118	0xbd43f638	-0.047842234
119	0xbce0d0cc	-0.027443312
120	0x3e63bbf1	0.22239663
121	0x3dfcfd45	0.12352995
122	0xbd028c5b	-0.031872135
123	0x3e54e6d7	0.20791183
124	0x3e0ec136	0.13940892
125	0x3cbe0448	0.0231954
126	0xbd964e92	-0.07339205
127	0x3c9a6c80	0.018850565
128	0x3df6aa92	0.120442525
129	0x3e23beb3	0.15990715
130	0xbddeae0a	-0.10873039
131	0x3de9aea6	0.11410265
132	0x3c1ebd70	0.00968872
133	0x3def42d9	0.11682672
134	0xbe2c9504	-0.1685372
135	0x3dda3e0a	0.10656364
136	0xbdc78f98	-0.09744185
137	0x3e4e4f08	0.20147336
138	0x3e290036	0.16503987
139	0x3c1987d0	0.009370759
140	0xbdb2e22c	-0.08734545
141	0x3dc89e11	0.09795774
142	0x3e0b0e77	0.13579737
143	0x3db1710e	0.086641416
144	0xbe477f8b	-0.19482248
145	0x3c2186e0	0.009858817
146	0x3e2a8a53	0.16654329
147	0x3dea89de	0.11452077
148	0x3e5f1dec	0.21788758
149	0x3d4ced3c	0.05003093
150	0x3e0cedad	0.13762541
151	0xbbbd06c0	-0.005768627
152	0x3dd908e4	0.10597399
153	0x3e026651	0.12734343
154	0xbddf43f2	-0.109016314
155	0xbb945c18	-0.00452758
156	0x3c8e5a3a	0.017377008
157	0x3d6364da	0.0555161
158	0x3e7491e7	0.23883782
159	0xbceaf740	-0.028682351
160	0x3dcf0fef	0.10110461
161	0x3da68ebe	0.08132695
162	0x3d235562	0.03987635
163	0x3dcd0534	0.10010758
164	0x3dca20b8	0.09869522
165	0xbdc47ac2	-0.09593727
166	0xbdb44678	-0.08802503
167	0xbbb48c86	-0.0055099158
168	0xbd8c4b0e	-0.06850253
169	0x3debc176	0.11511509
170	0xbc1a26e0	-0.009408683
171	0x3d601125	0.05470385
172	0xbd8157f8	-0.06315607
173	0x3dc01501	0.09379006
174	0x3cb6072d	0.022220219
175	0x3dfb2552	0.12262978
176	0xbd3dc310	-0.046328604
177	0xbdb74bd6	-0.089500114
178	0x3d54d650	0.051962197
179	0x3d26173e	0.04054951
180	0x3e09cf3c	0.1345796
181	0x3d9ff508	0.07810408
182	0x3e08e9c4	0.13370425
183	0xbc5cdf3e	-0.013480959
184	0x3e46985a	0.19394055
185	0x3e53c0fd	0.20679088
186	0x3a7e98aa	0.000971208
187	0x3e4f5f07	0.20251094
188	0x3e29d773	0.16586094
189	0x3ab36c80	0.0013688952
190	0x3d76dcb0	0.060269058
191	0xbd330198	-0.04370269
192	0xbddf4770	-0.109022975
193	0x3d54c0f7	0.051941838
194	0x3d44f2b3	0.04808302
195	0xbda74fa4	-0.08169487
196	0x3d7851e0	0.060624957
197	0xbda19b5a	-0.07890959
198	0xbea57755	-0.32317606
199	0x3df7e86e	0.12104879
200	0x3d0b6574	0.0340323
201	0x3ba430c1	0.0050106947
202	0x3e0ee9e0	0.13956404
203	0x3cae8178	0.02130197
204	0x3d0b38f0	0.033989847
205	0x3e0993e5	0.13435324
206	0xbd39d991	-0.045373503
207	0xbcd44c8d	-0.025915409
208	0xbe77141c	-0.24128765
209	0x3d0ba01c	0.03408824
210	0x3d4f1a03	0.050561916
211	0x3df08792	0.11744608
212	0x3db5ee3f	0.088833325
213	0xbb9529a0	-0.004552081
214	0x3d2537d1	0.040336434
215	0xbd07fb48	-0.033198625
216	0x3e28c80b	0.1648256
217	0x3d96224c	0.0733076
218	0xbdec9a56	-0.11552875
219	0x3d92f471	0.0717553
220	0xbd66ed48	-0.056378633
221	0x3db57aec	0.08861336
222	0x3e864bb9	0.26229647
223	0xbdfdef66	-0.12399177
224	0x3d587092	0.05284173
225	0xbc4427f0	-0.0119724125
226	0x3cf74fd4	0.030189432
227	0x3deb3532	0.114847556
228	0xbcdf6f98	-0.027274892
229	0x3da47574	0.08030215
230	0x3d20e161	0.039277438
231	0xbd251577	-0.040303674
232	0x3cf0a030	0.029373258
233	0x3e8dbed4	0.27684653
234	0xbda77324	-0.08176258
235	0xbcbb69ef	-0.022877662
236	0x3dfa95da	0.12235613
237	0x3e5616b2	0.20907095
238	0x3c8bd97d	0.01707148
239	0x3d9a0bf6	0.075218126
240	0xbc8300a0	-0.015991509
241	0xbdfc65de	-0.12324117
242	0x3c19df90	0.00939168
243	0x3dc307be	0.09522961
244	0xbbddf45c	-0.0067735147
245	0x3d321dc8	0.043485433
246	0xbdd93cdf	-0.10607313
247	0x3e17f341	0.14838888
248	0x3e999931	0.29999688
249	0x3e3367e4	0.175201
250	0x3da65773	0.08122148
251	0x3dc92bf0	0.098228335
252	0xbcbb5a3b	-0.022870174
253	0xbcffded0	-0.031234175
254	0xbc438480	-0.011933446
255	0xbd8e75e0	-0.069560766

mlr.2.bias f4 [208]
0	0x3db384c2	0.08765556
1	0x3d88f49a	0.06687279
2	0xbcc9e610	-0.024645835
3	0x3dca42b3	0.09876003
4	0x3e03d96f	0.12875913
5	0x3dfc0c95	0.12307087
6	0x3e153d20	0.14574099
7	0x3cc47696	0.023982327
8	0x3dc8ff32	0.098143
9	0x3df2ac94	0.11849323
10	0x3dd87faa	0.10571225
11	0x3d1cab2d	0.038249183
12	0x3ddb2d98	0.10702056
13	0xbd2b1148	-0.041764528
14	0xbc68e8fe	-0.014215706
15	0x3d76ac04	0.06022264
16	0x3dc52cd5	0.09627692
17	0x3d7309b1	0.059335414
18	0xbcc34560	-0.023836792
19	0x3b74254d	0.0037253678
20	0x3d98113c	0.07425162
21	0x3c989c67	0.018629266
22	0x3dc34ff1	0.09536732
23	0x3d205b9b	0.03914986
24	0x3db52573	0.088450335
25	0x3d88b23a	0.06674619
26	0x3d4d8180	0.05017233
27	0x3db4e2b1	0.088323005
28	0x3d3fbeb0	0.046812713
29	0x3d89ae84	0.06722739
30	0x3c97d842	0.018535737
31	0x3d8daa8a	0.06917293
32	0x3de39a9b	0.11113473
33	0xbc89ec54	-0.016836323
34	0x3d6963cf	0.05697995
35	0x3c55c4be	0.013047395
36	0x3d806f31	0.06271208
37	0x3d578ef8	0.05262658
38	0x3de07569	0.10959894
39	0xbd0eab3e	-0.034831278
40	0x3c994fcc	0.018714808
41	0x3dddbc86	0.108269736
42	0x3cd92d24	0.026510783
43	0x3dab0f60	0.08352542
44	0xbca4c5e0	-0.020113885
45	0x3de060c8	0.109559596
46	0xbc9d93b3	-0.019235468
47	0x3cc9213c	0.02455198
48	0xbc15826e	-0.009125335
49	0x3e039701	0.12850572
50	0x3d8adf5a	0.06780882
51	0x3c85b496	0.016321462
52	0x3dd3229b	0.10309335
53	0x3df6a35f	0.12042879
54	0x3c994b91	0.01871279
55	0x3d2a5aa7	0.04159036
56	0x3d8f4216	0.06995027
57	0x3dcc4c29	0.09975464
58	0x3de1d09e	0.11026119
59	0x3e1bc687	0.15212451
60	0x3dc57967	0.09642296
61	0x3df5b1ad	0.119967796
62	0x3da2be61	0.07946468
63	0x3e1fa587	0.15590487
64	0x3d86f5af	0.06589829
65	0x3bf92500	0.0076032877
66	0x3dbe6508	0.09296614
67	0x3b22ec18	0.002485996
68	0xbc7b787a	-0.015348548
69	0xbd094351	-0.033511464
70	0x3dd3c3bc	0.10340068
71	0x3d9169b1	0.07100237
72	0x3d9c9f1a	0.07647534
73	0x3c48f751	0.012265996
74	0xbd176c3e	-0.036968462
75	0x3d7de2f3	0.061984014
76	0xb9ffd564	-0.00048796379
77	0x3d6db6e0	0.05803573
78	0x3dc4a09c	0.09600946
79	0x3de54286	0.11194329
80	0x3e13ac85	0.1442128
81	0x3d465b0f	0.048426684
82	0x3dde7b86	0.10863404
83	0x3d601238	0.054704875
84	0x3daaf342	0.08347179
85	0x3d1e3434	0.038624004
86	0x3d994f60	0.07485843
87	0x3dcd8b53	0.100363396
88	0x3df0d5c1	0.1175952
89	0x3ccce49f	0.025011359
90	0x3db2a8f6	0.08723633
91	0x3d98516e	0.074374065
92	0x3dca9d67	0.09893303
93	0x3cbb20a4	0.022842713
94	0x3e0f4320	0.1399045
95	0x3e0033ad	0.12519713
96	0xbbd9b15c	-0.0066434573
97	0x3dd1967b	0.1023378
98	0x3da2fe07	0.07958608
99	0x3d11f08a	0.035629787
100	0xbc3d9f7d	-0.0115736695
101	0x3b09d64f	0.002103228
102	0x3d9ee917	0.07759302
103	0x3c8b2e2e	0.016989794
104	0x3e0880d4	0.13330394
105	0x3da7233c	0.08161017
106	0x3d40f0dc	0.0471047
107	0x3e1c6a82	0.15275005
108	0x3c581861	0.013189406
109	0x3d1fed61	0.03904474
110	0x3e36df97	0.1785873
111	0x3dfb0880	0.122574806
112	0x3e3523d7	0.17689453
113	0x3e0b8157	0.13623558
114	0x3d22bb31	0.0397293
115	0x3e0b6954	0.13614398
116	0x3db38640	0.087658405
117	0x3e038a8d	0.12845822
118	0x3bbc35d2	0.0057437206
119	0x3daa4225	0.08313397
120	0x3d2f9c77	0.042873826
121	0x3d90005a	0.07031317
122	0x3cb82369	0.022477822
123	0x3dd79a48	0.10527474
124	0x3ddc2899	0.10749931
125	0x3de7f035	0.11325113
126	0xba90f0a4	-0.0011058045
127	0x3b4a8195	0.003089999
128	0x3dd6a892	0.10481371
129	0xbc756a7a	-0.014978999
130	0x3cc67a8d	0.024228359
131	0x3dba0e33	0.090847395
132	0x3e0e7e71	0.13915421
133	0x3cc29eb4	0.023757316
134	0x3ce72439	0.028215514
135	0x3c77c525	0.0151226865
136	0x3d2e4795	0.042548735
137	0x3dff9688	0.124798834
138	0x3b989abf	0.004657119
139	0x3dfe6f6e	0.12423597
140	0x3df0cd59	0.11757917
141	0x3d9ba694	0.07600132
142	0x3de5c998	0.112200916
143	0x3d9f104d	0.07766781
144	0x3d895b82	0.06706907
145	0x3d270fc2	0.040786512
146	0xbc3bee9b	-0.011470462
147	0xbd48760f	-0.048940714
148	0x3d7568dc	0.059914455
149	0xbb07c8ac	-0.0020718975
150	0xbc7e1e3f	-0.015510141
151	0x3d0cbe20	0.034361005
152	0x3be964c5	0.0071226084
153	0x3e06d03e	0.13165376
154	0x3dd36f1f	0.10323929
155	0xbd361f6c	-0.04446356
156	0x3dd04826	0.10170011
157	0x3d0a7f79	0.033812974
158	0x3e1a270c	0.15053958
159	0x3db4cb36	0.08827822
160	0x3d375f30	0.044768512
161	0x3dde014b	0.1084009
162	0x3b2331f0	0.0024901591
163	0x3d01600d	0.03158574
164	0x3de31c93	0.110894345
165	0x3dceb7a8	0.100936234
166	0x3d189109	0.03724769
167	0x3db4dfa8	0.088317215
168	0xbcd01bfd	-0.02540397
169	0xbd0b3cd3	-0.033993553
170	0xbb86d9a2	-0.0041152993
171	0xbd7c15b0	-0.06154412
172	0x3dab988d	0.08378706
173	0xbccdfdcb	-0.025145432
174	0xbcdf58f9	-0.027264105
175	0x3d10a78f	0.035316046
176	0x3d8484e3	0.06470659
177	0x3dc45f06	0.09588437
178	0x3d9836b4	0.07432309
179	0x3c120cac	0.008914154
180	0x3d9c34b4	0.0762724
181	0x3cdb052e	0.026735868
182	0x3dfcbc3e	0.12340592
183	0xb840cc7c	-4.5966808e-05
184	0x3dafed17	0.08590143
185	0x3dd609ed	0.10451112
186	0xbc1c07a5	-0.009523307
187	0x3dd65be2	0.10466744
188	0x3d21b739	0.039481375
189	0x3dcd4595	0.10023037
190	0x3ca719ef	0.020398108
191	0x3d3ad298	0.045610994
192	0xbc318172	-0.010834085
193	0x3d19f9ca	0.037591733
194	0x3d960952	0.073259965
195	0x3d901b79	0.0703649
196	0xbc92dfc6	-0.01792897
197	0xbd4745b0	-0.048650444
198	0x3d617d6e	0.05505126
199	0xbd1c7e28	-0.03820625
200	0xbd39a3d7	-0.045322265
201	0xbd599e51	-0.053129498
202	0x3da85bd1	0.082206376
203	0x3dacb44a	0.08432825
204	0x3bd523eb	0.006504526
205	0x3db2bfc9	0.08727986
206	0x3df38622	0.11890818
207	0x3dadfcbf	0.08495473
