pqc_reup_v1_output/model_params_epoch_240.pth (torch, 61385 bytes, 6 tensors)

reupload_weights f4 [12, 3, 4]
0.17905268 0.06251338 0.1487039 -0.08735636 0.082799844 -0.80528796 0.48141333 0.6942518
0.6987572 0.054568607 0.31594396 -0.69540507 -0.22521918 0.018824156 0.069491394 -0.09774873
0.66909736 -0.93345094 -0.5507472 0.1724807 -0.37929147 -0.013528566 0.40334558 0.30984804
0.3771338 0.062343147 0.011140178 -0.020615075 0.64925134 -0.31974167 -0.093650535 -0.83354264
-0.29391694 0.2803048 0.7796218 -0.13624614 -0.1674611 -0.11673534 0.020272942 -0.08589833
0.18656474 0.8727366 0.20354891 -0.7178875 0.403998 1.0939965 -0.34845242 -0.24473265
0.0796706 -0.09243898 0.09682572 0.05072417 0.9090989 0.8738585 -1.112712 -0.38971403
0.32535914 0.23659314 -1.1583631 -0.2716198 -0.044288862 0.014393858 -0.11068368 -0.19798298
0.6063777 0.3824414 -0.29388252 0.024913086 -0.18233505 -0.36742228 -1.1766667 0.187125
-0.0034722139 0.03452234 -0.26433325 0.037049275 -0.087694496 -0.06691253 -0.45604694 0.56408125
0.4044439 0.3100632 0.2591496 0.60853904 0.087458976 0.07172032 0.07312629 0.004972878
-0.21602893 -0.59800947 -0.33939797 0.25807256 -0.32019943 0.20106313 0.79317915 0.12771234
-0.21773995 0.04129669 0.1966008 0.05162819 -0.14042109 0.28389043 0.66502815 0.064618155
0.16433436 0.7781314 -0.26960772 -0.27031678 -0.13522786 0.26701453 0.23274887 -0.0011647652
-0.25475323 0.67129046 0.37217808 -0.717416 0.5058924 0.29480985 -0.35581285 0.939221
0.17134616 -0.6258879 -0.18440396 0.29095584 0.36924395 0.66077113 0.58628726 0.26595333
-1.0415103 -0.9463134 -1.1247872 -1.1000072 0.012981853 0.111502424 0.12065217 0.26366106
-1.0953403 0.5149014 -0.11405496 -0.8417621 -1.2524767 0.6894024 0.2892192 -0.2337137
00000000: 9659 373e 0407 803d d645 183e e4e7 b2bd
00000010: f792 a93d 5a27 4ebf cf7b f63e 7cba 313f
00000020: c0e1 323f 5583 5f3d 68c3 a13e 1106 32bf
00000030: db9f 66be 1e35 9a3c 8151 8e3d 7c30 c8bd
00000040: f749 2b3f a4f6 6ebf c5fd 0cbf c89e 303e
00000050: 7e32 c2be eba6 5dbc 5083 ce3e 67a4 9e3e
00000060: ae17 c13e 875b 7f3d 4b85 363c f2e0 a8bc
00000070: 5635 263f 2eb5 a3be dacb bfbd 0d63 55bf
00000080: 487c 96be 1c84 8f3e 4b95 473f 1c84 0bbe
00000090: ec7a 2bbe f012 efbd 7113 a63c 77eb afbd
000000a0: d40a 3f3e aa6b 5f3f 206f 503e 7ac7 37bf
000000b0: d3d8 ce3e 1408 8c3f 5b68 b2be 329b 7abe
000000c0: 572a a33d a650 bdbd 904c c63d 26c4 4f3d
000000d0: b5ba 683f 31b5 5f3f 596d 8ebf 9988 c7be
000000e0: 7995 a63e 7945 723e 3e45 94bf c011 8bbe
000000f0: 3d68 35bd 37d4 6b3c 20ae e2bd 0dbc 4abe
00000100: 923b 1b3f 5ccf c33e c577 96be 8716 cc3c
00000110: 0ab6 3abe c61e bcbe 049d 96bf b29d 3f3e
00000120: 158e 63bb 4c67 0d3d b056 87be fbc0 173d
00000130: 2c99 b3bd 7009 89bd fc7e e9be a167 103f
00000140: 4513 cf3e 9bc0 9e3e 42af 843e 37c9 1b3f
00000150: b11d b33d 1ae2 923d 3dc3 953d 86f3 a23b
00000160: b036 5dbe 2617 19bf 92c5 adbe 1622 843e
00000170: 2ef1 a3be 7ee3 4d3e ca0d 4b3f 06c7 023e
00000180: 39f7 5ebe b826 293d b851 493e 1578 533d
00000190: 8cca 0fbe 165a 913e 493f 2a3f 8656 843d
000001a0: 4447 283e 9f33 473f 060a 8abe f666 8abe
000001b0: 2c79 0abe 21b6 883e b855 6e3e 09ab 98ba
000001c0: 046f 82be b1d9 2b3f 208e be3e 93a8 37bf
000001d0: 2a82 013f 51f1 963e 1a2d b6be ca70 703f
000001e0: 5e75 2f3e 303a 20bf 64d4 3cbe 2af8 943e
000001f0: 8b0d bd3e 4c28 293f ec16 163f 092b 883e
00000200: 3650 85bf 9841 72bf 07f9 8fbf 09cd 8cbf
00000210: d7b1 543c 625b e43d 7c18 f73d 95fe 863e
00000220: 1c34 8cbf 94d0 033f a695 e9bd b97d 57bf
00000230: 2851 a0bf ad7c 303f 8a14 943e a552 6fbe

reupload_bias f4 [12, 3]
-0.57983327 0.26301196 -0.47360903 0.5580004 -0.39737767 0.43336207 -0.5769357 0.91643524
0.16701792 0.52357316 0.96424216 1.9314535 -0.3896012 -0.45108795 0.5372291 0.5612673
0.25715613 -0.6200357 -0.08728193 -0.0155506125 0.25984016 -0.7527369 -0.7503769 -0.20653407
0.5089529 0.870261 -0.53291905 -0.64774346 -0.6733236 0.6651659 0.22261967 0.4841579
-2.1159005 -0.5850214 -0.7903161 1.1893904
00000000: f46f 14bf 81a9 863e e27c f2be 1dd9 0e3f
00000010: 1675 cbbe a2e1 dd3e 0fb2 13bf 809b 6a3f
00000020: bf06 2b3e e408 063f 93d8 763f de39 f73f
00000030: cf79 c7be 00f5 e6be d987 093f 37af 0f3f
00000040: f8a9 833e a9ba 1ebf dec0 b2bd ffc7 7ebc
00000050: c509 853e 5eb3 40bf b318 40bf ab7d 53be
00000060: bd4a 023f 6dc9 5e3f 626d 08bf 84d2 25bf
00000070: ef5e 2cbf 5048 2a3f 69f6 633e 8be3 f73e
00000080: ea6a 07c0 f6c3 15bf 2852 4abf f23d 983f

mlr.0.weight f4 [64, 12]
0.004212431 -0.017236283 0.06940076 0.080896474 -0.26219115 -0.10653202 0.24310184 0.11245483
-0.014358 -0.1740439 -0.17661291 -0.2585856 -0.31022555 -0.017833589 0.25993776 -0.08693416
-0.5862767 -0.5952348 0.0026722788 0.55498403 0.08129017 -0.3700057 0.4245732 0.068110876
-0.24187844 0.15294129 -0.18539886 -0.11606978 -0.34642035 0.1375773 0.16228424 0.04856891
-0.25863707 -0.3401632 -0.28549567 0.15954512 0.1385946 0.24292141 0.1512282 0.073061414
-0.0028269046 -0.21953918 -0.24732882 -0.27001187 0.118172616 -0.14173025 -0.058096614 -0.16613406
0.25951198 -0.14125523 -0.4597227 -0.057181895 0.10865402 0.14863096 -0.2039217 -0.60964584
-0.16821507 -0.16172312 0.19297054 -0.30085298 -0.1171153 -0.29973945 0.32373193 0.2766473
0.45193732 -0.7757431 0.37425074 -0.2454666 0.15540978 -0.19887297 -0.24687213 -0.2237616
-0.105115145 -0.42172682 0.31981754 -0.5357227 0.30993414 0.31186152 0.44730887 -0.35408467
-0.25764206 0.07724322 0.16065282 -0.44612697 -0.15846081 -0.26887962 0.033204988 -0.44213766
-0.22604944 -0.010242894 -0.13151889 0.44388592 0.7677025 -0.3280184 0.20595716 -0.032084983
0.1945678 -0.57267886 -0.43944106 -0.3626069 -0.16516733 -0.44214228 -0.34246275 -0.278079
-0.018065402 -0.13668755 0.051042303 -0.14111754 -0.4977686 0.42603314 -0.05568844 0.069917485
-0.26908672 0.00083960604 0.30708426 0.31253564 -0.65101445 0.47123915 0.4328723 -0.01548051
-0.094189525 0.52652735 -0.009123553 0.43616304 -0.49779493 -0.3009701 0.23447521 0.33733317
-0.3470277 -0.16386043 -0.3373396 -0.2689599 -0.22275299 -0.07138861 0.19482026 0.04831909
-0.21956788 -0.23158209 0.14360873 -0.21472847 -0.035543837 0.1384792 -0.13360234 -0.03147711
-0.025127577 -0.06829573 -0.14636758 -0.25733608 -0.23335256 -0.15457447 0.27881333 -0.13943434
-0.19385342 0.06997318 0.079561844 0.15816791 0.6526518 0.06681432 -0.45220166 0.19105013
0.349777 -0.36461177 -0.31079143 0.2707658 -0.331798 -0.33469373 -0.17973414 0.4078235
0.047826175 0.24439606 0.006151677 -0.38912725 -0.64082235 0.054551065 0.2426311 0.41896197
-0.30444595 0.13214634 0.061106265 -0.20948619 -0.037123766 0.32870448 0.3091491 -0.49091965
-0.021191308 -0.7316472 -0.005002972 0.40638927 0.13770087 0.41166303 -0.26938564 -0.5585291
0.46685004 -0.1357785 0.011806261 -0.23269197 0.43678918 0.2184938 0.108253784 -0.5877801
-0.36976123 0.08194192 0.011626861 -0.24073383 -0.08077063 0.19496186 0.022995774 0.013024541
-0.071043104 -0.26142123 -0.27142894 -0.13799106 -0.14673975 0.08993778 -0.08403643 -0.112936094
0.7419187 0.3459987 0.25041673 -0.3037777 -0.14075187 0.23273915 -0.37997422 -0.5220924
-0.20061317 -0.41500655 -0.18925788 0.42962748 0.6597349 -0.0089732995 -0.12480155 -0.52775407
-0.2567209 0.006096147 -0.054418325 -0.0879112 -0.34742913 0.48426703 -0.13628927 0.25781482
-0.18523744 0.12838882 0.19833547 0.12824067 -0.15547308 0.46592098 0.24124049 0.35898185
0.3505661 -0.22852239 -0.116357096 0.525692 0.22620985 -0.22041711 -0.022315538 -0.28467014
00000000: 6f08 8a3b 1b33 8dbc fc21 8e3d 0dad a53d
00000010: eb3d 86be 762d dabd b0ef 783e b84e e63d
00000020: d13d 6bbc 9038 32be 04da 34be 5565 84be
00000030: e2d5 9ebe bf17 92bc 9016 853e 890a b2bd
00000040: 3b16 16bf 4f61 18bf 6621 2f3b 6f13 0e3f
00000050: 767b a63d 6371 bdbe a961 d93e b77d 8b3d
00000060: fbae 77be a49c 1c3e 33d9 3dbe feb5 edbd
00000070: 025e b1be 10e1 0c3e d72d 263e 32f0 463d
00000080: 146c 84be df29 aebe 7d2c 92be cc5f 233e
00000090: beeb 0d3e 64c0 783e 91db 1a3e 39a1 953d
000000a0: 9743 39bb e1ce 60be c443 7dbe ff3e 8abe
000000b0: 7c04 f23d bc21 11be b7f6 6dbd 0c1f 2abe
000000c0: c1de 843e 36a5 10be c660 ebbe 9037 6abd
000000d0: 0086 de3d b732 183e dad0 50be c011 1cbf
000000e0: 9240 2cbe bf9a 25be 129a 453e 6709 9abe
000000f0: 25da efbd 7377 99be 31c0 a53e b7a4 8d3e
00000100: 5464 e73e 1a97 46bf cb9d bf3e 995b 7bbe
00000110: be23 1f3e 5ba5 4bbe 0ccc 7cbe c321 65be
00000120: 9c46 d7bd 94ec d7be 20bf a33e 1f25 09bf
00000130: b0af 9e3e 50ac 9f3e ab05 e53e 964a b5be
00000140: a9e9 83be b131 9e3d 2c82 243e c16a e4be
00000150: 8d43 22be 97aa 89be f401 083d de5f e2be
00000160: 8179 67be d0d1 27bc e3ac 06be 0445 e33e
00000170: 2788 443f 07f2 a7be 6fe6 523e 8b6b 03bd
00000180: c83c 473e 159b 12bf 6bfe e0be 9da7 b9be
00000190: a021 29be 7960 e2be 4757 afbe 5f60 8ebe
000001a0: e5fd 93bc d2f7 0bbe bc11 513d 1e81 10be
000001b0: 87db febe 0421 da3e 9019 64bd e630 8f3d
000001c0: bcc5 89be 0219 5c3a 263a 9d3e ac04 a03e
000001d0: e2a8 26bf 4246 f13e 70a1 dd3e f7a1 7dbc
000001e0: 70e6 c0bd 7fca 063f f47a 15bc c350 df3e
000001f0: fade febe c118 9abe 451a 703e efb6 ac3e
00000200: 9dad b1be 07cb 27be c7b7 acbe 1db5 89be
00000210: 5c19 64be 3134 92bd f67e 473e 3dea 453d
00000220: 67d6 60be db23 6dbe 2b0e 133e c8e1 5bbe
00000230: 6a96 11bd 7ecd 0d3e 0dcf 08be 24ee 00bd
00000240: 59d8 cdbc a2de 8bbd 62e1 15be 8ec1 83be
00000250: f9f3 6ebe c548 1ebe 9fc0 8e3e e0c7 0ebe
00000260: 8381 46be 194e 8f3d 52f1 a23d c5f6 213e
00000270: 3014 273f f2d5 883d fa86 e7be a5a2 433e
00000280: f915 b33e 65ae babe 0e20 9fbe d1a1 8a3e
00000290: 6de1 a9be fa5c abbe 3a0c 38be 3ece d03e
000002a0: 61e5 433d f642 7a3e 0294 c93b b03b c7be
000002b0: ef0c 24bf f070 5f3d 4974 783e 2f82 d63e
000002c0: 57e0 9bbe 5f51 073e 904a 7a3d 8c83 56be
000002d0: 170f 18bd f44b a83e ca48 9e3e d259 fbbe
000002e0: 6599 adbc 3b4d 3bbf f9ef a3bb 4112 d03e
000002f0: 7501 0d3e 7fc5 d23e eaec 89be c3fb 0ebf
00000300: f806 ef3e 8509 0bbe 0c6f 413c ce46 6ebe
00000310: d5a2 df3e d7bc 5f3e 29b4 dd3d c278 16bf
00000320: 5851 bdbe 2ad1 a73d 977e 3e3c ee82 76be
00000330: 126b a5bd 15a4 473e a261 bc3c e264 553c
00000340: 0c7f 91bd 01d9 85be bcf8 8abe 874d 0dbe
00000350: f242 16be 4c31 b83d 4b1b acbd 0a4b e7bd
00000360: 62ee 3d3f be26 b13e 9f36 803e c088 9bbe
00000370: 4221 10be 2c53 6e3e fb8b c2be d9a7 05bf
00000380: 8a6d 4dbe bd7b d4be d1cc 41be 22f8 db3e
00000390: 63e4 283f bf04 13bc f497 ffbd e41a 07bf
000003a0: ec70 83be 30c2 c73b c0e5 5ebd ca0a b4bd
000003b0: 3be2 b1be d9f1 f73e 6a8f 0bbe 4e00 843e
000003c0: e2ae 3dbe 5c78 033e 7418 4b3e 8651 033e
000003d0: 5634 1fbe 328d ee3e bf07 773e 78cc b73e
000003e0: 667d b33e c601 6abe a14c eebd c093 063f
000003f0: 8ea3 673e 06b5 61be 13cf b6bc 49c0 91be

mlr.0.bias f4 [64]
-0.07937846 0.1570195 0.027739841 -0.050336607 0.13992177 -0.09598139 0.10903872 0.079496905
0.21096067 0.046717644 0.09602539 -0.04167602 -0.11238604 0.10845685 0.15952097 0.11096778
0.041017108 -0.09840758 0.09884856 0.16248606 -0.08745507 -0.035763077 -0.016701056 0.124222875
0.008635721 -0.012456162 -0.024149736 -0.043189712 -0.069673 -0.09158947 0.049292497 -0.14529438
-0.063371874 0.02722968 0.022232452 -0.27155265 0.11956292 -0.13112533 -0.15892498 0.027235102
-0.1506486 -0.027165085 -0.097269066 0.0049874876 -0.12056155 -0.04357666 -0.0034335798 -0.2336011
-0.17472936 -0.023490377 -0.011940182 0.06611479 -0.039388143 0.21582046 0.11733114 0.0378022
-0.11685918 -0.110901795 -0.0304595 -0.014378887 0.11841436 -0.043104697 0.17470358 -0.16945413
00000000: 2d91 a2bd b8c9 203e aa3e e33c c22d 4ebd
00000010: a747 0f3e e491 c4bd b14f df3d 46cf a23d
00000020: 1306 583e 005b 3f3d f6a8 c43d 79b4 2abd
00000030: a72a e6bd a01e de3d 7759 233e 1343 e33d
00000040: 8e01 283d ea89 c9bd 1d71 ca3d bf62 263e
00000050: a51b b3bd 4e7c 12bd a7d0 88bc 9068 fe3d
00000060: d77c 0d3c ee14 4cbc abd5 c5bc b2e7 30bd
00000070: b8b0 8ebd 4393 bbbd eee6 493d 0dc8 14be
00000080: 1dc9 81bd c710 df3c d520 b63c f308 8bbe
00000090: 67dd f43d b845 06be 3bbd 22be 261c df3c
000000a0: a043 1abe 5089 debc 0135 c7bd 146e a33b
000000b0: f9e8 f6bd 717d 32bd e905 61bb 2035 6fbe
000000c0: 41ec 32be e46e c0bc c1a0 43bc 3167 873d
000000d0: 7655 21bd 0a00 5d3e 4f4b f03d 7bd6 1a3d
000000e0: de53 efbd 7b20 e3bd 3486 f9bc 6c95 6bbc
000000f0: 3a83 f23d 8d8e 30bd 7fe5 323e 6285 2dbe

mlr.2.weight f4 [208, 64]
0.018994987 0.53066844 0.045872785 -0.054672375 -0.15460068 0.8531588 -0.3292073 -0.5537031
-0.3086007 0.3669358 0.63791895 -0.013706058 -0.10063428 -0.037536625 0.14392322 0.7083518
-0.48663148 -0.05848989 -0.7425406 -0.31424886 0.18070108 -0.06024313 0.1909166 -0.21875031
-0.5501579 0.36557326 0.1230526 0.062234093 -0.017339434 0.32195315 0.053753003 -0.10527857
-0.04429257 0.073161185 -0.31424883 0.11928755 0.14163892 0.06760791 -0.06894484 0.20764765
0.090194285 0.33910736 0.09000641 0.4927242 0.0024329573 0.40490994 0.39827263 0.054429352
-0.040175244 -0.030318104 -0.11008343 -0.43289286 -0.050665334 -0.033607047 0.07922377 1.5387791
0.2544444 0.54592854 0.37779984 0.19778141 -0.812598 -0.12362622 0.50237924 0.07003924
-0.107314005 0.36463788 0.098302506 0.0075720698 -0.5099606 0.92802334 -0.11735521 0.62516886
-0.62008846 0.31750476 0.39431274 0.12368679 -0.052962467 -0.44544265 0.29498196 0.47267345
-0.6357581 0.05134192 -1.1417011 -0.24115077 0.27749854 0.09794232 -0.019592458 -0.16886584
0.81818223 0.40514117 0.07481128 0.1374687 -0.061217885 0.07895745 -0.038390473 -0.07333222
0.21099669 -0.12012197 0.4168536 0.12461425 0.31773517 0.042622343 -0.11173847 0.056111168
-0.021380946 0.8264093 0.12339535 0.14431685 -0.008843452 0.5390145 0.3801738 -0.088436246
0.020327166 0.0068908203 0.029783415 0.42925918 -0.123303466 -0.15115781 0.2635023 0.04068633
0.30641592 -0.16057664 0.12657376 0.18195134 -0.13718837 0.0231954 0.36694515 0.018850565
0.120442525 0.72482026 -0.109130494 0.11410265 -0.09988223 0.87821484 -0.15803069 0.07552612
-0.52444935 0.36590424 0.83211195 0.009370759 -0.08734545 -0.43209422 0.45375237 0.8891983
-0.64214486 0.009858817 -0.48539352 -0.32423508 0.36296898 0.05003093 0.20169051 -0.011850162
0.17996924 0.7889815 -0.109016314 -0.00818139 0.017377008 0.34920833 0.3251422 -0.028682351
0.058754213 0.08132695 -0.44645813 0.10010758 0.18872207 -0.09593727 -0.08802503 -0.14401431
-0.06850253 0.5460832 -0.009408683 0.21387939 -0.06315607 0.34884152 0.26097742 0.12262978
-0.046328604 -0.057432454 0.051755037 -0.61177593 0.11117632 -0.07937298 0.0453199 0.86206585
0.28110144 0.3550836 0.29606563 0.21146622 -0.2614536 0.0013688952 0.4256557 -0.04370269
-0.109022975 -0.36987674 0.047647297 -0.08169487 -0.5710295 0.83569014 -0.20710623 0.3792737
-0.79130423 -0.1291091 0.2557732 0.02130197 0.033989847 -0.07627724 -0.14066184 -0.13540955
-0.37845114 0.03408824 -0.94897723 -0.32800162 0.27326992 -0.004552081 -0.022451054 -0.004827264
1.0562057 0.17512889 -0.11552875 0.06702617 -0.056378633 0.19688894 0.57140255 -0.12399177
0.0664194 -0.0119724125 0.46737602 0.114847556 0.42514995 0.08030215 0.039277438 -0.20486987
0.029373258 0.9413765 -0.08176258 0.0064585814 0.12235613 0.52091086 0.49754247 0.075218126
-0.015991509 -0.0877975 0.0072223996 0.60122496 -0.10236109 -0.11409071 0.109042965 -0.5135195
0.41933218 -0.1858852 0.13194323 0.11356552 -0.32067153 -0.031234175 0.3114695 -0.069560766
00000000: 609b 9b3c e3d9 073f 1ae5 3b3d 24f0 5fbd
00000010: a44f 1ebe 9d68 5a3f dc8d a8be 7dbf 0dbf
00000020: e900 9ebe 02df bb3e a84e 233f 608f 60bc
00000030: 5819 cebd 01c0 19bd 9c60 133e 8b56 353f
00000040: c327 f9be 1893 6fbd 2417 3ebf 3ae5 a0be
00000050: b409 393e 80c1 76bd a47f 433e 1500 60be
00000060: 26d7 0cbf 6b2c bb3e 0003 fc3d 2de9 7e3d
00000070: 6e0b 8ebc 0bd7 a43e 1c2c 5c3d 4a9c d7bd
00000080: 206c 35bd 88d5 953d 39e5 a0be 084d f43d
00000090: cb09 113e 0476 8a3d f432 8dbd 96a1 543e
000000a0: c8b7 b83d 7b9f ad3e 4855 b83d 5946 fc3e
000000b0: 4072 1f3b 5b50 cf3e 64ea cb3e 50f1 5e3d
000000c0: cc8e 24bd ac5d f8bc 6c73 e1bd 22a4 ddbe
000000d0: 7486 4fbd 8ba7 09bd 1240 a23d b7f6 c43f
000000e0: 8946 823e f9c1 0b3f fb6e c13e 3687 4a3e
000000f0: 6c06 50bf be2f fdbd ed9b 003f bc70 8f3d
00000100: 72c7 dbbd d1b1 ba3e d352 c93d 201f f83b
00000110: c78c 02bf f092 6d3f ee57 f0bd 110b 203f
00000120: 1ebe 1ebf fc8f a23e 5ce3 c93e 804f fd3d
00000130: 2cef 58bd 0f11 e4be e007 973e 4102 f23e
00000140: 0bc1 22bf e84b 523d 4323 92bf 3af0 76be
00000150: 4a14 8e3e fc95 c83d 5d80 a0bc 2beb 2cbe
00000160: 6474 513f aa6e cf3e a836 993d 98c4 0c3e
00000170: 9bbf 7abd 72b4 a13d 543f 1dbd 342f 96bd
00000180: 840f 583e 8202 f6bd d66d d53e c235 ff3d
00000190: 2fae a23e c494 2e3d 24d7 e4bd d3d4 653d
000001a0: 1827 afbc 8f8f 533f b4b6 fc3d ccc7 133e
000001b0: 20e4 10bc dbfc 093f 24a6 c23e 101e b5bd
000001c0: 2885 a63c 64cc e13b 59fc f33c dcc7 db3e
000001d0: 8786 fcbd 1dc9 1abe c6e9 863e b6a6 263d
000001e0: 8ce2 9c3e 346e 24be 8d9c 013e 7451 3a3e
000001f0: 1c7b 0cbe 4804 be3c 3ce0 bb3e 806c 9a3c
00000200: 92aa f63d d28d 393f cf7f dfbd a6ae e93d
00000210: 0e8f ccbd b0d2 603f ccd2 21be 70ad 9a3d
00000220: 5042 06bf cd57 bb3e 4a05 553f d087 193c
00000230: 2ce2 b2bd 743b ddbe 3b52 e83e 80a2 633f
00000240: 9b63 24bf e086 213c 8085 f8be 2402 a6be
00000250: 12d7 b93e 3ced 4c3d f587 4e3e 2f27 42bc
00000260: db49 383e b1fa 493f f243 dfbd 3d0b 06bc
00000270: 3a5a 8e3c 6fcb b23e 0a79 a63e 40f7 eabc
00000280: 42a8 703d be8e a63d 2996 e4be 3405 cd3d
00000290: 5c40 413e c27a c4bd 7846 b4bd 7d78 13be
000002a0: 0e4b 8cbd 1ccc 0b3f e026 1abc 3303 5b3e
000002b0: f857 81bd 5b9b b23e d59e 853e 5225 fb3d
000002c0: 10c3 3dbd 4b3e 6bbd 17fd 533d 599d 1cbf
000002d0: 69b0 e33d 4d8e a2bd 5ca1 393d 59b0 5c3f
000002e0: 87ec 8f3e 85cd b53e ea95 973e 9a8a 583e
000002f0: 3fdd 85be 806c b33a 8bef d93e 9801 33bd
00000300: 7047 dfbd 7c60 bdbe d029 433d a44f a7bd
00000310: fd2e 12bf caef 553f a813 54be 2a30 c23e
00000320: ea92 4abf 2d35 04be b4f4 823e 7881 ae3c
00000330: f038 0b3d 3e37 9cbd a809 10be cda8 0abe
00000340: 59c4 c1be 1ca0 0b3d 2cf0 72bf d4ef a7be
00000350: 09ea 8b3e a029 95bb 46eb b7bc 072e 9ebb
00000360: c031 873f fd54 333e 569a ecbd 0445 893d
00000370: 48ed 66bd 419d 493e 7047 123f 66ef fdbd
00000380: e506 883d f027 44bc e94b ef3e 3235 eb3d
00000390: 41ad d93e 7475 a43d 61e1 203d 68c9 51be
000003a0: 30a0 f03c 0dfe 703f 2473 a7bd 82a2 d33b
000003b0: da95 fa3d 6a5a 053f e3bd fe3e f60b 9a3d
000003c0: a000 83bc 2dcf b3bd e1a9 ec3b e1e9 193f
000003d0: b1a2 d1bd 64a8 e9bd eb51 df3d 0476 03bf
000003e0: b5b2 d63e b158 3ebe 201c 073e 0a95 e83d
000003f0: 0f2f a4be d0de ffbc ee78 9f3e e075 8ebd

mlr.2.bias f4 [208]
0.09985923 0.08320159 0.008978319 0.14267394 0.15219775 0.14442152 0.18791361 0.0681066
0.0840754 0.18290256 0.12854862 0.07827981 0.12305773 0.007626508 0.06535794 0.056628518
0.17930534 0.10588374 0.03663437 0.033393353 0.060413543 0.027319042 0.11415065 0.06668155
0.10065215 0.07980602 0.08382391 0.13480629 0.086695984 0.14828259 0.103802286 0.12745345
0.16263813 0.036309727 0.0811066 0.084652446 0.100264214 0.0854336 0.120920725 0.015089313
0.06953971 0.073841594 0.1318944 0.12862402 0.03888132 0.12640472 0.031583466 0.058933813
0.07838463 0.142527 0.1266898 0.059090428 0.18140936 0.18027751 0.094677545 0.17727254
0.15603986 0.17256261 0.157029 0.15255733 0.122466214 0.15921375 0.12467627 0.15884797
0.096889235 0.061965227 0.12742057 0.008305184 0.0980027 0.057200532 0.12525128 0.13702382
0.11207786 0.08073135 0.031665936 0.12627138 0.11019103 0.12342611 0.19148771 0.20912483
0.19006255 0.2014739 0.21130297 0.19043297 0.16183728 0.11755482 0.14281242 0.15240563
0.20145217 0.14202204 0.15947916 0.18120551 0.19203047 0.08392328 0.24651675 0.20504539
0.121282704 0.1712682 0.16182683 0.1255437 0.083063014 0.09367782 0.19249249 0.111058526
0.21995664 0.17093171 0.13844019 0.27443987 0.14441063 0.17377299 0.2908984 0.207968
0.29491827 0.21913527 0.17811733 0.2274048 0.17216557 0.2179808 0.12040017 0.17339127
0.19905183 0.19357468 0.14249139 0.17356911 0.19442883 0.19807416 0.07804615 0.12790349
0.17406075 0.07647705 0.14270324 0.19463982 0.19981547 0.18287718 0.16690922 0.14204545
0.15367687 0.19908151 0.1018087 0.15303226 0.2307806 0.17382818 0.17229925 0.14767241
0.12530653 0.09815595 0.10221219 0.05059169 0.13505815 0.07028636 0.08097195 0.14285435
0.08669927 0.23336074 0.1845702 0.068966635 0.16426995 0.1149514 0.20178036 0.19011272
0.12654953 0.1757125 0.08440542 0.13238844 0.18363702 0.16042262 0.1355818 0.16409247
0.062440753 0.0793824 0.08222015 0.055124495 0.1523291 0.06377406 0.06302945 0.09628238
0.1100856 0.12747341 0.08336673 0.09734281 0.10374078 0.08977231 0.16694553 0.078239724
0.1313597 0.18399519 0.07488572 0.16402325 0.097060956 0.20299438 0.09420536 0.08594946
0.08852738 0.102568254 0.10984363 0.14090474 0.034631345 0.03161287 0.06842015 0.02637068
0.037140768 0.018811697 0.095209114 0.102467924 0.027472846 0.1287938 0.14442943 0.10851218
00000000: ff82 cc3d 9865 aa3d cd19 133c 1e19 123e
00000010: bad9 1b3e 3ce3 133e 6d6c 403e 797b 8b3d
00000020: b92f ac3d cf4a 3b3e 40a2 033e 2a51 a03d
00000030: b105 fc3d c9e7 f93b 62da 853d 4ef3 673d
00000040: d29b 373e 93d9 d83d ec0d 163d 78c7 083d
00000050: 3174 773d 2fcc df3c d1c7 e93d 5690 883d
00000060: b722 ce3d 5771 a33d dfab ab3d a90a 0a3e
00000070: aa8d b13d 64d7 173e 4b96 d43d 2883 023e
00000080: 9c8a 263e 82b9 143d 381b a63d 435e ad3d
00000090: 5357 cd3d d0f7 ae3d 49a5 f73d 2a39 773c
000000a0: d66a 8e3d 433a 973d 530f 073e 04b6 033e
000000b0: 0542 1f3d 3d70 013e aa5d 013d 9564 713d
000000c0: 1f88 a03d 99f2 113e f9ba 013e ce08 723d
000000d0: 60c3 393e ab9a 383e 4de6 c13d ef86 353e
000000e0: eac8 1f3e 41b4 303e 36cc 203e fd37 1c3e
000000f0: 91cf fa3d ee08 233e 4656 ff3d 0ba9 223e
00000100: dd6d c63d 40cf 7d3d 8a7a 023e 7712 083c
00000110: a4b5 c83d 1b4b 6a3d df41 003e f94f 0c3e
00000120: 1489 e53d 7a56 a53d 24b4 013d 494d 013e
00000130: d6ab e13d d4c6 fc3d 5b15 443e d224 563e
00000140: c29f 423e 2d4f 4e3e ce5f 583e dc00 433e
00000150: acb8 253e 95c0 f03d 6b3d 123e 3910 1c3e
00000160: 7a49 4e3e 3a6e 113e 814e 233e f08d 393e
00000170: a3a3 443e f8df ab3d e36e 7c3e 6bf7 513e
00000180: 1163 f83d ee60 2f3e efb5 253e 878e 003e
00000190: f11c aa3d 28da bf3d c01c 453e a772 e33d
000001a0: 503c 613e b908 2f3e 44c3 0d3e 6283 8c3e
000001b0: 61e0 133e 8cf1 313e a3f0 943e 90f5 543e
000001c0: 87ff 963e ff64 603e 6464 363e cedc 683e
000001d0: 2c4c 303e 5c36 5f3e 5d94 f63d 7b8d 313e
000001e0: 3ed4 4b3e 7138 463e 43e9 113e 1abc 313e
000001f0: 5a18 473e f4d3 4a3e a9d6 9f3d 22f9 023e
00000200: fb3c 323e 00a0 9c3d cc20 123e a94f 473e
00000210: 6d9c 4c3e 2844 3b3e 40ea 2a3e 5d74 113e
00000220: 785d 1d3e 06dc 4b3e 1481 d03d 7db4 1c3e
00000230: c051 6c3e 0400 323e 376f 303e 7037 173e
00000240: 5b50 003e fd05 c93d a054 d13d 3b39 4f3d
00000250: af4c 0a3e 4cf2 8f3d 9fd4 a53d 6948 123e
00000260: 638f b13d 1ef6 6e3e f8ff 3c3e 613e 8d3d
00000270: 6236 283e a46b eb3d 839f 4e3e e9ac 423e
00000280: 3396 013e faed 333e c0dc ac3d d690 073e
00000290: 580b 3c3e d445 243e f5d5 0a3e db07 283e
000002a0: e0c1 7f3d 3d93 a23d 0a63 a83d 39ca 613d
000002b0: 29fc 1b3e f99b 823d 9615 813d b22f c53d
000002c0: 8f74 e13d 6488 023e 2dbc aa3d ab5b c73d
000002d0: 0c76 d43d 8bda b73d c5f3 2a3e 263c a03d
000002e0: 2883 063e 3c69 3c3e af5d 993d b6f5 273e
000002f0: e5c7 c63d c2dd 4f3e bdee c03d 4506 b03d
00000300: d84d b53d 4e0f d23d b2f5 e03d 5549 103e
00000310: 99d9 0d3d 7f7c 013d dd1f 8c3d 5307 d83c
00000320: eb20 183d fd1a 9a3c fffc c23d b4da d13d
00000330: bc0e e13c 86e2 033e 4fe5 133e a23b de3d
