pqc_reup_v1_output/model_params_epoch_220.pth (torch, 61385 bytes, 6 tensors)

reupload_weights f4 [12, 3, 4]
0	0x3e473ecc	0.19457549
1	0x3d9bdc5b	0.07610389
2	0x3e246fa9	0.1605822
3	0xbddd70f2	-0.10812558
4	0x3e0a7550	0.13521314
5	0xbf4619bd	-0.77383024
6	0x3efcc924	0.49372208
7	0x3f32ca24	0.6983969
8	0x3f2e4a49	0.680821
9	0x3d43ffab	0.047851246
10	0x3ea37fd3	0.3193346
11	0xbf34d6c4	-0.70640206
12	0xbe699061	-0.22808982
13	0x3c3229dd	0.010874239
14	0x3d9e41cc	0.077273935
15	0xbdb9ed0d	-0.09078417
16	0x3f19c20e	0.6006173
17	0xbf771795	-0.9652036
18	0xbf17e4b8	-0.5933337
19	0x3e21a346	0.1578494
20	0xbec03384	-0.37539303
21	0x3c82cb12	0.015965972
22	0x3ec7c7aa	0.3901952
23	0x3e9ef891	0.31049016
24	0x3eb47151	0.35242704
25	0x3d9e9b7b	0.07744499
26	0x3c66e7f3	0.014093387
27	0xbd08ad15	-0.03336819
28	0x3f328f5c	0.6975
29	0xbeb3ef71	-0.35143617
30	0xbd7d118b	-0.06178431
31	0xbf592b1a	-0.8483139
32	0xbe565182	-0.2092953
33	0x3e8ff479	0.28116205
34	0x3f4d1b40	0.80119705
35	0xbdf7ea2c	-0.121052116
36	0xbe2dbf36	-0.16967472
37	0xbdfb821b	-0.12280675
38	0x3c8bf004	0.017082222
39	0xbdaf136f	-0.085486285
40	0x3e6b356c	0.22969598
41	0x3f60ca02	0.8780824
42	0x3e3192d4	0.17341167
43	0xbf3b2050	-0.7309618
44	0x3f01b824	0.506716
45	0x3f91a999	1.1379882
46	0xbe8488dd	-0.25885668
47	0xbe875149	-0.26429203
48	0x3d518ef7	0.051161733
49	0xbd932ad8	-0.07185906
50	0x3de92f9d	0.11386035
51	0x3d2ffa65	0.042963404
52	0x3f7230ae	0.9460553
53	0x3f691204	0.91043115
54	0xbf90c1fd	-1.13092
55	0xbee8482b	-0.4536756
56	0x3eac86cf	0.336966
57	0x3eb436f5	0.3519818
58	0xbf924f2f	-1.1430415
59	0xbea17468	-0.31534123
60	0xbd8c8ecf	-0.06863176
61	0x3bd4c8c5	0.00649366
62	0xbdd17f27	-0.102293305
63	0xbe40df3d	-0.18835159
64	0x3f1d7c2a	0.61517584
65	0x3eb76622	0.3582011
66	0xbe943c5e	-0.28952307
67	0x3da4baff	0.08043479
68	0xbe581b04	-0.21104056
69	0xbeaf1bbd	-0.3420085
70	0xbf95488a	-1.1662762
71	0x3e0658aa	0.1311976
72	0xbc717634	-0.0147376545
73	0x3c9aecf7	0.018911822
74	0xbe875829	-0.26434448
75	0x3d33ef19	0.043929193
76	0xbd8defef	-0.06930529
77	0xbc957ace	-0.018247034
78	0xbec887f8	-0.39166236
79	0x3f09e964	0.5387175
80	0x3ed84950	0.42243433
81	0x3ea7bdb0	0.32761908
82	0x3e9255c0	0.28581047
83	0x3f0eac4f	0.5573167
84	0x3dbe888f	0.0930339
85	0x3d9eefcf	0.077605836
86	0x3dbd8821	0.0925448
87	0xbc763fe1	-0.015029878
88	0xbe83efb6	-0.25768822
89	0xbf213d18	-0.62983847
90	0xbeb78254	-0.3584162
91	0x3e8071d4	0.25086844
92	0xbea7e43d	-0.3279132
93	0x3e0d7519	0.138142
94	0x3f511cdc	0.8168466
95	0x3e25f898	0.16208112
96	0xbe51f347	-0.20502959
97	0x3d550944	0.05201079
98	0x3e3c8fdb	0.18414252
99	0x3d981061	0.07424999
100	0xbe0621df	-0.13098858
101	0x3ea52912	0.32257897
102	0x3f2d746a	0.6775576
103	0x3dc55d44	0.0963693
104	0x3e2536dd	0.1613421
105	0x3f433043	0.76245517
106	0xbe4479ae	-0.19187042
107	0xbe8a54f0	-0.27017927
108	0xbe1eb58f	-0.15498947
109	0x3e823a39	0.25435045
110	0x3e7ae687	0.24502002
111	0x3bd02b50	0.0063528195
112	0xbe6fd8c9	-0.2342254
113	0x3f266741	0.650013
114	0x3eae4964	0.34040368
115	0xbf3a82be	-0.72855747
116	0x3ed72db3	0.42027053
117	0x3eb53ba1	0.35397056
118	0xbe7577ab	-0.23971431
119	0x3f765cc2	0.9623529
120	0x3e24db1a	0.16099206
121	0xbf236be4	-0.63836503
122	0xbe348534	-0.17628938
123	0x3e8e5723	0.27800855
124	0x3ec502e1	0.3847876
125	0x3f285f18	0.657701
126	0x3f14bb73	0.58098525
127	0x3e9c8450	0.30569696
128	0xbf814f19	-1.0102264
129	0xbf6cf1fe	-0.9255675
130	0xbf8eef36	-1.1166751
131	0xbf84b4bc	-1.0367656
132	0x3c179684	0.009252194
133	0x3dac3d49	0.08410127
134	0x3deda6b0	0.11604059
135	0x3e8ad1bc	0.2711314
136	0xbf9b2794	-1.2121453
137	0x3ec5ef77	0.3865926
138	0xbd8e25fd	-0.069408394
139	0xbf527bb1	-0.8221999
140	0xbfa47cbd	-1.2850567
141	0x3f229d3b	0.63521165
142	0x3e9dd9ac	0.30830133
143	0xbe6924d3	-0.22767954

reupload_bias f4 [12, 3]
0	0xbf11143c	-0.566715
1	0x3e619f71	0.22033478
2	0xbeec6b49	-0.46175602
3	0x3f0d4014	0.551759
4	0xbed2322a	-0.41053897
5	0x3ed7e5fe	0.42167658
6	0xbf12c55c	-0.57332397
7	0x3f6bfda3	0.92183894
8	0x3e1822ae	0.14856979
9	0x3f092a2a	0.5357996
10	0x3f67896f	0.9044408
11	0x3ff170f5	1.8862597
12	0xbec4698c	-0.38361776
13	0xbedd6bfc	-0.43246448
14	0x3efe0269	0.49611214
15	0x3f0fa7df	0.56115526
16	0x3e807112	0.25086266
17	0xbf130abf	-0.5743827
18	0xbdc0e14a	-0.094179705
19	0x3c52490e	0.0128348
20	0x3e6eeaef	0.23331808
21	0xbf43174f	-0.7620744
22	0xbf3a96e7	-0.7288651
23	0xbe4e52ef	-0.20148824
24	0x3eff619a	0.49879152
25	0x3f53cdfa	0.8273617
26	0xbf10d4ac	-0.5657451
27	0xbf203be2	-0.62591374
28	0xbf375cd2	-0.7162601
29	0x3f32865d	0.6973627
30	0x3e69796b	0.22800224
31	0x3ed5f4d2	0.41788346
32	0xc005f583	-2.0931098
33	0xbf12f245	-0.57400924
34	0xbf4a75b6	-0.7908586
35	0x3f912d1c	1.1341891

mlr.0.weight f4 [64, 12]
0	0x3b8a086f	0.004212431
1	0xbc8d331b	-0.017236283
2	0x3d8e21fc	0.06940076
3	0x3da5ad0d	0.080896474
4	0xbe863deb	-0.26219115
5	0xbdda2d76	-0.10653202
6	0x3e78efb0	0.24310184
7	0x3de64eb8	0.11245483
8	0xbc6b3dd1	-0.014358
9	0xbe323890	-0.1740439
10	0xbe34da04	-0.17661291
11	0xbe846555	-0.2585856
12	0xbea12fab	-0.3148168
13	0xbd0e738c	-0.034778163
14	0x3e830756	0.25591534
15	0xbdc449db	-0.09584399
16	0xbf10f900	-0.56629944
17	0xbf145ecd	-0.57957155
18	0xbbf635ac	-0.0075137224
19	0x3f0f3beb	0.559508
20	0x3db639df	0.08897757
21	0xbeb1a4fd	-0.3469619
22	0x3ed139cc	0.40864408
23	0x3d82c97c	0.06386086
24	0xbe77aefb	-0.24187844
25	0x3e1c9ca4	0.15294129
26	0xbe3dd933	-0.18539886
27	0xbdedb5fe	-0.11606978
28	0xbeb15e02	-0.34642035
29	0x3e0ce110	0.1375773
30	0x3e262dd7	0.16228424
31	0x3d46f032	0.04856891
32	0xbe846c14	-0.25863707
33	0xbeae29df	-0.3401632
34	0xbe922c7d	-0.28549567
35	0x3e235fcc	0.15954512
36	0x3e0debbe	0.1385946
37	0x3e78c064	0.24292141
38	0x3e1adb91	0.1512282
39	0x3d95a139	0.073061414
40	0xbb394397	-0.0028269046
41	0xbe60cee1	-0.21953918
42	0xbe7d43c4	-0.24732882
43	0xbe8a3eff	-0.27001187
44	0x3df2047c	0.118172616
45	0xbe1121bc	-0.14173025
46	0xbd6df6b7	-0.058096614
47	0xbe2a1f0c	-0.16613406
48	0x3e25815d	0.1616263
49	0xbe0247ac	-0.12722653
50	0xbef95514	-0.48697722
51	0xbd0be0cd	-0.034149934
52	0x3d9bdaeb	0.07610115
53	0x3e180058	0.14843881
54	0xbe648837	-0.22317587
55	0xbf1a0297	-0.601602
56	0xbe2cc90c	-0.16873568
57	0xbe23798c	-0.15964335
58	0x3e1724de	0.14760157
59	0xbeb67e81	-0.3564339
60	0xbe038567	-0.12843858
61	0xbe979eb5	-0.2961327
62	0x3eaddec2	0.33959013
63	0x3e8c7e8b	0.27440295
64	0x3ed947f9	0.42437723
65	0xbf48b2cb	-0.78397816
66	0x3ec86ddf	0.39146325
67	0xbe750ee4	-0.23931462
68	0x3dfac0d0	0.12243807
69	0xbe28b01e	-0.16473433
70	0xbe4e36fa	-0.2013816
71	0xbe60ac30	-0.21940684
72	0xbdb93208	-0.09042746
73	0xbedd7057	-0.4324977
74	0x3e9e41dd	0.30909625
75	0xbf039dfb	-0.51412934
76	0x3e9a2f3c	0.30114162
77	0x3e98323d	0.2972583
78	0x3ee360be	0.44409746
79	0xbeb060cd	-0.34448853
80	0xbe830173	-0.25587043
81	0x3dd4dcea	0.103936985
82	0x3e22ef0d	0.15911503
83	0xbee2185e	-0.44159216
84	0xbe292cc6	-0.16520986
85	0xbe93249b	-0.28738865
86	0x3cdf4b3d	0.027257556
87	0xbee2d72e	-0.44304794
88	0xbe621fe2	-0.22082475
89	0xbcce015b	-0.02514713
90	0xbe1b197c	-0.1514644
91	0x3ee51bb0	0.44747686
92	0x3f3a62fa	0.72807276
93	0xbea1fdc3	-0.31638917
94	0x3e52f155	0.20599873
95	0xbc32e6a3	-0.010919246
96	0x3e2e10fc	0.16998667
97	0xbf196100	-0.59913635
98	0xbec45743	-0.38347825
99	0xbeb0acda	-0.34506875
100	0xbe058ba1	-0.13041545
101	0xbf013bd4	-0.50481915
102	0xbe9504f9	-0.29105356
103	0xbeae1977	-0.34003803
104	0x3d4a36e3	0.04936875
105	0xbe83a7f3	-0.25714073
106	0x3d913ba6	0.07091455
107	0xbe9b5b52	-0.3034311
108	0xbefa96c1	-0.4894314
109	0x3ed571fa	0.4168852
110	0xbd524f6b	-0.05134527
111	0x3d9bfa3b	0.07616087
112	0xbe8da246	-0.27662867
113	0x3b950e2d	0.004548809
114	0x3e9e6518	0.30936503
115	0x3e998acc	0.29988706
116	0xbf1f0753	-0.6212055
117	0x3ef155f3	0.47135887
118	0x3ed1f44b	0.41006693
119	0xbcefb9c9	-0.029263394
120	0xbdee78fc	-0.1164417
121	0x3f084e5d	0.5324457
122	0xbc44d2bf	-0.012013136
123	0x3ecb841d	0.39749232
124	0xbee639ba	-0.44965917
125	0xbe8cc7bd	-0.27496138
126	0x3e69e8e3	0.22842745
127	0x3e9d23d3	0.30691394
128	0xbebd44ca	-0.36966544
129	0xbe19f75b	-0.15035765
130	0xbe9bec77	-0.30453846
131	0xbe8b13ba	-0.27163488
132	0xbe64195c	-0.22275299
133	0xbd923431	-0.07138861
134	0x3e477ef6	0.19482026
135	0x3d45ea3d	0.04831909
136	0xbe60d667	-0.21956788
137	0xbe6d23db	-0.23158209
138	0x3e130e2b	0.14360873
139	0xbe5be1c8	-0.21472847
140	0xbd11966a	-0.035543837
141	0x3e0dcd7e	0.1384792
142	0xbe08cf0d	-0.13360234
143	0xbd00ee24	-0.03147711
144	0xbccdd859	-0.025127577
145	0xbd8bdea2	-0.06829573
146	0xbe15e162	-0.14636758
147	0xbe83c18e	-0.25733608
148	0xbe6ef3f9	-0.23335256
149	0xbe1e48c5	-0.15457447
150	0x3e8ec09f	0.27881333
151	0xbe0ec7e0	-0.13943434
152	0xbe468183	-0.19385342
153	0x3d8f4e19	0.06997318
154	0x3da2f152	0.079561844
155	0x3e21f6c5	0.15816791
156	0x3f244be7	0.6417832
157	0x3d86067a	0.06544204
158	0xbedbf9a2	-0.42963892
159	0x3e3cfe13	0.18456297
160	0x3ea1fa50	0.31636286
161	0xbeaf57ce	-0.34246677
162	0xbe947a9a	-0.28999788
163	0x3e818620	0.25297642
164	0xbe99e7d1	-0.30059674
165	0xbeb72bfe	-0.3577575
166	0xbe5cb6e2	-0.2155414
167	0x3ebc1592	0.36735207
168	0x3d210052	0.039306946
169	0x3e72ee6a	0.2372376
170	0x3af45f77	0.0018644173
171	0xbec5b091	-0.38611272
172	0xbf1e1784	-0.6175463
173	0x3d2b4016	0.041809164
174	0x3e6d9055	0.2319959
175	0x3ed4e534	0.41581118
176	0xbe989a87	-0.29805395
177	0x3e17532e	0.14777824
178	0x3d4f16c3	0.050558817
179	0xbe4b378b	-0.19845407
180	0xbd526a28	-0.05137077
181	0x3ea4439f	0.3208284
182	0x3e995588	0.29948068
183	0xbefd09f0	-0.49421644
184	0xbc51f1bc	-0.012813982
185	0xbf3762d9	-0.71635205
186	0xbc273962	-0.010206552
187	0x3ecd7057	0.4012477
188	0x3de9e28e	0.11420165
189	0x3ed35cbd	0.4128169
190	0xbe80b81f	-0.25140473
191	0xbf071b14	-0.5277569
192	0x3eec47c5	0.46148506
193	0xbe0e990d	-0.13925572
194	0x3c06ca9c	0.008227017
195	0xbe5e5266	-0.2171112
196	0x3ed79fdf	0.4211416
197	0x3e5080bd	0.2036161
198	0x3deb16dd	0.1147897
199	0xbf16db3a	-0.58928263
200	0xbeb6c33f	-0.35695836
201	0x3dab5625	0.0836604
202	0xbb96d1f2	-0.004602664
203	0xbe83d114	-0.2574545
204	0xbda56b12	-0.08077063
205	0x3e47a415	0.19496186
206	0x3cbc61a2	0.022995774
207	0x3c5564e2	0.013024541
208	0xbd917f0c	-0.071043104
209	0xbe85d901	-0.26142123
210	0xbe8af8bc	-0.27142894
211	0xbe0d4d87	-0.13799106
212	0xbe1642f2	-0.14673975
213	0x3db8314c	0.08993778
214	0xbdac1b4b	-0.08403643
215	0xbde74b0a	-0.112936094
216	0x3f3c2704	0.73497033
217	0x3eabbefb	0.33544144
218	0x3e7a5553	0.24446611
219	0xbe9aa629	-0.30204895
220	0xbe119ba7	-0.14219533
221	0x3e68a463	0.22718959
222	0xbebd1e6d	-0.36937276
223	0xbf03c785	-0.5147632
224	0xbe2f4873	-0.17117481
225	0xbed0631a	-0.40700608
226	0xbe50f2b9	-0.20405091
227	0x3eca5b40	0.39522743
228	0x3f245a16	0.6419996
229	0x3b0924be	0.002092644
230	0xbe0634ba	-0.13106051
231	0xbf047e27	-0.51754993
232	0xbe8a05c2	-0.26957518
233	0x3c82178b	0.015880367
234	0xbd24ebd0	-0.04026395
235	0xbda1791b	-0.07884427
236	0xbea5fabe	-0.32417864
237	0x3ef34ea0	0.47520924
238	0xbe11309a	-0.14178696
239	0x3e7e9275	0.24860556
240	0xbe397278	-0.18110073
241	0x3df1bfa3	0.1180413
242	0x3e44cb3c	0.19218153
243	0x3e0666c5	0.13125141
244	0xbe068364	-0.13136059
245	0x3eeb0bd3	0.4590746
246	0x3e6a531b	0.22883265
247	0x3eb878cf	0.3602967
248	0x3eb4b64a	0.35295326
249	0xbe615d68	-0.22008288
250	0xbde1553b	-0.110025845
251	0x3f059fe0	0.52197075
252	0x3e67a38e	0.22620985
253	0xbe61b506	-0.22041711
254	0xbcb6cf13	-0.022315538
255	0xbe91c049	-0.28467014

mlr.0.bias f4 [64]
0	0xbda2912d	-0.07937846
1	0x3e260530	0.16212916
2	0x3ce33eaa	0.027739841
3	0xbd4e2dc2	-0.050336607
4	0x3e1d23de	0.15345713
5	0xbdb82faf	-0.0899347
6	0x3dddda4b	0.10832652
7	0x3da0fd28	0.07860786
8	0x3e521672	0.20516375
9	0x3d07ae45	0.03312518
10	0x3db8cb4c	0.09023151
11	0xbd2ab479	-0.04167602
12	0xbde62aa7	-0.11238604
13	0x3dee1038	0.11624187
14	0x3e244835	0.1604317
15	0x3df3a78e	0.11897193
16	0x3d507c7a	0.05089996
17	0xbdc989ea	-0.09840758
18	0x3dc3e859	0.09565801
19	0x3e24a9bb	0.16080372
20	0xbdc5fea0	-0.096677065
21	0xbd127c4e	-0.035763077
22	0xbc33b121	-0.010967524
23	0x3deba3d7	0.11505859
24	0x3bd7c4d4	0.006584743
25	0xbc0dbe7b	-0.008651371
26	0xbcc5d5ab	-0.024149736
27	0xbd30e7b2	-0.043189712
28	0xbd8eb0b8	-0.069673
29	0xbdbf90bf	-0.0935378
30	0x3d5a6daa	0.05332724
31	0xbe14c80d	-0.14529438
32	0xbd81c91d	-0.063371874
33	0x3cdf10c7	0.02722968
34	0x3cf767d3	0.030200874
35	0xbe8b08f3	-0.27155265
36	0x3dfe9f07	0.12432676
37	0xbe0645b8	-0.13112533
38	0xbe22bd3b	-0.15892498
39	0x3c9fda94	0.019513406
40	0xbe1a43a0	-0.1506486
41	0xbd065b94	-0.03280218
42	0xbdc73501	-0.097269066
43	0xbb05f192	-0.0020438177
44	0xbdf6e8f9	-0.12056155
45	0xbd230425	-0.039798874
46	0xbbccb1bb	-0.006246773
47	0xbe6f3520	-0.2336011
48	0xbe32ec41	-0.17472936
49	0xbcc06ee4	-0.023490377
50	0xbc43a0c1	-0.011940182
51	0x3d953f34	0.07287446
52	0xbd328f1b	-0.043593507
53	0x3e5b50b7	0.21417509
54	0x3dfaaf71	0.12240494
55	0x3d14d09d	0.03633176
56	0xbde7df78	-0.1132192
57	0xbdd5d247	-0.10440498
58	0xbce640f4	-0.028107144
59	0xbc0b3b8b	-0.008498083
60	0x3deffff8	0.11718744
61	0xbd308e8d	-0.043104697
62	0x3e36b7e9	0.17843594
63	0xbe2d8562	-0.16945413

mlr.2.weight f4 [208, 64]
0	0x3c9b9b60	0.018994987
1	0x3f0468bd	0.5172232
2	0x3d3be51a	0.045872785
3	0xbd5ff024	-0.054672375
4	0xbd3156eb	-0.043295782
5	0x3f6c82e9	0.92387253
6	0xbe9fb13d	-0.3118991
7	0xbf0416df	-0.515974
8	0xbeab8b77	-0.3350484
9	0x3ebc4853	0.3677393
10	0x3f0efafd	0.5585173
11	0xbc608f60	-0.013706058
12	0xbdce1958	-0.10063428
13	0xbcb0c4fa	-0.0215783
14	0x3e0f5088	0.13995564
15	0x3f2838af	0.6571149
16	0xbee9fecc	-0.45702207
17	0xbd6f9318	-0.05848989
18	0xbf30aa5a	-0.69009936
19	0xbea65877	-0.32489368
20	0x3e326fc5	0.17425449
21	0xbd76c180	-0.06024313
22	0x3e3671e3	0.17816882
23	0xbe2c3aa4	-0.16819245
24	0xbef522bb	-0.4787806
25	0x3e97364c	0.29533613
26	0x3dfc0300	0.1230526
27	0x3d7ee92d	0.062234093
28	0xbc8e0b6e	-0.017339434
29	0x3e8ed0ee	0.27893776
30	0x3d74c69a	0.059759714
31	0xbdd79c4a	-0.10527857
32	0xbd356c20	-0.04429257
33	0x3d95d588	0.073161185
34	0xbe90c888	-0.28277993
35	0x3df44d08	0.11928755
36	0x3e20103a	0.1563119
37	0x3d8a7604	0.06760791
38	0xbd8d32f4	-0.06894484
39	0x3e6ec952	0.23318985
40	0x3db8b7c8	0.090194285
41	0x3ea79c29	0.32736328
42	0x3db85548	0.09000641
43	0x3eea84d8	0.45804477
44	0x3b1f7240	0.0024329573
45	0x3ed8322c	0.42225778
46	0x3ecb2de9	0.39683464
47	0x3d5ef150	0.054429352
48	0xbd248ecc	-0.040175244
49	0xbcf85dac	-0.030318104
50	0xbde1736c	-0.11008343
51	0xbef43f42	-0.47704512
52	0xbd68bb98	-0.05681953
53	0xbd698f18	-0.05702123
54	0x3dcfe864	0.10151747
55	0x3fb5d1d8	1.4204664
56	0x3e7a51d4	0.24445277
57	0x3edbe87c	0.4295081
58	0x3eb2e45c	0.3493985
59	0x3e3078ad	0.17233534
60	0xbf3b4910	-0.7315836
61	0xbdfd2fbe	-0.12362622
62	0x3edaedad	0.42759457
63	0x3d8f70bc	0.07003924
64	0xbddbc772	-0.107314005
65	0x3ebf4dab	0.37363943
66	0x3dc952d3	0.098302506
67	0x3bf81f20	0.0075720698
68	0xbeda5e1c	-0.42649925
69	0x3f73fa4e	0.9530381
70	0xbdc99b5a	-0.09844084
71	0x3ef5fbe2	0.48043734
72	0xbed07d7d	-0.4072074
73	0x3ec37e86	0.38182467
74	0x3e94215f	0.2893171
75	0x3dfd4f80	0.12368679
76	0xbd58ef2c	-0.052962467
77	0xbea15680	-0.31511307
78	0x3e8992d1	0.26869825
79	0x3ed0f3a7	0.40810892
80	0xbf08233a	-0.5317875
81	0x3d524be8	0.05134192
82	0xbf7f5274	-0.9973519
83	0xbe4c3100	-0.19940567
84	0x3e82d3c6	0.25552195
85	0x3dc895fc	0.09794232
86	0xbc6dabd4	-0.014506299
87	0xbe61bb7e	-0.22044179
88	0x3f41c51e	0.756914
89	0x3e8f5d62	0.28000933
90	0x3d9936a8	0.07481128
91	0x3e0cc498	0.1374687
92	0xbd7abf9b	-0.061217885
93	0x3d64a026	0.055816792
94	0xbc320714	-0.010865945
95	0xbd962f34	-0.07333222
96	0x3e580f84	0.21099669
97	0xbdf60282	-0.12012197
98	0x3ee85e8f	0.45384642
99	0x3dff35c2	0.12461425
100	0x3eb3bf9c	0.35107124
101	0x3d2e94c4	0.042622343
102	0xbde4d724	-0.11173847
103	0x3d833386	0.06406312
104	0xbcaf2718	-0.021380946
105	0x3f3c4be8	0.73553324
106	0x3dfcb6b4	0.12339535
107	0x3e28fe06	0.16503152
108	0xbc10e420	-0.008843452
109	0x3f0dde2b	0.55417126
110	0x3eb683c7	0.35647413
111	0xbdb51e10	-0.088436246
112	0x3ca68528	0.020327166
113	0x3be1cc64	0.0068908203
114	0x3cf3fc59	0.029783415
115	0x3ec34937	0.38141796
116	0xbdd5b175	-0.10434238
117	0xbe35fa79	-0.17771329
118	0x3e4e157e	0.20125386
119	0x3e03e8c3	0.1288176
120	0x3e9ccfe0	0.30627346
121	0xbe2d3fd4	-0.1691888
122	0x3dce9d7e	0.10088633
123	0x3e334135	0.17505343
124	0xbe0143e5	-0.12623556
125	0x3cbe0448	0.0231954
126	0x3e994dfa	0.29942304
127	0x3c9a6c80	0.018850565
128	0x3df6aa92	0.120442525
129	0x3f2dd599	0.6790405
130	0xbddf7fcf	-0.109130494
131	0x3de9aea6	0.11410265
132	0xbdb91fca	-0.090392664
133	0x3f5b1416	0.85577524
134	0xbe24ef4b	-0.16106908
135	0xbcfa9aa4	-0.030591317
136	0xbeb45aec	-0.35225618
137	0x3eca687a	0.39532834
138	0x3f326786	0.69689214
139	0x3c1987d0	0.009370759
140	0xbdb2e22c	-0.08734545
141	0xbeadb9a1	-0.33930686
142	0x3eb9fb8b	0.36324725
143	0x3f4a8438	0.79108
144	0xbf1503e9	-0.5820909
145	0x3c2186e0	0.009858817
146	0xbedcd08d	-0.43127862
147	0xbea116e1	-0.31462768
148	0x3eadcc6c	0.33945024
149	0x3d4ced3c	0.05003093
150	0x3e4c9e0c	0.19982165
151	0xbe01cf1e	-0.12676665
152	0x3e1c5a10	0.15268731
153	0x3f221ca8	0.63324976
154	0xbddf43f2	-0.109016314
155	0xbc060b3d	-0.00818139
156	0x3c8e5a3a	0.017377008
157	0x3e9a13a9	0.30093125
158	0x3e94c8c8	0.29059434
159	0xbceaf740	-0.028682351
160	0x3d70a842	0.058754213
161	0x3da68ebe	0.08132695
162	0xbeca9ce2	-0.39572817
163	0x3dcd0534	0.10010758
164	0x3e78ea2e	0.24308082
165	0xbdc47ac2	-0.09593727
166	0xbdb44678	-0.08802503
167	0xbd76881a	-0.06018839
168	0xbd8c4b0e	-0.06850253
169	0x3ef0e484	0.47049344
170	0xbc1a26e0	-0.009408683
171	0x3e66dc37	0.22544943
172	0xbd8157f8	-0.06315607
173	0x3eb6afee	0.356811
174	0x3e8f9dd6	0.28050107
175	0x3dfb2552	0.12262978
176	0xbd3dc310	-0.046328604
177	0xbd6b3e4b	-0.057432454
178	0x3d53fd17	0.051755037
179	0xbf1d415d	-0.6142786
180	0x3ddfe300	0.10931969
181	0xbdbdf010	-0.09274304
182	0x3d6fc80f	0.0585404
183	0x3f5b424d	0.8564804
184	0x3e8b50bb	0.2721003
185	0x3e97fad0	0.29683542
186	0x3e7ff681	0.24996378
187	0x3e50be28	0.20385039
188	0xbe8785bd	-0.26469222
189	0x3ab36c80	0.0013688952
190	0x3ed0fd93	0.40818462
191	0xbd330198	-0.04370269
192	0xbddf4770	-0.109022975
193	0xbe925da1	-0.28587058
194	0x3d4329d0	0.047647297
195	0xbda74fa4	-0.08169487
196	0xbebf183a	-0.3732317
197	0x3f44d27b	0.7688367
198	0xbe423893	-0.18966894
199	0x3eb75415	0.35806337
200	0xbf0aba43	-0.5419046
201	0xbe061887	-0.13095294
202	0x3e397615	0.18111451
203	0x3cae8178	0.02130197
204	0x3d0b38f0	0.033989847
205	0xbcf8ab69	-0.030355172
206	0xbdbbdadd	-0.09172604
207	0xbdcd4e3d	-0.100246884
208	0xbea11366	-0.31460112
209	0x3d0ba01c	0.03408824
210	0xbf4ca357	-0.79936737
211	0xbe83928f	-0.25697753
212	0x3e5fd955	0.2186025
213	0xbb9529a0	-0.004552081
214	0xbc9abe51	-0.018889578
215	0xbdcd3d73	-0.10021486
216	0x3f76d171	0.9641333
217	0x3e0562f0	0.13026023
218	0xbdec9a56	-0.11552875
219	0x3d894504	0.06702617
220	0xbd66ed48	-0.056378633
221	0x3e2f8570	0.17140746
222	0x3f101250	0.5627794
223	0xbdfdef66	-0.12399177
224	0x3d8806e5	0.0664194
225	0xbc4427f0	-0.0119724125
226	0x3ed7f485	0.4217874
227	0x3deb3532	0.114847556
228	0x3ec66916	0.3875205
229	0x3da47574	0.08030215
230	0x3d20e161	0.039277438
231	0xbe129fac	-0.14318722
232	0x3cf0a030	0.029373258
233	0x3f545e8e	0.8295678
234	0xbda77324	-0.08176258
235	0x3c3b6a54	0.011438925
236	0x3dfa95da	0.12235613
237	0x3efc617e	0.4929313
238	0x3ecd50a1	0.40100577
239	0x3d9a0bf6	0.075218126
240	0xbc8300a0	-0.015991509
241	0xbdb3cf2d	-0.0877975
242	0x3beca9e1	0.0072223996
243	0x3f0c9be0	0.54925346
244	0xbdf351ef	-0.11880862
245	0xbddef3b2	-0.10886325
246	0x3e173dec	0.14769715
247	0xbec59f08	-0.38597894
248	0x3ec7f2cf	0.39052436
249	0xbdda67a0	-0.10664296
250	0x3df439cc	0.119250864
251	0x3dd08539	0.1018166
252	0xbe965eb5	-0.2936913
253	0xbcffded0	-0.031234175
254	0x3e680749	0.22659029
255	0xbd8e75e0	-0.069560766

mlr.2.bias f4 [208]
0	0x3dce53e7	0.10074597
1	0x3dd5a993	0.10432734
2	0x3b69a1b0	0.0035649352
3	0x3e192796	0.14956507
4	0x3e1ad2f7	0.15119539
5	0x3df60f94	0.1201469
6	0x3e27aa72	0.16373613
7	0x3d47f5a5	0.04881825
8	0x3da1538d	0.07877264
9	0x3e37b481	0.1793995
10	0x3e0bc852	0.13650635
11	0x3db748db	0.08949443
12	0x3deff311	0.11716283
13	0xbc4071f2	-0.011745917
14	0x3d64d7e7	0.055869963
15	0x3d736dbb	0.05943082
16	0x3e125553	0.14290361
17	0x3dc1eda1	0.09469152
18	0x3c605530	0.013692185
19	0x3d08721c	0.03331195
20	0x3d760e9d	0.06007253
21	0x3d34354e	0.043996148
22	0x3df85f7d	0.12127588
23	0x3da2798d	0.0793334
24	0x3dc23ca3	0.09484222
25	0x3d9d1129	0.07669289
26	0x3dc0d09b	0.09414788
27	0x3e14dc92	0.14537266
28	0x3d9fc64e	0.078014955
29	0x3e1ec6d1	0.1550553
30	0x3dc225b8	0.094798505
31	0x3dea7463	0.1144798
32	0x3e0bccc2	0.13652328
33	0x3c8fa3d8	0.017534181
34	0x3da30ec9	0.079618044
35	0x3d99548c	0.07486829
36	0x3dc11c02	0.0942917
37	0x3dba970f	0.091108434
38	0x3e098ca4	0.13432556
39	0x3ba8465e	0.0051353415
40	0x3d58dfc2	0.052947767
41	0x3daeaeb8	0.08529419
42	0x3da63ea5	0.08117417
43	0x3dd09908	0.101854384
44	0x3ca0dac9	0.019635575
45	0x3dfe7b42	0.12425853
46	0x3cae1612	0.021250758
47	0x3d711164	0.058854476
48	0x3d959115	0.07303063
49	0x3e13d0c6	0.1443511
50	0x3dd55f65	0.10418586
51	0x3d2a7e16	0.04162415
52	0x3e3e324a	0.18573871
53	0x3e510908	0.20413601
54	0x3db023d2	0.08600582
55	0x3e30da05	0.17270668
56	0x3e17ec4b	0.14836232
57	0x3e1f0590	0.15529466
58	0x3e1e9680	0.15487099
59	0x3e1a94b2	0.15095785
60	0x3e04f984	0.12985808
61	0x3e28ff58	0.16503656
62	0x3dffa67c	0.12482926
63	0x3e35823d	0.17725463
64	0x3dd35cca	0.103204325
65	0x3d4f3fea	0.050598063
66	0x3dd200b6	0.10254042
67	0x3bdff6e7	0.006834853
68	0x3d4d3596	0.05009993
69	0x3d1ed79e	0.038779847
70	0x3dfcbc61	0.12340618
71	0x3e06f765	0.13180311
72	0x3de6f1f3	0.11276617
73	0x3db16616	0.086620495
74	0x3cf87d23	0.030333107
75	0x3e149e05	0.14513405
76	0x3db6e7ed	0.08930955
77	0x3df4ede8	0.119594395
78	0x3e4e8774	0.20168859
79	0x3e53c526	0.20680675
80	0x3e36b8c7	0.17843924
81	0x3e56063b	0.20900814
82	0x3e49d178	0.19708812
83	0x3e3ac613	0.18239622
84	0x3e3a2d34	0.18181306
85	0x3e001d65	0.12511213
86	0x3e2d72f6	0.16938385
87	0x3e1be1db	0.15222876
88	0x3e4974ce	0.19673464
89	0x3e1f07e2	0.15530351
90	0x3e220748	0.1582309
91	0x3e224fe7	0.15850793
92	0x3e2bc88c	0.16775721
93	0x3d8991b4	0.06717244
94	0x3e6db880	0.23214912
95	0x3e46d326	0.19416484
96	0x3de91b46	0.11382155
97	0x3e2e991f	0.17050599
98	0x3e091436	0.13386616
99	0x3de3276c	0.110915035
100	0x3d5dde92	0.054167338
101	0x3dd97720	0.106184244
102	0x3e27297d	0.1632442
103	0x3dbb14b9	0.09134812
104	0x3e6f82e0	0.23389769
105	0x3e330bee	0.1748502
106	0x3e0637b5	0.13107188
107	0x3e8bd8e9	0.27313927
108	0x3e06e434	0.1317299
109	0x3e280d67	0.16411363
110	0x3e8be8fb	0.27326187
111	0x3e4a05ba	0.19728747
112	0x3e92eb6d	0.2869524
113	0x3e50b42e	0.20381233
114	0x3e3a9729	0.18221726
115	0x3e5cbd12	0.215565
116	0x3e3f2f0d	0.18670292
117	0x3e52043a	0.20509425
118	0x3db8aed7	0.09017723
119	0x3e135f58	0.1439184
120	0x3e3fea73	0.18741779
121	0x3e2bfbf0	0.16795325
122	0x3e169fcf	0.147094
123	0x3e39ccda	0.18144551
124	0x3e42a638	0.1900872
125	0x3e55b7a6	0.20870838
126	0x3d8ca255	0.068669
127	0x3e159f87	0.14611636
128	0x3e3c5025	0.18389948
129	0x3d9d2bf7	0.07674401
130	0x3e1494e6	0.14509925
131	0x3e3d2955	0.18472798
132	0x3e53837f	0.2065563
133	0x3e3518fc	0.17685312
134	0x3e0c81fa	0.13721457
135	0x3e033698	0.12813795
136	0x3e09c164	0.13452679
137	0x3e446eb4	0.19182855
138	0x3dafad07	0.08577924
139	0x3e11f703	0.14254384
140	0x3e632f34	0.22185975
141	0x3e2e6172	0.1702936
142	0x3e38cce1	0.18046905
143	0x3e18cbdf	0.1492152
144	0x3df032e3	0.11728456
145	0x3de10bad	0.10988555
146	0x3dc84f85	0.09780792
147	0x3d4264ba	0.04745934
148	0x3dfea07d	0.124329545
149	0x3d7ac8c4	0.06122662
150	0x3d99bf95	0.075072445
151	0x3e0573f9	0.13032521
152	0x3da63de4	0.081172734
153	0x3e669d08	0.2252084
154	0x3e302a05	0.17203529
155	0x3d4ea3b5	0.050449092
156	0x3e2a8d1e	0.16655394
157	0x3de8c932	0.113665
158	0x3e5cc045	0.2155772
159	0x3e3fabd8	0.18717897
160	0x3e0bc1b3	0.13648109
161	0x3e30e3c7	0.1727439
162	0x3da8cd91	0.08242334
163	0x3de66e64	0.11251524
164	0x3e2f1959	0.17099513
165	0x3e0cccf4	0.13750058
166	0x3dff5126	0.1246665
167	0x3e23682f	0.15957712
168	0x3d9fddf6	0.078060076
169	0x3da093cc	0.0784069
170	0x3d8dd774	0.0692586
171	0x3d5f7f08	0.054564506
172	0x3e306c65	0.17228849
173	0x3d8dea01	0.06929398
174	0x3d8e2525	0.069406785
175	0x3dc35445	0.095375575
176	0x3e144055	0.14477666
177	0x3e192d9d	0.14958806
178	0x3dc8ca39	0.09804196
179	0x3dd93628	0.106060326
180	0x3e079b11	0.13242747
181	0x3db694a1	0.089150675
182	0x3e33187c	0.17489809
183	0x3d8c8abf	0.06862401
184	0x3e1ba127	0.15198193
185	0x3e3e828e	0.1860449
186	0x3db1a903	0.086748146
187	0x3e2a18c3	0.16611008
188	0x3dbd6dae	0.09249435
189	0x3e22d27e	0.15900609
190	0x3d991c75	0.07476131
191	0x3d97542b	0.07389101
192	0x3db0e2e5	0.08637027
193	0x3df51333	0.119665526
194	0x3dde63f0	0.10858905
195	0x3e180fbb	0.1484975
196	0x3cf198b4	0.02949176
197	0x3d2e4249	0.042543683
198	0x3d96b632	0.0735897
199	0x3d29e69c	0.041479692
200	0x3d063f7d	0.03277539
201	0x3c173543	0.009229007
202	0x3e05fb43	0.1308413
203	0x3e07494b	0.13211553
204	0x3d0096e4	0.0313939
205	0x3e151717	0.1455959
206	0x3e2517d9	0.16122378
207	0x3dda427f	0.106572144
